AGCRN-master/model/model_para/PEMSD4/epoch_246.pth (torch, 852993 bytes, 64 tensors)

node_embeddings f4 [307, 2]
00000000: 7efd 093e 102a 93bd c3e8 a33d cf67 e5bd
00000010: f755 163d 6a29 93bd 6d36 a9bd d124 f4bd
00000020: 2bb6 5d3c 3711 953d 3b69 b2bd fe8d bf3d
00000030: e7a2 c03c 79ad 463d 1eac 97bd 9b26 02be
00000040: 994b d33c 0e8a 373d 6288 9e3d 631b 06be
00000050: 7753 98bc 8dec eebc 9c48 6fbd ed35 793d
00000060: 7bb6 583c ab74 f8bc eaed 9e3d 031c c7bc
00000070: 9bdb cfbc 118d 9f3d be44 d1bd 513f d4bd
00000080: 7e68 9d3c 5f19 f4bd f77e c8bd 6789 8cbd
00000090: 6e24 d13d b5a0 d2bc e782 a8bd fa0e 27bd
000000a0: ffe1 9a3d 48f5 c63d 22d0 54bc 02d7 01bc
000000b0: eb39 9ebd 35c0 b1bd 2519 cb3b cd70 e4bd
000000c0: 6cc7 b0bc c002 833d 3566 e1bc 8b71 d03d
000000d0: b258 0e3e 4de9 9e3d 208c 133d d94b 953d
000000e0: f87d 02be cbf1 fe3d 0be0 913d 6da1 013d
000000f0: fb59 aebd d6c7 8dbd 500c acbd 5375 2c3c
00000100: 4d7b 8dbc 7707 8e3d c62a d03c 078e b33d
00000110: 3998 3dbd b8ea e33d 036a 843b db14 d1bd
00000120: 46ea 433d 6767 9b3d d48b 9ebd f23f 4abd
00000130: c656 503c cd39 643c d841 9a3d b5c7 0fbd
00000140: 5df4 043e b802 0ebd 367f f43d 4f25 063d
00000150: f0a5 f5bb bff0 ce3d d066 c0bd 3e4f bebd
00000160: fc46 103d 9ca7 623d fab9 0ebd b824 d5bd
00000170: c61b 143d 0185 0e3e 1c26 1e3d 3302 b43b
00000180: 7672 a7bc d530 acbb aca8 143c a648 c7bd
00000190: fe52 073d b143 103d 5bb0 493d 5869 d2bd
000001a0: 7817 463d 08e5 bdbc 1b52 84bd 1431 a0bc
000001b0: 5239 0d3e 8fab 333d 98b5 76bc af55 223d
000001c0: 2387 2d3b 0b88 73bd 9fa9 29bd 9fda d23d
000001d0: 7bee 0fbc eeae 97bd d5c6 1dbd 2218 913d
000001e0: 5cbb ad3d af51 cb3c d4e5 f4bc eea3 003e
000001f0: 9808 91bd 5af7 9a3c 770e 8b3d 82b6 123c
00000200: 8766 22bd fbbb 04bc 4804 083e cc5c 86bd
00000210: e261 883d 34f7 85bc c4cf ef3d 68b0 e6bd
00000220: 86b9 943d 4143 d03d 5350 cb3d a267 93bc
00000230: 1c94 1dbc 4961 653d efd1 513b 145f a8bd
00000240: 029d 99bd 8c46 f9bd fe6c b9bd 9166 0ebe
00000250: 5d64 97bd afd8 e63c 6cbd b6bd 0ea0 adbd
00000260: 72c0 853d 8520 d5bd fbf8 8a3d be16 383d
00000270: a889 483c d762 24bd 750c c13d fac7 a8bd
00000280: 29b9 01be b6f2 6ebd c915 433d f958 febc
00000290: 9784 afbb 73b1 bcbd 8f06 4dbd 31e2 2a3b
000002a0: 132a 02be 3bd8 293d c388 d33d 3108 d5bd
000002b0: a76d e83d c4d1 023e 62d3 04be 3b10 243d
000002c0: d91f bbbd e00b 99bc 3b96 a0bd a357 e8bd
000002d0: 954c fbbd f13a 3cbd 0d4b df3d bf0b aebd
000002e0: 0239 e8bd c250 64bc fda6 8c3c 652f fb3d
000002f0: ccef fabd eb83 5d3d b2b3 a03d b8f9 0a3e
00000300: 9a8d 27bd 5375 5cbc cb17 d7bd 7272 c53b
00000310: ee95 5cbb 2e51 26bd f121 7ebd 1751 b33c
00000320: 0c74 e2bd 24d2 273d e1c1 a2bd d6e8 9bbc
00000330: 869e 9a3d 9a31 8d3c 4bb8 8dbd 8d2e 143d
00000340: dcaa f13d db6d 0c3e b53b 003d e820 03be
00000350: 58f7 16bd a3dc 42bd bb39 0bbe 331d 953d
00000360: f8f9 a43c 0580 4dbd dae9 fd3d 44ac e6bd
00000370: c776 843d 38d9 5c3d fdb1 80bd f9e0 9e3d
00000380: 4a94 09be e937 c8bd 3e20 8bbd 1cbf 0b3e
00000390: 0b24 e1bd 661d 12bd c6e0 e93c 9292 01be
000003a0: c60c 273c b164 cc3d 55ed 833c f53a 0c3d
000003b0: 23b0 c7b9 3c29 7d3d 43ec cfbd 779b cb3c
000003c0: 0fc4 f93d 66ab aabd b232 a6bd cdcd 3dbd
000003d0: b80b a83d 7ad4 3f3d 74aa 48bd e667 73bd
000003e0: 1e50 f1bd d54b bb3d 6f0f be3d a43a 853d
000003f0: 349b a8bd 0879 b83d 27ba ab3d d75a e53d
0.13475606 -0.07185757 0.0800338 -0.112014405 0.036703076 -0.071856335 -0.08262334 -0.11921085
0.013532202 0.07278674 -0.08711477 0.09353255 0.023515178 0.04850528 -0.074058756 -0.1271004
0.025792884 0.044809394 0.07740857 -0.13096385 -0.018594487 -0.02916553 -0.058418855 0.060842443
0.0132271005 -0.03032907 0.07760222 -0.02430535 -0.02537327 0.07790578 -0.1021819 -0.10363639
0.019214865 -0.11918902 -0.097898416 -0.06862145 0.102120265 -0.025711397 -0.08228093 -0.040785767
0.075626366 0.097147524 -0.012989076 -0.007924797 -0.07725891 -0.08679239 0.006198066 -0.111543275
-0.021579467 0.06397009 -0.027514556 0.101779066 0.13901022 0.07759342 0.036022305 0.072898574
-0.12743366 0.12448462 0.07122811 0.03164809 -0.08513256 -0.06922881 -0.08400786 0.010526019
-0.017270708 0.069350176 0.025411021 0.08767324 -0.04628775 0.111287534 0.004040958 -0.10209056
0.047830842 0.07588082 -0.07741514 -0.04937739 0.012716001 0.013929796 0.0753209 -0.035102565
0.12983842 -0.03467056 0.11938326 0.032750424 -0.007496588 0.101045124 -0.0939461 -0.09292458
0.035223946 0.055335626 -0.03484533 -0.10407394 0.0361593 0.13917924 0.038610563 0.005493426
-0.020440321 -0.0052548447 0.009073418 -0.097306535 0.033038132 0.035220806 0.04924045 -0.10273999
0.048362225 -0.0231805 -0.06460973 -0.019554652 0.13791397 0.043864783 -0.015057944 0.039632495
0.0026478253 -0.059455913 -0.04142153 0.10295605 -0.0087848855 -0.07406412 -0.0385197 0.07084681
0.084830016 0.024819223 -0.029894747 0.12562534 -0.07081717 0.018916775 0.06789868 0.008954646
-0.03964856 -0.008101459 0.13282883 -0.06560668 0.06659295 -0.016353227 0.1170955 -0.112641156
0.07261948 0.10169078 0.0992743 -0.017993752 -0.009617832 0.05600098 0.0032016 -0.0822126
-0.0750065 -0.12171659 -0.09053992 -0.13906313 -0.0739219 0.028179495 -0.08922848 -0.08477794
0.06530847 -0.10406593 0.067857705 0.044943564 0.012239851 -0.040133324 0.09426204 -0.082412675
-0.12668289 -0.058336936 0.047628198 -0.031048285 -0.005356382 -0.09213533 -0.050055083 0.0026074762
-0.12711363 0.04146598 0.103288196 -0.10401953 0.113490395 0.12775332 -0.12971261 0.04005454
-0.09136934 -0.01868242 -0.07841154 -0.113448404 -0.12270466 -0.04595465 0.10902987 -0.08498334
-0.113389984 -0.01393527 0.01716947 0.12264899 -0.12252769 0.054080885 0.07846774 0.13571823
-0.040906526 -0.013455707 -0.10502585 0.006025606 -0.00336587 -0.040604763 -0.062044088 0.021889253
-0.110572904 0.04097189 -0.07947136 -0.019031923 0.07549767 0.017235566 -0.06919917 0.036177207
0.11800167 0.13713782 0.03130694 -0.12805521 -0.03685698 -0.047573697 -0.13596241 0.0728096
0.020138726 -0.050170917 0.12398119 -0.11263326 0.064679675 0.053918093 -0.062839486 0.07757754
-0.13435474 -0.09776289 -0.06793259 0.13647121 -0.10993203 -0.035672568 0.028549563 -0.12653568
0.0101959165 0.09980143 0.01610438 0.034235913 -0.0003808747 0.061806902 -0.10152485 0.024854405
0.12195598 -0.08333473 -0.08115138 -0.046338845 0.0820536 0.046833493 -0.04899068 -0.059425257
-0.11782859 0.09145323 0.092802875 0.065053254 -0.08232728 0.0900746 0.08385115 0.11198967

encoder.trans_layer.trans_layers.0.qff.weight f4 [64, 64]
00000000: d1b8 89be 54b1 7e3e 7d90 08bf 2aba 7b3f
00000010: 80b4 fd3e d6eb 6d3e 665f f8be 3785 073f
00000020: 7cb7 85ba 4125 56bf 297b 5abe f398 3c3f
00000030: 544a 35be 6bfd 363f 6e04 84bf 77a2 2c3d
00000040: b2cf b73e b46f 0fbe 6baf 1e3f f5f9 68bd
00000050: 0fe5 943f 3a90 023e 694f f9be 61c3 c33f
00000060: 88a0 2dbf 1346 243f a06c 47be 272d 3b3e
00000070: 7e94 d43e 3919 c7be 83f6 9ebe 0851 833e
00000080: 5a11 2bbe 1840 4bbf 9d16 2cbf 9aa4 d33e
00000090: 5915 edbd f9d3 8b3e 05c8 2f3f 80a9 65be
000000a0: fa09 683e 0bf4 ad3a 1d10 163e 3860 01bf
000000b0: d891 15bf 074e d8bd b1f1 1e3f dd79 08bd
000000c0: cd40 1e3e 1a3d 7ebe 7794 28be bca0 6fbe
000000d0: be27 2e3f 6646 363f 9a48 cfbb 2626 e13e
000000e0: 90c7 b4be 8b18 b7bd 184b 25bf c52e 14bf
000000f0: 2171 143d 2f5a 80be e805 86bd fedf e93c
00000100: f069 863e b563 a7bd 1543 17be b74a 08bf
00000110: b17e b53e db33 1f3e 09b2 dd3e 8dfe 003d
00000120: 9518 8cbe 0801 17bf 311b 8c3e f6bd 40be
00000130: 45fd 263e 5133 ba3d adf4 103f 0546 08bf
00000140: 1b9e f13e dc72 bebe 4eae 5d3f 9fd0 e53e
00000150: b392 8d3e 98a0 953e dd17 0bbd 878a eb3d
00000160: 44e8 10bf 2617 163f c5dd 14be 5432 f6be
00000170: c05d 8bbe e845 773e 5bfb 0cbc 0c94 52be
00000180: c74e 22bf c2b9 f6bd 8f91 35be 7213 113e
00000190: 9511 26bf f0a4 103e 5a90 60be 204c 9fbe
000001a0: e98c 9e3e f110 4c3e a9cc 6f3e ef20 67be
000001b0: 45e6 273e 391b 43be 27ab 75be 36f2 d7bd
000001c0: 0700 cebd e2ee 7f3e b855 193f 4171 39bf
000001d0: d4c2 d73e 776c c4be 49b1 eb3d 7c49 983c
000001e0: f828 b4bd 289b 4d3e 26cf 0b3e 0511 983e
000001f0: 6fb5 17be 432a 85be 6d75 90be 882b 8ebf
00000200: 8c43 363f 279d 3bbe bd00 8fbe bddc 8bbf
00000210: 6dc7 d73d b8f8 67bd d827 823c 4a18 21bf
00000220: 5538 c8be b8ae b73e 3fef a83d 808b 42be
00000230: 9457 2e3d 2c8d 98be 82d4 1dbe 1faa 323e
00000240: fd0c 85be 5631 9fbd bfbe 20be 4f4f 0a3f
00000250: a641 db3d 5db4 4d3e a387 e73e c64a 393e
00000260: 5ef6 043f ab84 603e ebdc b9be ecbf 4d3f
00000270: 17cc 333f b1bf 9c3e 682f 49bf e21e c8be
00000280: becb 0fbe d33a 663c 45d7 dfbe 3fff 25be
00000290: f2ce f3bd 0f2c aabe adf7 6f3f ece1 873e
000002a0: 4aa1 133e 0a68 2c3f c3eb f73d 4690 27bf
000002b0: a7ea 4b3e 5c0d bcbd f34b 2bbf 1695 6c3e
000002c0: 320f 823e f884 a4bc 28c1 b73e 7317 eabe
000002d0: 2119 7cbe 842f 8d3e 002a f9ba 84bd 17bf
000002e0: 327e 1e3c 7502 94be f103 a9be 3e33 08bf
000002f0: 53e8 c43e 6c4a 373d 6df9 b63e ff19 ee3e
00000300: ff71 6d3e 2f7c 8abe cf95 6938 b924 83bf
00000310: 90ae b9be 5f17 eebe 540a 01bf a1a2 133f
00000320: 4d92 673e 4321 063e 2d05 eb3e b242 a33d
00000330: 63c4 c03d 4850 9ebe a0ec 80be 0867 593e
00000340: 3c4c 39be 9bd0 06be 41d9 383f 04c7 45bf
00000350: 314d d93e 3bd3 a63e fbe9 afbe b013 80be
00000360: 3d06 ac3e cc01 20bf a7a3 46be bdb7 c9be
00000370: 698d cbbe 6713 d53e 6de6 c43e 3ae5 c23c
00000380: 7046 26bf 645c 253f d8ac 9b3e ebc0 a53e
00000390: ece2 edbe 5d8d 0c3e e385 183f 09e4 e33e
000003a0: 8fe4 8b3f 746d f0be d172 043f d224 b6be
000003b0: 08bb d4bc 8eef 133f 2927 4bbe f442 243c
000003c0: 02d1 37be a8da efbc e29a d33d 172e a3bd
000003d0: 0652 e3be 7e38 a7bd 1a81 f83d 21a4 3bbe
000003e0: 298c 8d3e b913 f13d 3fef bfbe b395 e0bd
000003f0: 12f8 053e bf97 ddbe 15b2 df3e fac0 3dbf
-0.26898816 0.24872333 -0.5334547 0.9833094 0.49551773 0.23234496 -0.48510283 0.52937645
-0.0010201777 -0.83650595 -0.21336044 0.7367088 -0.17704135 0.71480435 -1.0313852 0.042147126
0.35900646 -0.14007455 0.61986417 -0.056879003 1.1632403 0.1275033 -0.48693398 1.5294
-0.67823076 0.64169425 -0.19475031 0.18278943 0.4151954 -0.3888643 -0.3104745 0.2564776
-0.16705838 -0.79394674 -0.67222005 0.4133652 -0.11576337 0.2731016 0.6866458 -0.2242794
0.22660056 0.0013271583 0.14654584 -0.50537443 -0.58425665 -0.105617575 0.6208754 -0.033319343
0.15454407 -0.24827996 -0.16462885 -0.23401159 0.6802939 0.7120117 -0.0063257935 0.43974417
-0.35308504 -0.08940228 -0.6456771 -0.57883865 0.0362407 -0.25068805 -0.06544095 0.02854919
0.262527 -0.081733145 -0.14771684 -0.53239006 0.3544822 0.15547125 0.43299893 0.03149276
-0.27362505 -0.5898595 0.27364495 -0.18822464 0.16307552 0.09091819 0.56623346 -0.5323184
0.47190937 -0.37197006 0.8659409 0.44885728 0.27650985 0.29224086 -0.033958305 0.11501031
-0.5660441 0.5862907 -0.14537723 -0.48085272 -0.27219963 0.24147761 -0.00860485 -0.20564288
-0.63401455 -0.12047149 -0.17731307 0.14167574 -0.6487058 0.14125419 -0.21930066 -0.31112766
0.3096688 0.19928338 0.23417915 -0.22571157 0.16396435 -0.19053353 -0.2399107 -0.10544245
-0.10058599 0.2499347 0.5989642 -0.72438437 0.4214083 -0.38364002 0.11508424 0.018589728
-0.08796877 0.20078719 0.1365324 0.29700485 -0.14815305 -0.26008806 -0.2821459 -1.1107035
0.7119682 -0.18321668 -0.2793025 -1.0926739 0.10536084 -0.05663368 0.01588814 -0.6292769
-0.39105478 0.35875487 0.082487576 -0.18998528 0.04256399 -0.29795206 -0.15413097 0.17447709
-0.25986472 -0.07773082 -0.15697764 0.54027265 0.10705881 0.20088334 0.4522067 0.1809493
0.51938426 0.21925609 -0.3630136 0.80370975 0.7023329 0.30615 -0.7858796 -0.39086062
-0.14042565 0.014052111 -0.43718925 -0.1621065 -0.11904706 -0.3323674 0.937373 0.26539552
0.14416996 0.6734625 0.12105515 -0.6545452 0.19913732 -0.091822356 -0.66912764 0.23103747
0.25402218 -0.020082936 0.35889554 -0.45721015 -0.24618961 0.27575314 -0.0019009709 -0.5927355
0.009673642 -0.28908125 -0.3301082 -0.5320319 0.384585 0.04474871 0.35737172 0.46504208
0.23188017 -0.2704787 5.569105e-05 -1.0245582 -0.36265993 -0.46502206 -0.50406384 0.57670027
0.22614403 0.13098626 0.45902386 0.079717055 0.09412458 -0.30920625 -0.2518053 0.2123071
-0.18095487 -0.13165514 0.72206503 -0.772568 0.42441705 0.3258303 -0.343582 -0.2501502
0.3359851 -0.6250274 -0.19398366 -0.39397994 -0.39756325 0.41616365 0.3845705 0.023790944
-0.6495123 0.645941 0.30405307 0.32373747 -0.4646219 0.13725801 0.59579295 0.44509915
1.0929126 -0.46958506 0.51737696 -0.35574967 -0.02596809 0.57787406 -0.19839157 0.0100257285
-0.17950824 -0.029279068 0.10332276 -0.07967775 -0.44398516 -0.08165072 0.12133999 -0.18324329
0.27645996 0.1177134 -0.37487218 -0.10966053 0.13082913 -0.43279836 0.43690553 -0.74122584

encoder.trans_layer.trans_layers.0.qff.bias f4 [64]
00000000: f1dc 6b3f 1b6d c03e e293 bc3e 8d7b 043f
00000010: 613e 773f b797 3e3f e9cc 163f 8f67 9d3e
00000020: 903a 083f eac1 113f 5afc f53e 8285 1f3f
00000030: 7548 813f d08b 833e dcc0 c53e 291e 383f
00000040: 5b3a 853d 13ca 833f 3dd2 033e 0ff1 c13c
00000050: a73e 443d 7e6b 01be b5a9 2f3f d966 323f
00000060: 2a31 143f 8f2a cb3e dad0 dd3d bbda 853f
00000070: 2ae2 de3d aa8c e03e b33f 0e3e 1747 f33e
00000080: 68d4 0d3e 78a9 5a3f 558e 833f 2246 4d3f
00000090: eece 933e fd6d 283e 7595 2d3f d655 773f
000000a0: 90ba 3b3f 0f08 153f cdd8 293f 209a 163e
000000b0: ee31 ad3e f92f cc3c 8c55 d13e 0eb1 293f
000000c0: 5c72 e43e bc56 2b3f 3fd5 573f 3ea9 a63c
000000d0: 2bc0 383c 0dc8 9f3e 7030 293f 77bb 583f
000000e0: d313 f53e 3020 603e eeba 983e c2b8 3e3f
000000f0: e983 673f da2e 7b3f b720 4a3e dd42 6f3f
0.92134005 0.3758324 0.36831576 0.51751024 0.9657956 0.7445025 0.5890642 0.3074307
0.5321436 0.56936514 0.4804409 0.6231309 1.0100237 0.25692606 0.38623703 0.7192102
0.06505271 1.0296043 0.12873168 0.023674516 0.047911312 -0.12638661 0.6861833 0.69688183
0.5788752 0.39680907 0.10830851 1.0457376 0.10882981 0.43857318 0.13891487 0.47515175
0.13850558 0.8541484 1.0277811 0.8018514 0.28868812 0.16448207 0.6780618 0.9661535
0.73331547 0.5821542 0.66346437 0.14707232 0.33827156 0.024925219 0.4088558 0.6628579
0.446185 0.6692922 0.8430976 0.020344373 0.011276285 0.31207314 0.66089535 0.8466105
0.47866687 0.21887279 0.29830116 0.7450067 0.90435654 0.98118365 0.19739042 0.934614

encoder.trans_layer.trans_layers.0.kff.weight f4 [64, 64]
00000000: b686 e03e fc8e afbd 7b9c 7e3d 13e6 8cbe
00000010: 96c5 383e 248c 25be 0362 a43d 338d 1b3d
00000020: ccb5 3f3e 645c 8a3e cc61 c7be f834 223e
00000030: 8009 b83e f8ff dabe 8ec1 c13e 177e c5be
00000040: ebab 183f dce3 563c 954b 1c3d 3249 04bf
00000050: 4bd5 e0be e86c 38bd fe02 04bf 7cff 273f
00000060: 083a ee3e 5e51 ec3d 5d50 2b3b 59fe 643f
00000070: a96b 4ebd ecfc 153d 10e0 d13f 3bdf d83c
00000080: 48f8 91be 30e7 4ebf a73a bdbd fc39 bb3e
00000090: 399c 25bf ff77 9f3d 3cc8 bb3f 3897 4abe
000000a0: 4493 e5bf a6c4 06bf 43b5 3e3e f84a 053d
000000b0: 7e87 3c3d c03a a7bf a1ea 1d3f e082 973e
000000c0: f21c 86bd 4573 663f 650e 41bf dc20 0bbe
000000d0: 31cd 773e 18a5 96bf df2e 07bf 548c c73e
000000e0: 1a22 43be 85ad 0fbf 799a 6ebe 567a 7b3e
000000f0: 2985 e33e d520 db3c 9798 44bf 7b55 e6bd
00000100: 9f0f 6b3e c575 a93e 771e 04be 48c1 823e
00000110: f31c 29be cdae fe3d c715 8a3e 8724 7d3e
00000120: a95a 5abe e4a0 2d3d 71ec 6d3b 359f 0cbe
00000130: a418 aa3d c1a7 15bf 124b 703e 86a2 8cbe
00000140: 8b29 08bf a12a a93e 74fc c2be 4375 30bf
00000150: cabc eebe 7824 adbd aa0f 1cbf 74b6 a03e
00000160: b6f7 3bbc a198 8d3e 9511 15bd 48b4 66bf
00000170: 9081 1bbc 5928 9dbe 6fb4 a63c 8e60 c8be
00000180: e5c4 ab3c 450d 30bd 1eb2 61bc b6f2 c43e
00000190: b6a8 9abd 8d22 82be 1bab f33e f263 07be
000001a0: 7b26 81bf f9f1 debe 7eab f63d f20d 3cbf
000001b0: a90a bc3d 5dac ac3f b74e b1be 63d7 3bbe
000001c0: c90b 273e 6592 dc3e 54cd 41be c164 41bf
000001d0: fc0e ff3e a0d3 af3e 8e14 44bf 2021 dabe
000001e0: 716e d83e 1ce4 fdbc 5be9 973e d60b d13d
000001f0: bc58 85bf 3b25 45be b4f5 71be a3d2 e5bd
00000200: 2286 243e 2d26 c5bd ac46 2b3e e4be acbe
00000210: 60b6 aabe b03e 923e 88c9 b03e 0c61 ec3e
00000220: 1d3a 8a3e 2948 b8bd c044 b8bc 8183 85be
00000230: 8611 4abb 8c12 82bc 98ab 36bd cfb9 80bd
00000240: 8e71 95be 849c 2bbd 8eab 733e 4a47 163d
00000250: 027d a7bd 7feb c0be 9f94 90be d66a e53e
00000260: 5823 40bd f274 bf3e 22ec abbe 7cd0 673f
00000270: 06f0 d1be 8cb3 b3bb 9c58 85be aef8 713e
00000280: 23cf 4c3f 4d6d fbbc f820 f2be 353c 463e
00000290: 3c18 01bd ccc2 64bf cacc 5dbe c41e 013e
000002a0: 59c7 2fbf 2055 f13d 90b5 5e3f 90cf 38bf
000002b0: 672a 2b3d 6323 973f 8212 a1bf 2a17 bebd
000002c0: 9129 13bf 80fc 0bbf ad7c 50be 26a2 52be
000002d0: e6cf 48bd 7490 b93c fbfb 2a3f 7a5a 283f
000002e0: 94c0 483f 2f8c 98bc 0247 68be 5967 d23e
000002f0: 7884 533e 1b7d f43b 5e73 8bbc 5763 2ebf
00000300: d072 8b3d e6c7 bcbe 7395 43be f111 85bc
00000310: fa11 bd3e cf39 7bbc afc3 0e3e f5ab 013e
00000320: 5d22 cabd 2e5c 5dbd 9810 2a3e 2fd8 293e
00000330: ed92 923d 5eb9 e9be 6fe6 eb3e b2d0 563d
00000340: 4543 45bf 9a13 093e 1b64 ea3e bcde 033f
00000350: b7ba 093f ff4c 373e e0fa bcbe 4c03 00bd
00000360: e5b9 883e 3895 52be 3fd2 2fbf 06a4 1dbf
00000370: 971a 9cbe f254 c3bd 4cc8 99be 445d 303e
00000380: b39b 193e 7c12 cfbe 909e 0c3e 6857 a03b
00000390: 2002 abbc e46a 853d 53f4 013e 6781 78be
000003a0: fe82 a23e 70ce 8abd eeb3 023f de33 adbd
000003b0: 35e5 34bf 6d7d dbbd 624c 29bd 192b d43d
000003c0: f5af d53e db16 2d3e a1b9 223f 8fd5 95bf
000003d0: 8da6 3c3f fc13 573e b70a ac3e 5cbd 773c
000003e0: a30e 6d3f ad0c 163f c9bc 19bf de91 173e
000003f0: e399 48be 0033 9cbf 2115 8c3e 8e7f 473f
0.43852776 -0.08572194 0.06216095 -0.27519283 0.18044123 -0.1616674 0.08026507 0.037976455
0.18721694 0.27023613 -0.389418 0.15840518 0.35944748 -0.42773414 0.37842983 -0.3857276
0.59637326 0.013115849 0.03815802 -0.5167419 -0.4391273 -0.045025736 -0.51567066 0.65624213
0.4652865 0.11538957 0.002614043 0.89450604 -0.05039564 0.03661816 1.6396503 0.026473632
-0.28509736 -0.80821514 -0.09239703 0.36567676 -0.646915 0.07786559 1.4670482 -0.19784248
-1.7935567 -0.5264381 0.18623833 0.0325422 0.046027653 -1.3064804 0.6168614 0.29592037
-0.0654849 0.9001964 -0.7541259 -0.13586754 0.24199368 -1.1769133 -0.52805895 0.3897425
-0.19055977 -0.56124145 -0.23301114 0.24558386 0.4443753 0.026749054 -0.76795334 -0.11246773
0.22955178 0.33097664 -0.12902246 0.25538087 -0.1651495 0.12435684 0.2696974 0.24720965
-0.21323647 0.042389765 0.003630426 -0.13732608 0.08305481 -0.584591 0.23466137 -0.27467746
-0.5318839 0.33040336 -0.3808323 -0.6892893 -0.4662841 -0.084542215 -0.609614 0.313892
-0.011472633 0.2765551 -0.03639372 -0.9011884 -0.009491339 -0.30694845 0.02034971 -0.39136165
0.02096791 -0.042981405 -0.013775377 0.38466424 -0.0755171 -0.25416985 0.4759148 -0.1322172
-1.0089868 -0.43543985 0.12044428 -0.7345878 0.09181721 1.3490101 -0.34630367 -0.18343882
0.1631309 0.4308044 -0.18925983 -0.75544363 0.4981612 0.34341145 -0.76593864 -0.42603397
0.4227176 -0.03099256 0.29670224 0.10207336 -1.0417705 -0.19252484 -0.23628885 -0.112218164
0.16066793 -0.09626422 0.16726178 -0.33739388 -0.33342266 0.28563452 0.34528756 0.4616779
0.26997462 -0.089981385 -0.02249372 -0.26076892 -0.0030833199 -0.015877984 -0.04459724 -0.0628544
-0.29188198 -0.04189731 0.23795912 0.03668908 -0.0817814 -0.3767967 -0.2823839 0.44808072
-0.046908706 0.3739391 -0.33578593 0.90552497 -0.41003436 -0.00548405 -0.26044166 0.2363002
0.80003566 -0.030691767 -0.47290778 0.19358905 -0.031517252 -0.89359736 -0.21660152 0.12609392
-0.68663555 0.117838144 0.8699579 -0.72191715 0.041788485 1.1807674 -1.2583773 -0.09281762
-0.574853 -0.5468216 -0.2036006 -0.20569667 -0.049026392 0.022651888 0.6679074 0.65763056
0.7841885 -0.018621532 -0.22683337 0.41094473 0.20656002 0.007461203 -0.017022785 -0.6812033
0.06809008 -0.3687126 -0.19099979 -0.016243907 0.36927778 -0.015333607 0.13941835 0.12663253
-0.098698355 -0.054042988 0.16607893 0.16586374 0.0715693 -0.45649236 0.46074244 0.05244512
-0.7705577 0.13386384 0.457795 0.5151174 0.5380053 0.17900465 -0.36910152 -0.031253144
0.26704326 -0.20564735 -0.68680185 -0.61578405 -0.30489036 -0.095376864 -0.30035627 0.17223078
0.15000801 -0.4044379 0.13732362 0.004893232 -0.020875037 0.065145284 0.12690859 -0.24268113
0.31740564 -0.06777656 0.510558 -0.084571585 -0.7066224 -0.107172824 -0.04133261 0.10359783
0.41735807 0.1690325 0.635645 -1.1705798 0.73691636 0.21003717 0.33601925 0.01512083
0.9260046 0.5861309 -0.6005369 0.14801738 -0.19589953 -1.2203064 0.2735987 0.7792901

encoder.trans_layer.trans_layers.0.kff.bias f4 [64]
00000000: 165c 6d3f fa40 fe3e e5af 283f 8173 1e3e
00000010: b16c 853f 4a1a 943e 0929 103e 07f1 7d3f
00000020: 46aa 113f 5987 713e 6db5 0a3f 7e75 823f
00000030: 20df 643f f3cb 463f dce6 f73e 1b87 823b
00000040: 59cd 353d 2df0 db3d e351 1a3f ddf7 313e
00000050: 3739 723f 74e0 ed3e c96e 783e c9ae 0b3f
00000060: f928 333f 653e 143f aca1 e93d 0a23 32bc
00000070: f186 343e 3e96 273e bf78 473e 7e92 833d
00000080: 26cd 223d 0d11 3c3e 375d 333f 0ed4 0c3f
00000090: e8b0 1b3f 1add 133f 351c 383f 799f 633e
000000a0: 0261 063f b5bd 8e3e 8ecf 403f af36 273e
000000b0: b875 083f 7683 bc3e b5d7 ff3e faf6 003f
000000c0: ab8c 203f 0432 9e3e ef38 4d3e f535 b73e
000000d0: d218 323e 4b09 e73e f992 313f cc2c a33e
000000e0: 2579 6c3d ccac 3f3f e1fe ee3d febd 213e
000000f0: 1244 023f e60c 313f 92d3 683f fa20 753e
0.92718637 0.49658948 0.65893394 0.15473749 1.0423795 0.28926307 0.14078154 0.99195904
0.5690044 0.23586787 0.54183084 1.0192106 0.8940296 0.7765495 0.4841832 0.003983391
0.044385288 0.10739169 0.602812 0.17379709 0.9461855 0.46460307 0.24261011 0.54563576
0.69984394 0.57907706 0.114077896 -0.010872612 0.17629601 0.16365907 0.19479655 0.064244255
0.039746426 0.1836588 0.7006411 0.5501107 0.6081681 0.5775925 0.7191804 0.22228803
0.5249177 0.2787911 0.75316703 0.16329454 0.53304625 0.36819047 0.4996926 0.50376856
0.6271464 0.30897534 0.2004125 0.35783353 0.1739228 0.45124277 0.6936489 0.31870115
0.05773272 0.7487304 0.11669708 0.15795133 0.5088512 0.69160306 0.9094783 0.23938361

encoder.trans_layer.trans_layers.0.vff.weight f4 [64, 64]
00000000: 79c6 9cbe 6e3b 243e a385 133d 5c6a 73be
00000010: 4999 863e cb30 8f3c 88ed c53d 859a 0fbe
00000020: 7862 d93d a481 c23d baee 0e3e c3c1 97bd
00000030: 0203 33be ff2d eb3e 36b2 a3be 38bf ffbd
00000040: e334 5a3e de84 09be 3e62 843e 6342 dbbd
00000050: 7e0e be3d 9b07 b63d 20ee 6d3e 152c a23d
00000060: 6740 9abe 40d0 6ebd 8917 97be dbb4 8f3e
00000070: 3d8c 0fbe b34c 813d 22bc f3bd f1bc 0ebd
00000080: ef1e 36be f194 fbbd 5bc2 c1be 2536 f33c
00000090: 6913 39be 6d6d 033e 89c6 173e bc64 e3bd
000000a0: 12cf ebbe 3f91 54be a56a 543e ffc4 35be
000000b0: dc8d d43d 9e89 b0be 8001 21be 379b 47be
000000c0: 61a5 11be 0039 5abe db0c 8ebe 1919 3d3d
000000d0: 4c17 12bf 0d37 1cbe e898 1cbe bbfa 483b
000000e0: 6559 253e 59b0 35be 0349 73be 3e7e f43d
000000f0: 0dea 683c 1493 153e ff49 8cbe 570c 863d
00000100: 3148 993e ddf6 2a3f ea8f c6be aca9 123e
00000110: d145 b13e 5f08 3a3f 1513 c1be 3387 113e
00000120: 1854 013f ef3d f6bb 7e06 84be 9e3f 52be
00000130: 7552 2cbe 7522 783d ca84 d63e d710 67be
00000140: 9ef4 07be d85c 1abe d622 0a3e ef0b 373f
00000150: 6fa4 acbe 5b99 d9be 28a8 c0bd 316b 85bd
00000160: 1ea0 96be dcd0 55bd f2b8 3c3e 16b5 70bf
00000170: 438d 393c 5461 013f 3b64 8bbd 9cd0 8c3e
00000180: 3e6c 67bd dc10 52bf 4bb9 45be 749b 38bd
00000190: b2b7 70bd a4d9 14be 6590 5ebf 4397 a1be
000001a0: f455 1b3f 5934 4abe 5d10 cb3b 525b 5fbe
000001b0: da57 443e d45b c4be f556 07be 58cc ed3e
000001c0: cc43 4c3e 6d17 48be b899 adbe 1a86 593e
000001d0: c3fe 2d3c 3ca0 cdbe 2880 91bd 4fa3 803e
000001e0: 4e29 243e 0e9f 1ebe 625f 0abd e8bd 22bd
000001f0: e076 d33e 184e 8ebc cc6d 6d3e d032 01be
00000200: 834a 793d 866c c03e a37c 083e 7e7a a93e
00000210: 6e07 d5be 7b22 983c fb29 a13e b283 f83e
00000220: 198b 153c 5a1a 703e 166e b83d d280 07bc
00000230: fd61 11bd ebd2 033e 2654 c73e 3782 093b
00000240: afc4 f2bd 8085 a7bd 243e 0f3d 90a6 b83d
00000250: 462e 7d3e 1fd6 88bc 77cf d4bc d3e6 ac3d
00000260: 735e 6b3e a003 49bd 3244 883e 82ff 8abd
00000270: 86f2 a2be 645c 303d 0a63 5a3e dd23 fb3e
00000280: b3bb be3e 364d a5bc ae90 163f 8e51 913d
00000290: 8c0f 5cbe f099 59be d914 a93e a5b5 f0bc
000002a0: 4802 bc3e 21ae 8c3b 2e96 453e a889 903e
000002b0: 7c2d 4d3d 7289 f93d 7715 f53e 1ef5 773e
000002c0: d9ae 533e e1b3 543e a177 ac3e 737d ac3e
000002d0: 3b85 f03e 5559 b03e 2615 46be c87e 1cbd
000002e0: 4ff3 07bf 5a1e 4d3e b15a 88be 0b16 38bd
000002f0: 4bfa 203e a784 fe3d 7a9b 543e cce5 0abd
00000300: 7a7e 1fbe a12a ddbd d1e6 cf3d 563c abbe
00000310: c782 f9be 3f5e 113c 8a79 823e 472a 69bf
00000320: 2f09 c5bf 7b89 1d3e 37e1 76be 71cb 993e
00000330: db02 0c3e 1116 94bf cd67 ecbc 0fe5 c8be
00000340: 03bd c43e 3b45 193f bc91 98bd 3bad d8be
00000350: fed5 4cbe 099a d4bd acf4 48be 7c43 e73e
00000360: 1db9 adbe 5ee0 8abe 9962 c63e b709 fabe
00000370: 175e f0be 0ed5 513e c191 323f f667 aebe
00000380: 8ca9 1abd 2c7b 6b3e 057a 603f 93d5 94bc
00000390: 9ecd 44bd 6322 8fbc d047 0c3e a007 02be
000003a0: 55b2 833e b47b 7d3e 7ab9 8dbe 571d 273d
000003b0: 1ab9 babe 60d5 70bd a1fd 37be ef9f f5bc
000003c0: 0c36 b2be ff0a 713f 0c6b d6be 9818 1e3e
000003d0: 2869 b3be c2da 1fbf eb39 153c 1494 f33e
000003e0: fe93 5bbc 6def 4dbd 50d3 b83e 389f 663e
000003f0: 92f6 f53d 56bd 783e 6277 c03e cb55 203f
-0.30620173 0.16038296 0.036016118 -0.23771042 0.26288822 0.017479321 0.09664446 -0.14023788
0.106144845 0.09497383 0.13958254 -0.07410004 -0.17481616 0.4593353 -0.31971902 -0.12487644
0.21309237 -0.13429591 0.25856203 -0.10706022 0.09280108 0.088881694 0.23235369 0.07918564
-0.3012726 -0.05830407 -0.29510143 0.2806767 -0.1401834 0.06313457 -0.11901118 -0.034848157
-0.17785238 -0.12284268 -0.37843594 0.029688904 -0.1807381 0.12834711 0.14821829 -0.11103198
-0.4605642 -0.20758532 0.20743807 -0.1775093 0.1037862 -0.34479994 -0.15723228 -0.19492804
-0.14223243 -0.21310806 -0.27744183 0.046166513 -0.570668 -0.15255375 -0.15292704 0.0030667025
0.16147383 -0.17743053 -0.2375832 0.11938141 0.014215958 0.14606887 -0.27400205 0.065453224
0.2993789 0.66782933 -0.38781673 0.14322537 0.34623578 0.72669023 -0.3770987 0.1421173
0.5051894 -0.0075147073 -0.25786203 -0.2053208 -0.1682833 0.060579736 0.41898185 -0.22565018
-0.13276908 -0.1507448 0.13489851 0.71502584 -0.33719203 -0.42499813 -0.09407073 -0.06514586
-0.29419035 -0.052201137 0.18429926 -0.94026315 0.011325183 0.50539136 -0.06806227 0.27502906
-0.056499712 -0.82056975 -0.19308965 -0.045070127 -0.058768936 -0.14536148 -0.8693908 -0.31560716
0.6067803 -0.19746532 0.006197019 -0.2181218 0.19174138 -0.3835131 -0.13216765 0.46444964
0.19947737 -0.19540186 -0.3390634 0.21242562 0.010619822 -0.40161312 -0.07104522 0.25124595
0.16031381 -0.15490362 -0.03378237 -0.03973189 0.41301632 -0.017371222 0.23186415 -0.1261704
0.060862076 0.37582797 0.13328795 0.33101267 -0.4160723 0.01857113 0.3147734 0.48537976
0.009127402 0.23447552 0.09005372 -0.008270459 -0.03549384 0.12873428 0.38931388 0.0020982155
-0.11853921 -0.0817976 0.03497137 0.09016144 0.24724683 -0.016703663 -0.025977833 0.08442464
0.22985248 -0.049075723 0.2661453 -0.067870155 -0.31825656 0.04305686 0.21326843 0.490508
0.37252578 -0.020178419 0.58814514 0.070956334 -0.21490306 -0.21250129 0.33023718 -0.02938349
0.3672049 0.0042932187 0.1929557 0.28230023 0.050092205 0.12184419 0.4786794 0.24214599
0.20672168 0.20771743 0.3368502 0.3368946 0.46976647 0.34443155 -0.19344005 -0.038206846
-0.53105634 0.2003111 -0.26631692 -0.044942897 0.15720479 0.12427645 0.20762435 -0.033910558
-0.1557559 -0.107991464 0.101514466 -0.3344447 -0.48732588 0.008872568 0.25483352 -0.91080135
-1.5393428 0.15384476 -0.2410935 0.30038026 0.13672964 -1.1569234 -0.02885809 -0.39237258
0.38425454 0.5987126 -0.074496716 -0.42319664 -0.20003507 -0.103809424 -0.19624585 0.45168674
-0.33930293 -0.27124304 0.387471 -0.48835537 -0.46946785 0.2049143 0.6975365 -0.3406369
-0.03775935 0.22996205 0.8768619 -0.018168246 -0.048047654 -0.017472452 0.1369927 -0.12698221
0.25721994 0.2475422 -0.2768057 0.040799465 -0.36469346 -0.05879724 -0.17967845 -0.029983489
-0.3480686 0.94157404 -0.41878545 0.1543907 -0.35041165 -0.6244317 0.009108047 0.47573912
-0.013401983 -0.050277162 0.3609872 0.22521675 0.1200992 0.24290976 0.37591082 0.6263091

encoder.trans_layer.trans_layers.0.vff.bias f4 [64]
00000000: 2f88 7f3c b248 193f be25 533e 7663 793d
00000010: d3f7 853f 073d 443e 3725 403e ee20 463f
00000020: 5448 4e3f 245f ae3e 2720 5d3f 3c59 743f
00000030: 301b 713f 4c35 4e3f 1a96 233f 92de 1f3e
00000040: b217 413f ed90 263f 7517 1a3f 14a1 b53e
00000050: 8b98 b73e bb25 eb3d 6eda 4e3f 204c 563f
00000060: 0011 903e 75f7 2b3f fdb0 a93d 0125 1c3f
00000070: 2949 773f 6b54 943e d413 163f 0567 063f
00000080: 44cb 973e 4cec 113f a5ed 0f3e 80bb 163e
00000090: 8c27 21bd e7ab 383f ae8b 163f 4546 8ebd
000000a0: 2300 7a3f b835 123f eb4b b73e 781f 443f
000000b0: 6316 b93e eae8 cd3e 07d1 d23e 6547 083e
000000c0: b5b3 1d3f a16f a7bd 97a5 c13d 877f 0d3f
000000d0: 189f 013f e726 2a3f 0ce2 573d d377 11bc
000000e0: 65b3 bb3e 6915 3d3f 719b ca3d 0a7a f13e
000000f0: 85f2 2e3f 62e0 1a3f de28 753f 4246 a53e
0.015596434 0.5987655 0.20619866 0.06088587 1.0466255 0.19163905 0.18764196 0.77393997
0.80579114 0.34056962 0.86377186 0.9544866 0.9418211 0.80550075 0.6390091 0.15612248
0.7542678 0.6506489 0.6019204 0.35474455 0.3585857 0.11481806 0.8080205 0.8370991
0.2813797 0.67174464 0.08285711 0.60993963 0.9659601 0.28970656 0.58624005 0.52500945
0.29647267 0.57001185 0.14055498 0.14719963 -0.039344355 0.721373 0.58806884 -0.069469966
0.9765646 0.5711322 0.35800108 0.7661052 0.36149892 0.40216762 0.411751 0.13308485
0.61602336 -0.081755884 0.09455412 0.55272716 0.5063338 0.6646561 0.05270581 -0.008878666
0.36660305 0.73860794 0.09892929 0.4716342 0.68338805 0.6049863 0.95765483 0.32280165

encoder.trans_layer.trans_layers.0.ln.weight f4 [64]
00000000: b766 853f 54ac 3a3f d408 803f 1d8e 8abe
00000010: a8df 4a3f 421f 4d3f 042e 4d3f 871f 243f
00000020: 49cf 863f 81a9 9a3f 06be 703f 8360 753f
00000030: a4bb 7a3f 1c2f 323f 8696 38bf 2891 f43e
00000040: 3ef2 233f 95d6 403f 7d14 943f 4e04 3f3f
00000050: 230b 313f 3192 7f3f c66d 1e3f b539 0b3f
00000060: 08a6 553f 40b2 31bf a55f 183f bce7 1c3f
00000070: bcbd b63f ab32 573f 5466 453f f1ea 903f
00000080: d5f2 7d3f 63ed 323f 2e57 9d3f d6d0 e43e
00000090: cf45 9f3f d979 533f b3ee 433f c653 f2be
000000a0: 4aa4 423f f563 273f d151 803e 0102 5c3f
000000b0: 9920 ae3f 44e6 4d3f e337 c4be 1627 5a3f
000000c0: 2f34 26bf 81db 3e3f e5ea 983f ed24 693f
000000d0: dc40 bf3f e3e8 473f 69a3 283f efb2 873f
000000e0: 40ae 903f 7dea f03e 43ef 083f 1a1d 5e3f
000000f0: 2e54 a83f ebd4 a03f e9f2 363f 0cd9 3d3f
1.0421971 0.729192 1.0002694 -0.2706155 0.7924752 0.8012582 0.8014834 0.64110607
1.0532008 1.2082978 0.9403995 0.9585039 0.97942567 0.69603133 -0.7210468 0.47766995
0.6404151 0.75327426 1.1568753 0.74615943 0.6915762 0.99832445 0.6188625 0.5438493
0.8345647 -0.6941261 0.5952094 0.612911 1.4276652 0.8406169 0.77109265 1.1321698
0.9919866 0.69893473 1.229223 0.4469058 1.2443179 0.826078 0.765361 -0.4732954
0.76031935 0.653869 0.2506242 0.8594056 1.3603698 0.8042948 -0.38323888 0.8521589
-0.64923376 0.74553686 1.1946684 0.9107197 1.4941669 0.7808973 0.65874344 1.0601481
1.1303177 0.470539 0.53490084 0.86763155 1.315069 1.2564977 0.714644 0.7415931

encoder.trans_layer.trans_layers.0.ln.bias f4 [64]
00000000: 65db 513f 93cc a43e 3b8a aa3d 2b34 603e
00000010: 9745 133f 2f7a 383f 15d3 703e c21d bf3e
00000020: dd0a 963e 6260 dc3d 3a86 153f 3ada 5d3f
00000030: 2f64 103f fbbc f4bc c791 f43e 18ef b33e
00000040: 05ba 843d 6e91 0a3f a834 133f e348 573d
00000050: ec31 f53d 412d 2e3f c66d c23e b21b 773e
00000060: 1aed 2e3f 2f0c 333f 3085 2abe 96e8 67be
00000070: 6171 903e b967 c43e d9f9 a5bc 2ccf 833e
00000080: ac33 7e3e c85e 363f f2eb c33e 347c c6bd
00000090: e1de ea3e 4464 c03e 103f 8d3e 2c8d 933e
000000a0: d60c c73d f670 a13e cd00 503e 3c9b 933d
000000b0: 93f5 6d3e 47b3 d33e 11b4 033f 9ded 1bbe
000000c0: 0e90 393e 1778 263f 56da 8b3d f433 ce3e
000000d0: 53c3 093f e98b ca3d 1912 9b3e e365 b43e
000000e0: 7c4b 283f 5030 9e3e fc51 7d3e a6dd 613c
000000f0: 2329 3f3f 0c69 503e 2f81 183e c1ea bcbd
0.81975394 0.32187328 0.083271466 0.218949 0.5752806 0.7206144 0.23518021 0.3732739
0.29305163 0.10760571 0.5840794 0.8666111 0.5640287 -0.02987527 0.4776747 0.35143352
0.06480793 0.5412816 0.5750222 0.052559745 0.119724125 0.680378 0.37974375 0.24131659
0.6833054 0.69940466 -0.1665237 -0.22647318 0.282115 0.38360384 -0.020260738 0.25743997
0.24824399 0.71238375 0.3826595 -0.096916586 0.45873168 0.37576497 0.27587175 0.28818643
0.09719245 0.31531495 0.20312805 0.07207343 0.2323821 0.41347715 0.51446635 -0.15227361
0.18121359 0.6502699 0.06828754 0.40274012 0.53813666 0.09889967 0.30287245 0.35233983
0.6574018 0.30896235 0.24738306 0.013785755 0.74672145 0.20352572 0.1489303 -0.09224463

encoder.trans_layer.trans_layers.0.lnff.weight f4 [64]
00000000: 219f c43e 8071 523f f558 413f 5d00 413f
00000010: dd91 453f 8ef6 3e3f 19f8 393f 8c87 813e
00000020: 96eb a13f 0564 303f be01 a4be e222 113f
00000030: 4d91 8d3f d866 833f e1a3 f63e 3e67 88be
00000040: 42c5 043f 259f 763f a73e 1d3f a5b7 773f
00000050: f262 593f 98e3 e33e 38d5 f43e 0c2e 333f
00000060: cbd0 3e3f 8340 773f 6dd8 12bf a5d3 473f
00000070: 72b6 313f cef4 3c3f 0195 06bf cff8 393f
00000080: 0efa ad3f 0b32 ccbe 0ae1 00bf 207a 343f
00000090: df52 ef3e 3cb6 9dbe 023f 5e3f 65e9 553f
000000a0: 664f 15bf 3e81 2f3e 89f1 803f 1c6a 6b3f
000000b0: a792 8a3f 30de 263f 0746 153f eb7b 17bf
000000c0: 4bf9 0d3f 8a16 df3e 315f 403f b80a 293f
000000d0: 9946 b53f 2b51 823e f2fa 923f 2c56 233f
000000e0: d9ab 643f f718 37bf b4a8 0a3f 6417 5b3f
000000f0: f219 813f 4bb2 8d3f b49a 4f3d 0aea 873e
0.38402656 0.8220444 0.7552636 0.7539118 0.77175695 0.7459496 0.7264419 0.25298727
1.265002 0.6890262 -0.3203258 0.5669385 1.1059967 1.026576 0.48171905 -0.26641268
0.5186349 0.96336585 0.61423725 0.96764594 0.84916604 0.44509578 0.47818923 0.69992137
0.7453734 0.9658281 -0.5736149 0.7805732 0.69419014 0.7381104 -0.5257111 0.72645277
1.3591936 -0.3988193 -0.5034338 0.7049885 0.46742913 -0.30803096 0.8681489 0.83559257
-0.5832428 0.17139146 1.0073711 0.91958785 1.0826005 0.6518278 0.5830998 -0.5917346
0.55458516 0.43571883 0.7514525 0.6603198 1.416217 0.2545255 1.1482832 0.6380336
0.8932472 -0.7152247 0.5416367 0.85582566 1.0086043 1.1070036 0.050684646 0.26545745

encoder.trans_layer.trans_layers.0.lnff.bias f4 [64]
00000000: 427a 0b3f 9371 9e3d 942f 183f 15bc 453e
00000010: 84e2 db3e ad6b ff3e 9965 253f cf62 7ebe
00000020: bc40 953e 0ed6 ab3e 8f45 223f d8b5 c63d
00000030: 1b9b 3b3e aa33 913e bd21 183f 7ce0 203f
00000040: 5fd1 ccbd 4e7e 003e b25e 103d d0dd 873e
00000050: a0a9 8d3e 08d4 e6bd 2b62 fa3c 9bd0 373e
00000060: 831e c73e 8d14 d73e 5dfe ba3e 568b 293f
00000070: 8312 78bd dfe4 f0bc b839 2a3e dd6b 0d3f
00000080: 87a5 9d3e 9e3e 0b3f 50ff 383f 279f 063f
00000090: e0d3 2fbe 50f5 433e ff8c e53d f242 013f
000000a0: 5933 813e 0dbf 073d b302 8f3d f130 083f
000000b0: 17b3 2f3e a58c a53e e22d 4b3e 213f d43e
000000c0: 5623 6fbb b716 65be 86fa 273f 08ca ce3e
000000d0: 8147 1c3f e40a dfbc 5abe 793f 4038 a0bd
000000e0: 4c72 47be fc36 f33e 1d76 c43e 4707 c93e
000000f0: af74 9c3d fb84 523f a0b4 0ebd fd51 a5bc
0.54483426 0.07736506 0.594476 0.19310029 0.42946255 0.49886838 0.6460815 -0.2484238
0.2915095 0.33561748 0.6338739 0.09702653 0.18320887 0.2835973 0.5942648 0.62842536
-0.10000872 0.12548181 0.03524656 0.26536417 0.27668476 -0.112709105 0.030564388 0.1795067
0.38890466 0.42007867 0.3652219 0.66228235 -0.06056453 -0.02940601 0.1662358 0.5524271
0.3079035 0.5439242 0.72264576 0.525866 -0.17170668 0.19136548 0.112085335 0.50492775
0.25234488 0.033141185 0.06982937 0.5319968 0.17158161 0.32333866 0.19841722 0.41454414
-0.0036489568 -0.22371946 0.65616643 0.40388513 0.61046606 -0.027226873 0.9755608 -0.07823229
-0.19477195 0.47502887 0.38371363 0.39263365 0.07639443 0.8223416 -0.034840226 -0.020180697

encoder.trans_layer.trans_layers.0.ff.0.weight f4 [64, 64]
00000000: 297a 533e 8337 a53d 3baf 3dbd 5341 973d
00000010: 8dd1 48bf 7d50 263d 53a3 c03d cab7 793f
00000020: d4cf 7abf e379 bc3e eb23 bebe e72f bebe
00000030: c3cc 58bf 67cf 77bf 873b 44bf 9a3a 00bf
00000040: 0427 cdbe 6103 f4bd 3704 8ebd 946a bf3e
00000050: a905 fabd 42b5 e1be a2bc f2bd 746a cf3d
00000060: a092 1cbf 40d3 7e3f 6761 993e 1054 a03e
00000070: 6d90 593f f7d7 b4bd 1dd4 fcbd aacd 6bbe
00000080: 8ac5 ddbe 2520 04bf a6cf 51bf eab7 a5be
00000090: 2066 4cbe 8f2a 2dbf 1305 c6be 55f8 16bc
000000a0: 9319 3d3d e377 7bbe c40c 8fbe 20ef 9f3e
000000b0: 4667 1abe 2d12 42bf 4bf3 223e eb43 183e
000000c0: 1302 d43d 5e3c 9abe 3936 da3d 2b45 b4be
000000d0: c4f6 d1bd ed50 bbbe 8e5f 22bf c3a3 5f3e
000000e0: 654f 63bc 28c3 04bf ba69 893d 8780 063f
000000f0: a6f7 ac3e 6141 eabd fbfa 67be 7331 fdbb
00000100: 9cea b6be 4d3a 48bf 467b 96be 3e32 38be
00000110: 2a53 cebe 3242 91bf 4928 f4be 87f6 a9be
00000120: 04cb 323e c050 3cbf 33a4 babd 374d ba3e
00000130: 76a5 5cbd bedd 8d3c a641 923d 83ff 27bf
00000140: b0b2 223f b54f 2637 f990 82bf 84ff cebf
00000150: cbb4 1ebf b35b a6bf f7ae 90bf 9159 a4bf
00000160: 030a d7bd 3e32 19bf e9fd bb3e 3978 293d
00000170: 5d1a 3abe 2ca7 8abe cda9 553e 3f1e a0bf
00000180: 9858 04be fd8e 76bf b0df 5cbf 82f6 283f
00000190: 014b 7b3d 6b8a 9cbf 0ff8 8ebf 043f c23e
000001a0: 53ff 65bf 9563 a3be 171f 97bf 6f53 22bf
000001b0: 1e0b 99bd f3e4 7fbe db14 bdbe d767 03bf
000001c0: 79d8 95bd eb8f 023f 15e1 37bf 18d4 59be
000001d0: 933f 753e 1505 5cbe 5714 b1bf 1347 a6be
000001e0: 91c6 d1bf cd5b 9cbf cfac fabe dc31 a3be
000001f0: 8121 c33e 59ba af3c b389 263e 2e53 cebf
00000200: 984c cbbe 2acb c33e 4417 4cbd fb44 3b3d
00000210: 27b6 2b3f 232d 34bd 473f f4be bdd2 673f
00000220: 1bfe 27bd a33e aabd 75a9 a6bf 34d1 96be
00000230: eef9 71bd 5093 253f b04f a53d cff8 40bc
00000240: 4ff2 f13e b9fe 26be d0db dcbd 2a93 b3bd
00000250: 1cea 02be 5712 ef3d 86c3 84be 6d2c 893d
00000260: 4870 263a e802 323e c5a2 1cbf 22dc 8dbe
00000270: 5b48 d53d 52a5 8bbe 2483 b9bd dd00 2f3e
00000280: 4981 35bd 3a6f 54bd e350 153e bb1e 1b3e
00000290: 76ad 1e3d c1f3 713d 7fbd 4cbe ade5 363e
000002a0: 9517 d93e 0b4f 29be db07 eabd 16f6 b5bd
000002b0: a980 15be 3f8a 78bd 1c31 27bd 16ad f8be
000002c0: 4d75 583e b77f bdbe 0fca 32be 536b d7be
000002d0: 0055 053f 1de6 013f 4767 80be 7949 b43d
000002e0: 77f9 82be 197d f9bd 4641 073e 84a5 7bbc
000002f0: 9387 233d db9d a73e d690 bf3e 85a3 e63d
00000300: 5399 613d 341e 803e 52dd 36bc 23ed 003e
00000310: 4c16 2ebe b4cb 813c 4038 5a3e ac04 0b3e
00000320: d312 c73d 861e fbbd 19ca b4be ffff 25be
00000330: ea34 f2bd 0533 9d3d f39d a4be d3ff 37bd
00000340: fdcf efbc fa4b e83d 8253 143d 030b 173e
00000350: d1b4 1abf 67d6 d8bd 1455 883e 42ca 4b3e
00000360: 4561 053e dd84 9ebe ed33 e9bd bd01 9bbe
00000370: 7ccd 09bf a05c 053e 3283 41be d644 573e
00000380: 8db6 dc3d 2b69 b33e 2646 f63c fc32 59bd
00000390: afea 93be 6c27 38bd bdee 71be 4349 733f
000003a0: 319a 1bbd 00cf b83e 4dec fb3d 6401 48be
000003b0: 677f 973e e7b2 45be eaa0 2d3e b88f 75bd
000003c0: cd40 6ebe e03a 00be acce 573d 1662 febb
000003d0: 929a 403f 39a2 c53d 7a0a 1bbe 20af 0fbe
000003e0: 2ec2 983e 65fe afbd 560a 803e 8ce5 fdbd
000003f0: 9921 783e a9af bcbe 0da7 7cbe 7ca6 c13c
0.20652069 0.08067229 -0.04630969 0.073855065 -0.7844475 0.040604103 0.094061516 0.97546065
-0.9797337 0.36811742 -0.37136778 -0.37145922 -0.8468744 -0.96800846 -0.7665333 -0.5008942
-0.4006883 -0.11914707 -0.06934398 0.37386 -0.12208111 -0.440836 -0.11852385 0.10127726
-0.6116123 0.9954109 0.29957125 0.31314135 0.84986 -0.088302545 -0.12345145 -0.23027673
-0.43314773 -0.5161155 -0.8195747 -0.32366878 -0.19960833 -0.67643064 -0.38675746 -0.00921448
0.046166968 -0.24557452 -0.27939427 0.31237125 -0.15078458 -0.75808984 0.15913121 0.14869659
0.10351958 -0.30124182 0.106548734 -0.3520902 -0.10252145 -0.3658518 -0.63427055 0.21839814
-0.01387391 -0.51860285 0.06709619 0.5253987 0.3378269 -0.11438251 -0.22654335 -0.007726842
-0.35725868 -0.7821396 -0.29390925 -0.17987916 -0.40297824 -1.1348326 -0.47686985 -0.33195898
0.17460257 -0.73560715 -0.0911335 0.36387035 -0.053868733 0.017317649 0.07141428 -0.65624255
0.63553905 9.912929e-06 -1.0200492 -1.6171727 -0.6199462 -1.2996734 -1.1303395 -1.2839833
-0.104999565 -0.5984229 0.36717156 0.04137442 -0.1817412 -0.27080667 0.20865555 -1.250923
-0.12924421 -0.9631193 -0.8627882 0.6600114 0.061350826 -1.2229742 -1.1169451 0.37938702
-0.8984272 -0.31911913 -1.1806363 -0.6340856 -0.074728236 -0.24989681 -0.36929974 -0.5133032
-0.073166795 0.5100085 -0.7182782 -0.21272314 0.23950033 -0.21486314 -1.3834332 -0.324761
-1.6388723 -1.2215515 -0.48959967 -0.31873977 0.381115 0.021451162 0.16263466 -1.6119134
-0.39706874 0.3824094 -0.049826875 0.04572008 0.6707482 -0.04398836 -0.47704527 0.90555936
-0.04101382 -0.08312728 -1.3020464 -0.29456484 -0.059076242 0.64677906 0.0807184 -0.011778071
0.4725518 -0.16308106 -0.107841134 -0.08768304 -0.12784618 0.1167342 -0.25930423 0.06697927
0.00063491287 0.17383921 -0.61185867 -0.2770701 0.10414191 -0.27274567 -0.09058216 0.17090173
-0.04431275 -0.051863886 0.14581637 0.15148441 0.038739644 0.059070352 -0.19994162 0.17861052
0.42400804 -0.16534059 -0.114272796 -0.08884828 -0.14599861 -0.060678717 -0.04081832 -0.48569554
0.21138497 -0.370115 -0.17459892 -0.4207407 0.52082825 0.5074175 -0.25078794 0.08803076
-0.25580952 -0.121820636 0.13208494 -0.015359286 0.039924216 0.32737622 0.3741519 0.112616576
0.055077862 0.25023043 -0.011161165 0.1259046 -0.17000693 0.015844204 0.2131052 0.13576001
0.09720387 -0.12261681 -0.35310438 -0.16210936 -0.11826499 0.07675747 -0.32151756 -0.044921707
-0.029273981 0.113426164 0.03621245 0.14750294 -0.60432154 -0.10587769 0.2662741 0.19901374
0.13025387 -0.30960742 -0.11386857 -0.30274764 -0.5382917 0.13023615 -0.18897703 0.21022353
0.10777006 0.35041174 0.030062746 -0.053027138 -0.28889987 -0.04495947 -0.23626228 0.95033664
-0.037988845 0.36095428 0.1230093 -0.1953178 0.29589388 -0.19306527 0.16955915 -0.059951514
-0.23266907 -0.12522459 0.052687332 -0.0077631576 0.75235856 0.09650082 -0.15140715 -0.14031649
0.29835647 -0.08593444 0.25007886 -0.12397298 0.24231566 -0.36852768 -0.246731 0.023638956

encoder.trans_layer.trans_layers.0.ff.0.bias f4 [64]
00000000: 5476 1f3f f1c2 b3be ce3b 0d3e dc96 243e
00000010: 384d 973e 5d44 593e 0173 d63d 2ebd 0f3f
00000020: 8bf2 81be 0fb6 2f3f 2553 bdbe 1c44 783f
00000030: 80a6 173f d89d 713e 45db 723f 9324 3e3f
00000040: 2b9a 8a3e df4a 053e 93e1 283f 8374 2f3e
00000050: 56fa cf3e 0039 0b3f 3c41 623f 66f4 523f
00000060: f197 cfbd 4810 f73e 140c b53d 1c78 ca3e
00000070: b14c 683e 0a55 913e 3215 193f c5c7 15bd
00000080: 784b e63c 8412 0bbf ebfb 16bf 0dc0 a23e
00000090: 99d4 643e d605 f53d 3408 143e ce81 04bf
000000a0: 831d fd3e 4a1d 5a3f 55d2 16be 216d 153f
000000b0: 90aa f13e 8bad ec3e 2dad 483f d9e3 783d
000000c0: ca12 533e ffb9 b1be b565 6a3f 4e6f fe3d
000000d0: de19 4f3f 7c6c 563e 71ec 1b3f 0ae6 15bf
000000e0: 38a3 c73e 1964 3e3d b67f b63e 75ac 5bbd
000000f0: 7226 e83e df94 e43e b073 90be 8b34 46bd
0.6228993 -0.35109666 0.13792345 0.16073173 0.295511 0.21217485 0.10471154 0.5614804
-0.25380358 0.68637174 -0.36977497 0.96978927 0.59238434 0.23595369 0.9486583 0.7427456
0.27070746 0.13016842 0.659692 0.1713429 0.4062068 0.5438385 0.8838079 0.8240417
-0.101364024 0.4825461 0.08840194 0.3954476 0.22685505 0.28385192 0.59797966 -0.03656747
0.028112158 -0.5432513 -0.58978146 0.31787148 0.22346725 0.11964004 0.14456254 -0.51760566
0.49436578 0.8520094 -0.14728673 0.5836964 0.4720044 0.46226153 0.78389245 0.060764167
0.20612636 -0.34712216 0.9156144 0.124235734 0.80898845 0.20939821 0.60907656 -0.58554137
0.38991714 0.04648218 0.3564431 -0.053631265 0.4534183 0.4464483 -0.28213263 -0.048389953

encoder.trans_layer.trans_layers.0.ff.2.weight f4 [64, 64]
00000000: c70c 603f 848a 8cbf d454 c6bd 8f25 9e3e
00000010: de5b 0e3e a0f9 c83c e058 953e 3b7d 46be
00000020: f219 1abd 864f c43e e7c2 f6bc 75b1 e8be
00000030: 3f90 84be fa39 f5be 9901 463f a6ae 6f3e
00000040: d66c 1fbe 4a0d 02bf 3ffc 0dbe b86e 2dbf
00000050: 0649 4a3d 3a0d 59be 6aaf 13bf 6d10 af3e
00000060: 1155 32bf f2ae dbbd 266f c9bc c8b7 6fbe
00000070: 9874 c3be d2b9 70bf c157 d93e d948 4dbf
00000080: d9fe 05bf 64d7 1f3f 75ff ae3f 785d e3be
00000090: bff2 cbbd b690 243e 71bb 90be 471c d4bd
000000a0: 18c9 48be 6722 dcbe 2e8e 833f f36e 993e
000000b0: 0fd6 12bf f7d6 39bf ae6a db3e 2587 49be
000000c0: 670d 78bd 19c3 1b3c 8275 fcbe 6f81 41bd
000000d0: da02 f9bd fd37 e23d 4132 253d 18ac 013f
000000e0: e5ca 5f3e 1718 c6be 74b6 393f 4cb1 ca3d
000000f0: 5e02 e1be c92b ec3d ab14 64bf 5b69 493e
00000100: 5238 8abd 3587 d13e 4d79 1c3e dbd5 bdbd
00000110: aa85 353f 178d b7bd de7b d9be 1d8e b5bd
00000120: 2bb7 2f3f 02a8 ec3d e529 4a3e 7fa5 1f3e
00000130: 7299 3fbe b896 153d a7da 583b 46f9 bd3d
00000140: 6cb8 053d 6c4d 01bf 31dc 48be fad4 ffbe
00000150: 5b58 1bbe 7682 c6be 6082 dbbd aee0 933d
00000160: 76ee d63e 3076 9cba 4b6f 13be 17b8 1abe
00000170: 5724 4fbe ef5d d3be 2878 15bd bb2e 773e
00000180: 245f aebd 489f 0abe 6c87 12bf f8ab 2d3d
00000190: 7fc2 583e f9dc 0a3d c87b 033f e786 f13e
000001a0: f256 203e 4858 4a3d 4b11 bfbe 6958 bdbd
000001b0: cf9a 6f3e 9589 53be 9d85 8bbe f522 8bbd
000001c0: 5af4 14be 57ae 14be 018f a3be 3fbe 993e
000001d0: c96a 833e d1f2 083f c4a1 0d3e 1a78 bebe
000001e0: 0a5e dd3d 8a36 433d 6146 6d3e 4725 6abf
000001f0: c58f 893d 6fe4 c53d b62a 74bf 3681 fb3d
00000200: df50 85bc 3dda 12bf f896 56be 2a76 873d
00000210: e038 5c3e c08d 89be 5255 893e 8efe 0cbc
00000220: 708e 80bf 7fe6 82be 54b0 10bf b6ab 2ebe
00000230: d1d2 c2be e2d2 47be ccf0 a1bd e068 9bbe
00000240: c4a7 4d3e 98b0 393f 30c6 d63d 3ac4 033e
00000250: b50a a8be afce 623e 486d 0dbe d260 12bf
00000260: 5ddc 993e 6087 9a3d 4393 56bb a3b4 1c3f
00000270: b602 213d 7018 24c0 0d3c 1a3e decd a03d
00000280: a776 5c3e d128 30bf c2ef b33e 1aa3 833e
00000290: 1c90 ab3e 9f9b 08bd 1739 e0be 3cf7 39be
000002a0: 2068 68be a1f9 ea3e 5ec1 bfbe d6e3 8e3d
000002b0: 4824 aebe cdb4 8abe ed06 37bf 134a 81bd
000002c0: 9ae9 44bd dc8c b8bd 680d 92be 7821 ce3b
000002d0: 74f1 2f3e 2f1b afbe fc19 3ebf 91ad a6bd
000002e0: 42bb 34bc 9e0b 85bd 60c5 d63d 4015 95be
000002f0: 35a2 ae3e caca 62bd a96b 49bf 4f62 f6bd
00000300: a2bf 0b3f 14f9 2e3f 2f85 d9bd 9d59 bfbe
00000310: 407c 54be 2aa4 083f dfb0 01be 357c 263e
00000320: 51ee 81bf a4e9 773c 97ab e0be af1b 84be
00000330: ef41 1dbf a075 78bd 62be 3fbe 475d c83e
00000340: e10f 0a3f 6e0a 09bf 802a c93e ea97 f4be
00000350: 4e9c ef3d 2726 0cbf 7ae1 ae3d 20f3 87be
00000360: 0e33 00bf 5451 133d 1ad2 4dbd e50a 5fbe
00000370: 079c c93e f709 8b3e 7fd4 283f f951 953e
00000380: 6634 9e3e d30a 313f 68ff eabd 5554 ad3e
00000390: bc77 b8be dc89 af3f e858 3fbf 42a4 40bf
000003a0: f462 5dbe 20e6 4cbe 234b 26bf d6f2 e53c
000003b0: 9302 613e 7a1b 4c3e 492e ffbe f0af 1f3e
000003c0: 3fdd 6b3e 1993 42be 60c2 b3be 86a2 5d3d
000003d0: 754b 2b3e 4048 e23e abff 223f 968f 253d
000003e0: 9e1e 573e d492 4cbe b9a9 193f b1f9 093f
000003f0: e074 123c 053e 9b3e 48ba 33bf 92cc a6be
0.87519497 -1.0979772 -0.096841484 0.3088803 0.13902232 0.024533093 0.2916937 -0.19383709
-0.0376224 0.38341922 -0.030122234 -0.4544789 -0.258913 -0.47895795 0.7734619 0.23406467
-0.15568861 -0.5080153 -0.13865755 -0.6774707 0.049386047 -0.21196452 -0.57689536 0.3419222
-0.6966105 -0.107267275 -0.024589133 -0.2340995 -0.3817489 -0.9403354 0.42449763 -0.8018928
-0.5234199 0.62438035 1.3671709 -0.44407248 -0.099584095 0.16070828 -0.28268006 -0.10356956
-0.19607961 -0.42994997 1.0277765 0.2996746 -0.5735788 -0.72593635 0.42854828 -0.1968046
-0.060559656 0.009506964 -0.493084 -0.047242578 -0.12158747 0.11045835 0.04033113 0.5065322
0.21854742 -0.38690254 0.72544026 0.09897098 -0.4394712 0.11531789 -0.89094037 0.19669096
-0.067490235 0.40923467 0.15280648 -0.09269305 0.7090708 -0.089624576 -0.42477316 -0.088649966
0.6863887 0.115554824 0.19742544 0.15590475 -0.18710878 0.03652069 0.0033089311 0.09276061
0.03264658 -0.5050876 -0.19615246 -0.49967176 -0.15170424 -0.3877141 -0.107182264 0.072205886
0.41978806 -0.0011937078 -0.14397924 -0.15109287 -0.20228706 -0.41282603 -0.036491543 0.2413892
-0.085142404 -0.13537323 -0.5723789 0.04240033 0.21167944 0.033902142 0.5136075 0.47173235
0.15658167 0.049400598 -0.3731788 -0.092453785 0.23398899 -0.20657952 -0.27250376 -0.06793777
-0.14546338 -0.1451963 -0.3194504 0.3002796 0.25667408 0.5349551 0.1383124 -0.37201005
0.10808952 0.047659434 0.23171379 -0.9146313 0.06716875 0.09662711 -0.9537767 0.122805044
-0.016273914 -0.57364255 -0.20956028 0.06614335 0.21506071 -0.2686596 0.26822907 -0.008605612
-1.0043468 -0.2556648 -0.56519055 -0.1705769 -0.38051465 -0.19514039 -0.079072565 -0.3035345
0.20083529 0.72535086 0.1048702 0.12867823 -0.3282067 0.22149156 -0.13811219 -0.57178986
0.30050936 0.07545352 -0.0032741583 0.6121313 0.039309226 -2.5639915 0.1506197 0.07851766
0.21529637 -0.6881228 0.35143858 0.25710374 0.33508384 -0.033351537 -0.43793556 -0.18160719
-0.2269597 0.45893577 -0.37452215 0.0697705 -0.34012055 -0.27091065 -0.7149494 -0.06312957
-0.048074342 -0.09011242 -0.28525853 0.006290611 0.17181951 -0.34200427 -0.742584 -0.08138574
-0.011030974 -0.064963564 0.10486865 -0.29117775 0.3410813 -0.055369176 -0.786799 -0.120304696
0.54589283 0.68348813 -0.10621106 -0.37373057 -0.20750523 0.53375494 -0.12665127 0.16258319
-1.0150853 0.015131388 -0.43880913 -0.2580237 -0.6142873 -0.06065905 -0.18724969 0.39133665
0.5393048 -0.5353154 0.39290237 -0.4777215 0.11699735 -0.54745716 0.085391 -0.26552677
-0.50077903 0.035966232 -0.050249197 -0.217815 0.39376852 0.2715604 0.65949243 0.29164103
0.30899352 0.6915714 -0.11474496 0.33853403 -0.3602885 1.3713946 -0.74745035 -0.7525064
-0.21619779 -0.2000966 -0.649584 0.028069895 0.21973638 0.19932356 -0.4984 0.15594459
0.23033617 -0.19001426 -0.35109234 0.054110073 0.16728003 0.44195747 0.6367137 0.040420137
0.21007773 -0.19977885 0.600246 0.53896624 0.008938998 0.30320755 -0.7020612 -0.3257795
