AGCRN_d/model/model_para/PEMS03/epoch_120.pth (torch, 803629 bytes, 40 tensors)

node_embeddings f4 [358, 2]
0	0x3ec943e3	0.39309606
1	0x3f6e825b	0.93167657
2	0x3ec3149a	0.38101655
3	0x3f72bc0d	0.9481819
4	0x3eb70458	0.35745502
5	0x3ec15cab	0.37766013
6	0x3ebc0015	0.36718813
7	0x3eba1ca6	0.36349982
8	0x3ee10ca9	0.4395497
9	0x3f42ab9f	0.76043123
10	0x3eaf51d0	0.34242105
11	0x3ec083c3	0.37600526
12	0x3e686f7b	0.22698776
13	0x3f039ba3	0.5140936
14	0x3f0cec1b	0.5504777
15	0x3f532dbc	0.8249166
16	0x3f0d8ee0	0.55296135
17	0x3f4e9a6a	0.8070437
18	0x3f6be4b2	0.92145836
19	0x3ebd2e0a	0.36949188
20	0x3f27ec0a	0.6559454
21	0x3e580adf	0.21097897
22	0xbd6b042c	-0.057377025
23	0x3f11a815	0.568971
24	0xbe7e1fd0	-0.24816823
25	0x3f01d9c0	0.50722885
26	0x3f0de619	0.55429226
27	0xbedbe11d	-0.42945185
28	0xbe1570c9	-0.14593805
29	0x3ed1eb2f	0.40999743
30	0x3f1e7617	0.6189894
31	0x3e5c3224	0.21503502
32	0x3f5217e7	0.8206772
33	0x3d9691fa	0.073520616
34	0x3ec90330	0.39260244
35	0x3f3b8b7d	0.7325972
36	0x3f3baac6	0.73307455
37	0xbef761d2	-0.48316818
38	0x3f55d34e	0.8352555
39	0xbf13362d	-0.5750454
40	0x3ebf566f	0.3737063
41	0x3f0fb3e8	0.5613389
42	0x3d8dfec7	0.069333605
43	0x3f025edb	0.5092599
44	0xbdcb20d6	-0.09918372
45	0x3f94bf6a	1.1620915
46	0x3f40c601	0.7530213
47	0xbf03a29f	-0.51420015
48	0x3fa57183	1.2925266
49	0xbe34cd73	-0.17656498
50	0xbe37ca16	-0.17948183
51	0x3f622b05	0.8834689
52	0xbe36f0e0	-0.17865324
53	0x3f6257fd	0.8841551
54	0x3f9f1ff5	1.2431628
55	0xbf23a291	-0.6391993
56	0xbecf6ce1	-0.40512756
57	0xbf5b536a	-0.85674155
58	0xbf1ba4c3	-0.6079828
59	0x3c1c695a	0.009546602
60	0xbe36cff2	-0.17852762
61	0x3f625751	0.88414484
62	0x3f73d2c6	0.9524349
63	0xbecaf2db	-0.3963841
64	0xbebe8b69	-0.37215737
65	0x3f9a8e43	1.2074665
66	0xbe36c346	-0.17847928
67	0x3f6253d4	0.8840916
68	0xbe3af339	-0.18256845
69	0x3f614969	0.8800264
70	0x3f529378	0.8225627
71	0x3f3e0174	0.7422097
72	0xbdd77d25	-0.10521916
73	0x3ee9d4a4	0.45670044
74	0xbdf4303e	-0.11923264
75	0x3f94395a	1.1580002
76	0x3facda1d	1.3504063
77	0x3eff2dc8	0.49839616
78	0xbdd57e38	-0.10424465
79	0x3f95f44f	1.1715182
80	0xbe15213a	-0.14563456
81	0x3f9154ff	1.1354064
82	0xbe0bc30c	-0.13648623
83	0x3f936622	1.1515543
84	0x3fa59168	1.2935
85	0x3ec553c5	0.38540474
86	0xbda839de	-0.08214162
87	0x3f9465cd	1.1593567
88	0x3f9f2d5a	1.2435715
89	0x3eb0e89d	0.3455247
90	0xbda09092	-0.078400746
91	0x3f8f0c7b	1.1175684
92	0xbe36eebb	-0.17864506
93	0x3f625809	0.8841558
94	0x3f8aa6fd	1.0832211
95	0xbe4e35c6	-0.201377
96	0xbd98ac0a	-0.07454689
97	0x3f91da06	1.139466
98	0xbf03aa16	-0.51431406
99	0x3e80a349	0.25124577
100	0xbd79b81e	-0.060966603
101	0x3f8df164	1.1089292
102	0xbd88227f	-0.066472046
103	0x3f8bcf95	1.0922724
104	0x3fa0fa26	1.2576339
105	0x3eb68e05	0.35655227
106	0x3e29b08b	0.16571252
107	0x3e1ad3fb	0.15119927
108	0xbd4dceff	-0.050246235
109	0x3f8a8ba0	1.082386
110	0x3bf5f638	0.007506158
111	0x3f78fabf	0.9725761
112	0x3f6c6c87	0.923531
113	0xbede20d4	-0.4338442
114	0xbe36ef3e	-0.17864701
115	0x3f625852	0.88416016
116	0xbe36df1e	-0.1785855
117	0x3f62278e	0.88341606
118	0x3fb362e6	1.4014556
119	0x3f6271f2	0.88455117
120	0xbd8db8d7	-0.06920021
121	0x3f66549a	0.8997284
122	0x3e880386	0.26565188
123	0x3ee11681	0.43962482
124	0xbe36e7de	-0.17861888
125	0x3f625776	0.88414705
126	0xbf293e4d	-0.6611069
127	0xbe065443	-0.13118081
128	0x3f40a006	0.75244176
129	0x3f85d418	1.0455351
130	0x3fa1e5a7	1.2648209
131	0x3e5a0145	0.21289547
132	0x3f85ad9c	1.0443606
133	0xbe51419e	-0.20435187
134	0x3fa1f234	1.265204
135	0x3f0bfe5e	0.5468501
136	0xbeee3b07	-0.4652941
137	0x3f88d9e0	1.069149
138	0x3fa56b1e	1.2923315
139	0xbdf620ff	-0.12018012
140	0xbccea4fd	-0.025225157
141	0xbf0c0dac	-0.5470836
142	0x3fad7058	1.354991
143	0xbe7bcea5	-0.24590547
144	0xbea55c0d	-0.32296792
145	0x3fa62601	1.2980348
146	0x3fae21c4	1.3604054
147	0x3e39aef1	0.18133141
148	0xbe89e77e	-0.26934427
149	0x3f9bba99	1.216632
150	0xbe8b353f	-0.2718906
151	0x3f9c734d	1.2222687
152	0x3d882511	0.06647695
153	0x3eb7023f	0.357439
154	0x3f9c715e	1.2222097
155	0xbefc7120	-0.49305058
156	0x3fc7b96f	1.5603465
157	0xbf123232	-0.5710784
158	0x3f246d1a	0.64228976
159	0x3fa11f2b	1.2587637
160	0xbf1bf984	-0.60927606
161	0xbe785462	-0.2425094
162	0x3eec657c	0.46171176
163	0x3f033bdf	0.5126323
164	0xbf3ff220	-0.7497883
165	0x3e507958	0.20358789
166	0x3f4a6fe1	0.79076964
167	0x3e447239	0.19184197
168	0x3eaff106	0.34363574
169	0x3fa4133d	1.2818371
170	0x3e75e8a7	0.24014531
171	0x3e801d1d	0.25022212
172	0x3fd02521	1.6261331
173	0x3e583441	0.21113683
174	0x3fdd4e57	1.7289532
175	0x3e586004	0.21130377
176	0x3e994f2a	0.2994321
177	0x3faf4577	1.3693074
178	0xbed109af	-0.408277
179	0x3fcf6f48	1.6205835
180	0xbe36efc5	-0.17864902
181	0x3f625731	0.88414294
182	0xbed71b77	-0.42013142
183	0x3fd25d81	1.6434785
184	0x3fbe96de	1.4889791
185	0xbe3b7424	-0.18306023
186	0x3fbfa6c7	1.4972771
187	0xbe3dfd31	-0.18553616
188	0x3d676d58	0.056500763
189	0x3f00023c	0.5000341
190	0x3fb7dc79	1.4364158
191	0xbe3a9795	-0.18221886
192	0xbf426bc6	-0.759457
193	0x3e55e194	0.20886832
194	0x3fc21eb3	1.5165619
195	0xbe5d20f6	-0.21594605
196	0x3e3aace0	0.18230009
197	0x3e0cf9f5	0.13767226
198	0x3e56e3c9	0.2098533
199	0x3f1a3af0	0.6024618
200	0x3e855893	0.2604414
201	0x3e911c14	0.28341734
202	0x3f909891	1.129656
203	0x3d96a23c	0.073551625
204	0x3e1c9746	0.15292081
205	0x3edd09fe	0.43171686
206	0x3e4fc6d9	0.20290698
207	0x3f1d6355	0.61479694
208	0x3cd7d634	0.026347257
209	0x3f6e2fcf	0.930417
210	0x3f96959b	1.1764406
211	0x3ea010a3	0.31262693
212	0x3e4a57fa	0.19760123
213	0x3df8f971	0.12156952
214	0x3f19997f	0.5999984
215	0x3ef35d0e	0.47531933
216	0x3f979f5a	1.1845505
217	0x3eb25e79	0.34837702
218	0x3e585784	0.21127135
219	0x3de9a9b4	0.114093214
220	0x3f428ca8	0.75995874
221	0x3e9d4840	0.30719185
222	0x3f50be62	0.815405
223	0x3e0c8e1a	0.13726082
224	0x3e5f7448	0.21821702
225	0x3d2e51cf	0.042558488
226	0x3f1637af	0.58678716
227	0x3edf7b8c	0.43648946
228	0x3f4d9bd1	0.8031588
229	0xbe8f9e39	-0.28050402
230	0x3e517212	0.2045367
231	0x3e77f14b	0.2421314
232	0x3eac7721	0.33684638
233	0x3f057e8f	0.5214624
234	0x3f3ef04a	0.745854
235	0x3e867672	0.26262242
236	0x3f3a372d	0.7274044
237	0x3e68f53a	0.22749797
238	0x3f155eb1	0.5834761
239	0x3ecec15d	0.403819
240	0x3e701fb0	0.23449588
241	0x3f769eb4	0.9633591
242	0x3e8c7e23	0.27439985
243	0x3f23656f	0.6382665
244	0x3e4f8c1f	0.20268296
245	0x3e807e4d	0.2509636
246	0x3ead01dd	0.33790484
247	0x3f053bde	0.52044475
248	0x3f06d10b	0.52662724
249	0x3eed409c	0.46338356
250	0x3f4ae854	0.79260755
251	0x3ee4d3d2	0.44692856
252	0x3e8eddb8	0.27903533
253	0x3f212c21	0.6295796
254	0x3e0e1e2b	0.13878696
255	0x3eaa4e24	0.33262742

encoder.trans_layer_T.trans_layers.0.qff.weight f4 [64, 64]
0	0x3e0d26d7	0.13784347
1	0x3e4372ee	0.19086811
2	0xbda1493e	-0.07875298
3	0x3e5c17ff	0.21493529
4	0xbdc267a1	-0.09492422
5	0xbe205b58	-0.15659845
6	0x3e1b81b5	0.15186198
7	0x3e18ac2e	0.14909431
8	0x3dfb6082	0.12274267
9	0xbe56fcea	-0.20994917
10	0xbd217124	-0.03941454
11	0x3e1e0c35	0.15434344
12	0x3d861a43	0.06547978
13	0x3d88f9b1	0.0668825
14	0x3c6f4b48	0.014605351
15	0x3de8a788	0.11360079
16	0xbdf20996	-0.118182346
17	0xbd4fbcb3	-0.050717067
18	0xbe361362	-0.17780831
19	0xbe2cadcc	-0.16863173
20	0x3d176dfa	0.036970116
21	0x3e179722	0.14803746
22	0xbc24d01b	-0.010059382
23	0xbe5ce0b2	-0.2157009
24	0x3e1cfd91	0.15331103
25	0xbcd2fe77	-0.025756104
26	0xbdf6bb35	-0.12047426
27	0x3d91f41c	0.07126638
28	0xbdcd85ee	-0.10035311
29	0x3cc5abd0	0.024129778
30	0x3e16e241	0.14734747
31	0x3e10bea8	0.1413523
32	0x3e109948	0.14120972
33	0x3e47b511	0.19502665
34	0xbe48fa0d	-0.19626637
35	0xbe3050b0	-0.1721828
36	0x3e3bb89f	0.18332146
37	0xbdc05704	-0.09391597
38	0x3d1c46d4	0.038153484
39	0x3e099b57	0.13438164
40	0x3e068176	0.13135323
41	0x3e399762	0.18124154
42	0xbe45e69e	-0.19326255
43	0x3d937223	0.07199504
44	0xbc8664ba	-0.016405452
45	0x3e3fc910	0.18729043
46	0x3e4934b0	0.19649005
47	0x3e237a74	0.15964681
48	0xbde1ff16	-0.11034982
49	0x3e5d3115	0.21600755
50	0x3d8818d6	0.06645362
51	0xbe3a63f4	-0.18202192
52	0x3e079a08	0.13242352
53	0xbe2f1f0d	-0.17101689
54	0xbd455891	-0.048180167
55	0xbe30463f	-0.17214297
56	0xbe3f4f34	-0.18682557
57	0xbdfcd400	-0.12345123
58	0xbe27231b	-0.16321985
59	0x3e36e477	0.1786059
60	0x3e3e3df9	0.18578328
61	0x3e04ed97	0.12981258
62	0xbe19dd08	-0.15025723
63	0xbddef194	-0.10885921
64	0xbd9a464e	-0.07532941
65	0x3d4741ae	0.04864662
66	0x3cf6c053	0.030121004
67	0xbd3f72b1	-0.046740238
68	0x3c4f07ac	0.012636106
69	0x3de8c947	0.113665156
70	0x3e5be47f	0.21473883
71	0x3de81df7	0.1133384
72	0x3e06bf14	0.13158828
73	0xbe3ed1a8	-0.18634665
74	0x3e364544	0.1779986
75	0x3e2eb31b	0.17060511
76	0x3d45047b	0.048099976
77	0xbe3296ff	-0.17440413
78	0x3df1680f	0.11787426
79	0xbd7beb0f	-0.061503466
80	0x3d8af667	0.06785279
81	0xbd127267	-0.035753634
82	0x3e1ef4e5	0.15523107
83	0x3e477c5e	0.19481036
84	0xbde3878c	-0.11109838
85	0xbdbca61e	-0.09211372
86	0x3e230e88	0.15923512
87	0xbce32e0b	-0.027731916
88	0x3e35330e	0.17695257
89	0x3e01bf9b	0.12670748
90	0xbe0b68fa	-0.13614264
91	0xbdbc1ad6	-0.09184806
92	0x3d749a6d	0.059717584
93	0xbdd24132	-0.10266341
94	0x3cb3adbf	0.021933435
95	0x3db32ae9	0.08748419
96	0xbdd69a2b	-0.10478624
97	0xbe01a158	-0.12659204
98	0x3dd14ad3	0.1021935
99	0x3e20acdb	0.15690939
100	0x3dd0fe85	0.10204796
101	0xbd12b32d	-0.035815407
102	0xbd87e240	-0.06634951
103	0xbe1ff131	-0.15619351
104	0xbdf9cb06	-0.12196927
105	0x3dc47635	0.09592859
106	0xbc6b7596	-0.014371296
107	0x3e0f94e1	0.14021637
108	0x3e54a05e	0.207643
109	0x3de5e1fc	0.11224744
110	0x3d10ba45	0.03533389
111	0xbdd91944	-0.10600522
112	0x3d60f9b8	0.05492565
113	0xbdda5ea8	-0.106625855
114	0x3d32c4b5	0.043644626
115	0xbe04e893	-0.12979345
116	0x3e2534fb	0.16133492
117	0xbe34ea50	-0.17667508
118	0xbd02ea2b	-0.0319616
119	0x3e1d22ad	0.15345259
120	0xbd2fe4bf	-0.04294276
121	0x3c486242	0.012230458
122	0xbd93258a	-0.071848944
123	0x3de3d14d	0.11123905
124	0xbe1d8a4e	-0.1538479
125	0xbe50df54	-0.20397693
126	0x3e45573a	0.19271556
127	0xbd018002	-0.03161622
128	0x3ddbfb77	0.107413225
129	0x3c38813e	0.0112612825
130	0x3c1d3bfe	0.009596823
131	0xbd98ba7b	-0.07457443
132	0xbe46c767	-0.19412003
133	0x3e2b7786	0.16744813
134	0x3c1d4f43	0.009601417
135	0xb90b6aa3	-0.00013295798
136	0xbe04d9b2	-0.12973669
137	0xbd20dcb6	-0.039272986
138	0x3e3f5847	0.18686019
139	0x3e031101	0.12799455
140	0xbe15e628	-0.14638579
141	0x3e275eed	0.16344805
142	0x3e311613	0.17293577
143	0x3dcab1c7	0.098971896
144	0xbdcd9ec8	-0.10040051
145	0x3e4f69b7	0.20255171
146	0x3e49bd2e	0.19701073
147	0xbd9c94a8	-0.076455414
148	0xbe463920	-0.19357729
149	0x3d8c2cbc	0.0684447
150	0xbdb08f81	-0.08621121
151	0xbd87c807	-0.06629949
152	0x3d9d7e65	0.076901235
153	0xbe56cc16	-0.2097629
154	0xbddbbef2	-0.10729779
155	0xbda7f5c6	-0.082011744
156	0x3db4f355	0.088354744
157	0xbe433913	-0.19064741
158	0x3e12717d	0.14301105
159	0xbe0032b7	-0.12519346
160	0xbe56a420	-0.20961046
161	0x3dee946d	0.11649404
162	0x3e0379b3	0.12839393
163	0x3d070722	0.032965787
164	0x3d1479b1	0.036248866
165	0xbe01000c	-0.12597674
166	0x3ddb14ed	0.10697351
167	0xbe14006e	-0.14453289
168	0xbc95507e	-0.018226858
169	0xbe248f5a	-0.1607031
170	0xbe24ec98	-0.16105878
171	0x3dc82f72	0.097746745
172	0x3e13b2d1	0.14423682
173	0x3e1613df	0.14656018
174	0x3d8408e7	0.064470105
175	0x3d0f07f6	0.0349197
176	0xbd5757cf	-0.052573975
177	0x3de97510	0.11399281
178	0x3cfbc2e9	0.030732589
179	0x3d91ca1c	0.071186274
180	0xbe583a29	-0.21115936
181	0xbb70b17d	-0.0036726885
182	0x3e1f048d	0.1552908
183	0x3dc407fb	0.09571835
184	0x3e4c2b7b	0.19938461
185	0xbe10b030	-0.1412971
186	0xbdc32822	-0.09529139
187	0x3e0f3b65	0.13987501
188	0x3d295772	0.04134316
189	0x3a98ea14	0.001166644
190	0xbdc754bf	-0.09732961
191	0x3af4435d	0.0018635798
192	0xbe4de5f1	-0.20107247
193	0x3e59c48b	0.21266381
194	0xbdbeaf99	-0.09310836
195	0x3e32f86c	0.17477578
196	0xbdead7de	-0.11466955
197	0xbe51fb1b	-0.20505945
198	0xbdc82b07	-0.09773832
199	0x3e04a1fe	0.1295242
200	0x3d2f4496	0.042790018
201	0xbe2aa81c	-0.16665691
202	0x3dacd86b	0.08439716
203	0xbe4ced1d	-0.20012327
204	0x3e1714ed	0.14754076
205	0x3daa633c	0.08319709
206	0x3de3751d	0.11106322
207	0x3c46c10c	0.012130987
208	0x3c4bb103	0.01243234
209	0x3d455900	0.04818058
210	0x3e594770	0.21218657
211	0xbd6beca3	-0.05759872
212	0x3e192078	0.14953792
213	0xbc6f42d6	-0.014603337
214	0xbe2a5380	-0.16633415
215	0xbd2d88ab	-0.042366665
216	0x3e11d7b9	0.14242448
217	0xbe40fb7b	-0.18845932
218	0xbd10c5de	-0.03534495
219	0x3e0d90e7	0.13824807
220	0xbe3562a6	-0.17713413
221	0x3d9f1034	0.077667624
222	0xbe555ebd	-0.20836921
223	0x3e49ee63	0.19719844
224	0x3d19dba6	0.03756299
225	0x3e133743	0.1437655
226	0xbdbf287c	-0.09333894
227	0x3be2a328	0.0069164224
228	0x3d7e9f91	0.062163893
229	0xbe16dcdb	-0.14732687
230	0xbd6c23ba	-0.05765126
231	0x3d8590ea	0.06521781
232	0xbe497334	-0.19672853
233	0xbe1d08b0	-0.15335345
234	0xbccc5743	-0.024943953
235	0xbe4134b2	-0.18867758
236	0xbd9d88fd	-0.07692144
237	0x3e5b65d5	0.21425565
238	0x3d86f11a	0.06588955
239	0x3e44b7ab	0.19210689
240	0x3e50414a	0.20337406
241	0xbe379112	-0.17926434
242	0xbdd987c9	-0.10621602
243	0x3e0cd42d	0.13752814
244	0x3e4ea6b6	0.20180783
245	0x3e39624e	0.18103907
246	0x3daeb13a	0.08529897
247	0xbe05c73c	-0.13064283
248	0xbe304518	-0.17213857
249	0xbe0e489a	-0.13894883
250	0xbe2c4ef2	-0.1682699
251	0x3e1cef0e	0.15325567
252	0xbe5b3e81	-0.21410562
253	0xbe074da4	-0.13213211
254	0x3b0f9ba5	0.002191284
255	0xbe2394d1	-0.15974738

encoder.trans_layer_T.trans_layers.0.qff.bias f4 [64]
0	0x3f2f65b6	0.68514574
1	0x3e6314f1	0.22175957
2	0x3f713986	0.942284
3	0x3f23283b	0.6373326
4	0x3f7c019d	0.9843996
5	0x3f0d8cb0	0.552928
6	0x3f2739f7	0.6532282
7	0x3ea8d8f5	0.32978025
8	0x3f26a468	0.65094614
9	0x3e4b1b28	0.19834578
10	0x3f2648c5	0.6495479
11	0x3f2b83aa	0.6699778
12	0x3e05cdb7	0.13066755
13	0x3eac95ac	0.3370794
14	0x3f7863ed	0.97027475
15	0x3e73514d	0.23761483
16	0x3ee0cde3	0.4390708
17	0x3efc1fe6	0.49243087
18	0x3f32787e	0.69715106
19	0x3cc24129	0.023712711
20	0x3f4797a4	0.7796576
21	0x3e01980a	0.12655655
22	0x3ee1f732	0.44133908
23	0x3e63f521	0.22261478
24	0x3f4ba0eb	0.79542416
25	0x3e6b7d5a	0.22997037
26	0x3e820e6f	0.25401637
27	0x3f665045	0.8996623
28	0x3f4c00c2	0.79688656
29	0x3e331acd	0.17490692
30	0x3f2f8b7c	0.6857221
31	0x3f7e806a	0.99414694
32	0x3dcab60e	0.098980054
33	0x3f107601	0.5643006
34	0x3f477b2b	0.77922314
35	0x3ecf83a4	0.4053012
36	0x3e783bc5	0.2424155
37	0x3d8d911d	0.06912444
38	0x3e324bbd	0.17411704
39	0x3d01db4d	0.031703282
40	0x3f41a3e8	0.75640726
41	0x3f6ed294	0.93290067
42	0x3d009716	0.031394087
43	0x3f544afb	0.8292691
44	0x3f25e8c4	0.648083
45	0x3f2a31f0	0.6648245
46	0x3db457ff	0.088058464
47	0x3f33cdba	0.7023579
48	0x3f6e1ad2	0.93009675
49	0x3f6ca34c	0.9243667
50	0x3f57ec00	0.8434448
51	0x3f30f271	0.69119936
52	0x3f15c04f	0.58496565
53	0x3ee9d99c	0.45673835
54	0x3ed23f80	0.41064072
55	0x3c3cb973	0.011518824
56	0x3ec8e9e4	0.39240944
57	0x3f6cfa10	0.92569065
58	0x3f3e16cf	0.74253553
59	0x3f2c4008	0.67285204
60	0x3f7c13c3	0.98467654
61	0x3eccde9c	0.40013587
62	0x3f1af326	0.60527265
63	0x3ecf2897	0.40460655

encoder.trans_layer_T.trans_layers.0.kff.weight f4 [64, 64]
0	0x3e139cec	0.1441533
1	0xbd4cf46f	-0.050037798
2	0xbdabea99	-0.08394355
3	0xbe0162cc	-0.12635344
4	0x3c6349c2	0.013872566
5	0xbb02157e	-0.0019849236
6	0x3d2d4f90	0.042312205
7	0x3e4738bc	0.19455236
8	0xbdcf98e6	-0.10136585
9	0x3e06d9fc	0.13169092
10	0x3e3a0ca8	0.1816889
11	0xbd0c15bf	-0.034200426
12	0xbda0646c	-0.07831654
13	0x3e4f4ac3	0.20243363
14	0xbe102aea	-0.1407887
15	0xbe020284	-0.12696272
16	0xbdd0fa42	-0.10203983
17	0xbe5da624	-0.21645409
18	0xbe06c1ea	-0.1315991
19	0xbe300579	-0.17189588
20	0x3e575ae8	0.21030772
21	0xbde49bc5	-0.11162523
22	0x3dc181db	0.09448596
23	0x3d2d0137	0.042237487
24	0x3cc59105	0.024117002
25	0xbdb14ed7	-0.08657616
26	0xbdb410a3	-0.08792236
27	0xbc83b149	-0.016075747
28	0x3ce4a20e	0.027909305
29	0xbdb27d15	-0.08715264
30	0x3e39059c	0.18068546
31	0x3db48173	0.08813753
32	0xbe4bea5c	-0.1991362
33	0xbe278f80	-0.16363335
34	0x3e4d8226	0.20069179
35	0xbe05b9bc	-0.13059133
36	0xbda3395a	-0.07969923
37	0x3db95c09	0.090507574
38	0x3d7d3b63	0.061824214
39	0x3b53aba4	0.003229835
40	0x3e024dae	0.12724945
41	0x3cfeaa56	0.031087082
42	0xbda1f5eb	-0.07908233
43	0xbe0791c2	-0.13239196
44	0x3e12d427	0.14338742
45	0xbe0a57c2	-0.1351004
46	0xbda45740	-0.08024454
47	0xbdad277f	-0.08454799
48	0xbe4fe346	-0.20301542
49	0xbe074652	-0.13210419
50	0xbc750a2c	-0.014956038
51	0x3e46a668	0.19399416
52	0xbe42176a	-0.18954244
53	0x3d8c57b3	0.06852665
54	0xbd930098	-0.071778476
55	0x3e1e5b87	0.15464602
56	0x3e2bb8c8	0.16769707
57	0xbe565e4b	-0.20934407
58	0xbe3e5445	-0.18586834
59	0x3c2af591	0.010434524
60	0x3deac94d	0.11464176
61	0x3d95cb10	0.07314122
62	0x3d054635	0.032537658
63	0x3d5c991c	0.053856954
64	0xbdfbd1b4	-0.12295857
65	0x3dbc5275	0.09195415
66	0x3d1d299e	0.038369767
67	0x3c87b29b	0.016564658
68	0xbe13be75	-0.14428122
69	0xbc1a3e44	-0.009414259
70	0xbcb6fcfe	-0.022337433
71	0xbe020ece	-0.1270096
72	0x3d18d414	0.03731163
73	0xbe581a22	-0.21103719
74	0xbb8554c4	-0.0040689427
75	0x3e164cfb	0.14677803
76	0x3df72044	0.12066701
77	0x3db4ba9c	0.088246554
78	0x3d8091d3	0.06277814
79	0xbdcae138	-0.09906238
80	0xbd520cfa	-0.051281907
81	0xbdfa5e2c	-0.12224993
82	0xbce2a9de	-0.02766889
83	0x3e3a84cc	0.1821472
84	0xbe4b8e42	-0.19878486
85	0xbdd78fbd	-0.10525463
86	0x3e017a1a	0.12644234
87	0x3e224fda	0.15850773
88	0xbe368438	-0.17823875
89	0xbd09bcc0	-0.03362727
90	0x3d9b7351	0.07590354
91	0xbe19ea99	-0.15030898
92	0x3db5f64a	0.088848665
93	0xbcf851c8	-0.030312434
94	0xbdcd1ba2	-0.10015036
95	0xbd4cab3d	-0.049967993
96	0xbde6ac1b	-0.11263295
97	0x3d82e1ce	0.06390725
98	0x3e0093be	0.12556359
99	0x3d3f33cf	0.046680268
100	0xbd88a15f	-0.06671404
101	0xbe1573b9	-0.14594926
102	0xbd90ddcc	-0.070735544
103	0x3e304f54	0.17217761
104	0xbbf03074	-0.007329995
105	0xbdca583f	-0.09880113
106	0xbdda357c	-0.106547326
107	0xbd07a045	-0.03311183
108	0x3e2a7959	0.16647853
109	0xbb05e65e	-0.00204315
110	0x3e1d9bb8	0.15391433
111	0xbda9b6e6	-0.08286838
112	0xbdb145f8	-0.086559236
113	0x3e4b7b92	0.19871357
114	0xba3fc462	-0.0007315335
115	0x3cab9776	0.020946246
116	0xbd082de5	-0.033246893
117	0x3c206c71	0.009791479
118	0x3e43835d	0.1909308
119	0x3d37677c	0.044776425
120	0xbc122074	-0.00891887
121	0x3d5ec8e3	0.0543908
122	0x3e336fc9	0.17523111
123	0xbe513cbe	-0.20433328
124	0xbde9e8d8	-0.114213645
125	0xbd28bd94	-0.04119642
126	0xbd21a257	-0.03946146
127	0x3da21f06	0.079160735
128	0x3d868294	0.065678746
129	0xbe56fc38	-0.20994651
130	0x3d7f78a4	0.06237091
131	0xbdf5df16	-0.12005441
132	0xbd855967	-0.06511193
133	0xbe028f44	-0.12749964
134	0x3e46c439	0.1941079
135	0xbdf5bd39	-0.11998982
136	0xbd9a8603	-0.07545092
137	0x3e245eba	0.1605176
138	0x3e4141eb	0.18872802
139	0xbe1d45b2	-0.15358618
140	0x3e0ed9db	0.13950293
141	0x3da7dcd4	0.081964165
142	0xbe1fe749	-0.15615572
143	0xbcc6aaf7	-0.024251444
144	0x3e54b6e1	0.20772888
145	0x3dd3fb88	0.1035071
146	0xbdf925ac	-0.121653885
147	0x3df01436	0.11722605
148	0xbdb59ce8	-0.08867818
149	0x3d0fdf7e	0.035125248
150	0x3da1c10b	0.07898148
151	0x3e50b845	0.20382793
152	0xbd968ee8	-0.07351476
153	0xbe45f7a5	-0.1933275
154	0x3e295997	0.16538082
155	0xbd938e35	-0.07204858
156	0xbd2ee2f8	-0.042696923
157	0x3c7ef7af	0.015561982
158	0xbe274c83	-0.1633778
159	0xbdce3519	-0.10068721
160	0xbe413a63	-0.18869929
161	0x3e0f1a1e	0.13974807
162	0xbc52271f	-0.01282671
163	0xbe11c3c0	-0.14234829
164	0xbe130d2e	-0.14360496
165	0x3e4ab4f5	0.19795592
166	0x3d832499	0.06403465
167	0x3d9ea242	0.07745792
168	0x3dbf8854	0.093521744
169	0x3e4e573d	0.20150466
170	0x3dedcab6	0.1161093
171	0xbc67404e	-0.0141144525
172	0xbe5d276f	-0.21597074
173	0xbdc16832	-0.09443702
174	0x3e083313	0.13300733
175	0x3deed400	0.116615295
176	0x3e1f2bc9	0.15544046
177	0xbda858ad	-0.082200386
178	0x3e3e984f	0.18612789
179	0x3cd21aff	0.025647638
180	0x3e374621	0.17897846
181	0xbd4d86d5	-0.050177414
182	0xbe2d3fe9	-0.16918911
183	0xbe284c17	-0.16435276
184	0xbd9435dc	-0.07236835
185	0xbdfa78fe	-0.12230109
186	0x3e16366c	0.14669198
187	0xbcdfa4c0	-0.027300239
188	0xbd65287b	-0.05594681
189	0xbd4ad30e	-0.049517684
190	0xbe165ee1	-0.14684631
191	0xbe10f08f	-0.14154266
192	0xbe4bda5f	-0.1990752
193	0xbb986c66	-0.004651594
194	0x3e289531	0.16463162
195	0xbe520ac9	-0.20511927
196	0xbe5273e6	-0.20552024
197	0x3d248694	0.040167406
198	0xbd3224ca	-0.043492116
199	0xbdc17f7f	-0.09448146
200	0xbe50bd81	-0.2038479
201	0x3c482611	0.012216107
202	0x3e007eab	0.1254832
203	0xbc0798ca	-0.008276174
204	0x3dc64f77	0.096831255
205	0xbe058d22	-0.13042119
206	0xbe475382	-0.1946545
207	0x3e13e763	0.14443736
208	0x3d5c2355	0.053744633
209	0xbe418c72	-0.18901232
210	0x3e4fc2e5	0.2028919
211	0xbdd1d990	-0.10246575
212	0xbdf89ac5	-0.12138895
213	0x3ca36b93	0.019948756
214	0x3e0600a5	0.13086183
215	0x3d95ecd3	0.07320561
216	0x3e037d42	0.12840751
217	0x3e322246	0.17395887
218	0x3e11c549	0.14235415
219	0xbda8ffd0	-0.08251917
220	0xbd49b413	-0.049243998
221	0x3d9311af	0.07181107
222	0xbe01c42e	-0.12672493
223	0xbe441d61	-0.19151832
224	0xbe13dfb5	-0.14440806
225	0x3d4ea429	0.050449524
226	0x3e4a4dd7	0.19756256
227	0x3dfc8b9c	0.12331316
228	0xbe5ae8f7	-0.21377932
229	0xbd37ae18	-0.044843763
230	0x3b02f74f	0.0019983833
231	0x3d55fbc2	0.052242048
232	0xbdd95cb0	-0.10613382
233	0x3e29a03f	0.16565035
234	0xbe059d62	-0.13048318
235	0xbd16929a	-0.036760904
236	0xbccea668	-0.025225833
237	0x3b1d9454	0.002404471
238	0x3e16842f	0.14698862
239	0xbe14d9c3	-0.14536195
240	0x3e11d428	0.14241087
241	0xbe1495f6	-0.1451033
242	0x3e2a9a22	0.1666036
243	0xbe1eb7d3	-0.15499811
244	0xbd6836a6	-0.05669274
245	0xbe00393a	-0.1252183
246	0xbe207bd9	-0.15672244
247	0x3e3722a6	0.17884311
248	0xbe4e3149	-0.20135988
249	0x3e3a398a	0.18186012
250	0xbe1971c2	-0.14984801
251	0x3e252155	0.16125996
252	0x3e1b9b73	0.15196018
253	0xbdab6e26	-0.083706185
254	0x3cfe8c4c	0.031072758
255	0xbe556578	-0.20839489

encoder.trans_layer_T.trans_layers.0.kff.bias f4 [64]
0	0x3e582755	0.21108754
1	0x3e8dab4b	0.2766975
2	0x3e91ebdc	0.2850026
3	0x3b4cdd3a	0.003125979
4	0x3f410816	0.75402963
5	0x3f0bcd48	0.5461011
6	0x3f0da69e	0.5533236
7	0x3ec1e90d	0.37873116
8	0x3f61041f	0.87896913
9	0x3e9423d8	0.28933597
10	0x3f26fe25	0.65231544
11	0x3f1ba559	0.60799176
12	0x3e0c0702	0.13674548
13	0x3ea090b1	0.3136039
14	0x3f17083e	0.5899695
15	0x3f7199c8	0.94375277
16	0x3f62f158	0.8864951
17	0x3ebe991b	0.37226185
18	0x3e5db615	0.2165149
19	0x3f33e578	0.70272017
20	0x3eb78a47	0.35847685
21	0x3ef76c8c	0.48325002
22	0x3f45e638	0.7730441
23	0x3ecf8023	0.40527448
24	0x3d020abb	0.031748515
25	0x3efc314e	0.49256366
26	0x3f3b2f38	0.73118925
27	0x3f598b3f	0.849781
28	0x3e851b89	0.2599757
29	0x3ecc3d15	0.39890352
30	0x3f625162	0.8840543
31	0x3d7ca83b	0.061683875
32	0x3d271567	0.040791895
33	0x3eef8ef8	0.46788764
34	0x3e5b2a8f	0.21402954
35	0x3f7247b3	0.94640654
36	0x3f26c104	0.6513827
37	0x3e666e70	0.22503066
38	0x3e9d490e	0.307198
39	0x3edec526	0.43509787
40	0x3d58a0ba	0.052887656
41	0x3e210855	0.15725835
42	0x3e268a3a	0.16263667
43	0x3e90b665	0.28264156
44	0x3f5b426d	0.8564823
45	0x3f1c4625	0.6104453
46	0x3edb3016	0.42810124
47	0x3f645e4c	0.89206386
48	0x3f57acfb	0.8424832
49	0x3f39e574	0.7261574
50	0x3edd57e3	0.43231115
51	0x3f10c00f	0.5654306
52	0x3df9b2c7	0.12192302
53	0x3f6765e9	0.9038988
54	0x3ed0dfce	0.4079575
55	0x3ead46ef	0.3384318
56	0x3f429dbf	0.7602195
57	0x3f350e7f	0.70725244
58	0x3eae710c	0.34070623
59	0x3f327f01	0.6972504
60	0x3f634bca	0.8878752
61	0x3e4592c0	0.19294262
62	0x3e284284	0.16431624
63	0x3f4ca6b5	0.79941875

encoder.trans_layer_T.trans_layers.0.vff.weight f4 [64, 64]
0	0x3dc89e3a	0.09795804
1	0xbe3438df	-0.1759982
2	0x3d476a0f	0.04868513
3	0xbd9d1f84	-0.07672027
4	0xbe4d7c2a	-0.20066896
5	0xbd17b782	-0.03704024
6	0xbe4bdaf8	-0.19907749
7	0x3d3a8687	0.04553845
8	0x3d342d0e	0.04398828
9	0x3e1e54e4	0.1546207
10	0xbe5c0494	-0.21486121
11	0xbda86a75	-0.0822343
12	0x3e4958db	0.19662802
13	0xbde5b6fa	-0.11216541
14	0x3df2127d	0.118199326
15	0x3d2475cc	0.040151402
16	0xbdf82b9e	-0.12117694
17	0x3d945235	0.07242242
18	0x3c99e695	0.018786708
19	0xbd4236ae	-0.047415428
20	0xbe49f035	-0.19720538
21	0x3d69630a	0.056979217
22	0xbe5720b9	-0.21008576
23	0x3da81a5c	0.08208153
24	0x3d7f73e8	0.062366396
25	0xbdc49008	-0.09597784
26	0xbe45ecc2	-0.19328597
27	0x3c811403	0.015756613
28	0x3d94d15a	0.07266493
29	0xbd5a5458	-0.053303093
30	0x3e05cacf	0.13065647
31	0xbdd8a635	-0.105785765
32	0xbe1ac062	-0.1511245
33	0xbd7d0111	-0.061768595
34	0x3e0c351d	0.13692136
35	0xbe1779ac	-0.14792508
36	0xbe4da929	-0.2008406
37	0x3aefe475	0.0018302338
38	0x3e1a1173	0.15045719
39	0x3e354ede	0.17705867
40	0xbd9b17f5	-0.07572929
41	0x3dd3aca5	0.10335664
42	0xbda512f8	-0.080602586
43	0x3e36b0d2	0.17840889
44	0xbde57b19	-0.1120512
45	0xbe1f4d07	-0.15556727
46	0x3c65893b	0.014009769
47	0xbcc58708	-0.02411224
48	0xbd588b3b	-0.052867156
49	0xbbae5fd2	-0.0053214813
50	0xbd072d52	-0.033002205
51	0xbe5944cb	-0.21217649
52	0xbe257747	-0.16158782
53	0xbd39b09f	-0.045334455
54	0x3e2c26f3	0.16811733
55	0x3ddf4394	0.109015614
56	0x3e54b715	0.20772965
57	0xbe1c8b5b	-0.15287535
58	0x3e56216b	0.20911185
59	0xbcb826fc	-0.022479527
60	0xbe2389fd	-0.15970607
61	0xbdad9cfc	-0.08477208
62	0x3e446762	0.19180062
63	0xbe0664b0	-0.13124347
64	0xbe1cea5f	-0.1532378
65	0x3defe5f6	0.117137834
66	0xbe3a189b	-0.18173449
67	0x3e4bc195	0.19898064
68	0x3d43afb3	0.04777498
69	0xbcef8a64	-0.029240794
70	0x3e381f02	0.17980579
71	0x3d2d9224	0.0423757
72	0x3e1fee45	0.15618236
73	0xbd2d2825	-0.042274613
74	0xbe0c1349	-0.13679232
75	0xbd6854ef	-0.056721624
76	0xbe04ab09	-0.1295587
77	0x3d0763e8	0.033054262
78	0xbb9aefbf	-0.004728287
79	0xbdf05d37	-0.11736529
80	0x3e2f2f4d	0.17107888
81	0xbdeca409	-0.11554725
82	0x3df508a8	0.11964542
83	0x3da43c04	0.080192596
84	0x3d5c8fdb	0.05384813
85	0x3e37c172	0.17944887
86	0xbdbe5ad8	-0.09294671
87	0x3e17be1e	0.14818618
88	0xbe57788b	-0.21042077
89	0x3d4546de	0.048163287
90	0x3e003227	0.12519132
91	0xbd5f75b0	-0.054555595
92	0xbd57f0da	-0.05271993
93	0xbdd4d0fe	-0.103914246
94	0x3c89332d	0.016748035
95	0x3e4ed137	0.20196997
96	0xbdff47ad	-0.12464843
97	0xbdec2d68	-0.11532098
98	0xbc8a9a10	-0.016919166
99	0xbe594de4	-0.21221119
100	0xbd8f016b	-0.06982692
101	0xbe0581e5	-0.13037832
102	0xbe5d3a80	-0.21604347
103	0x3d7cb017	0.06169137
104	0xbd8f5fb5	-0.070006765
105	0xbdbdb1c2	-0.0926242
106	0xbdbbe99d	-0.091754176
107	0xbe1c07a8	-0.15237296
108	0xbe1386ce	-0.14406893
109	0x3e5b802a	0.2143561
110	0xbce2d36f	-0.02768871
111	0xbe245655	-0.16048558
112	0xbdd64ecc	-0.10464248
113	0x3e45bf3e	0.19311234
114	0xbc5bcc52	-0.013415413
115	0xbdf0e522	-0.117624536
116	0x3ccdcdd8	0.025122568
117	0xbe38c9ba	-0.18045703
118	0x3e1acc7d	0.15117069
119	0xbe4d4004	-0.20043951
120	0x3e0bf647	0.13668166
121	0xbd5a3897	-0.053276625
122	0x3ce18cd6	0.027532976
123	0x3d30dd8a	0.043180026
124	0xbe44642d	-0.19178839
125	0xbdfd14b4	-0.123574644
126	0xbdc2b4a5	-0.095071115
127	0xbde0b544	-0.10972074
128	0x3d0f4e30	0.034986675
129	0xbe57049f	-0.20997857
130	0x3d4868dc	0.048928127
131	0x3d805d14	0.06267753
132	0x3e04c1c2	0.12964538
133	0xbe1a0520	-0.15041018
134	0x3d6db0f2	0.058030076
135	0x3dde4b23	0.10854175
136	0x3e591207	0.21198283
137	0xbe578c8f	-0.21049713
138	0x3e4b0c00	0.19828796
139	0x3d5bd370	0.05366844
140	0x3e36c70a	0.17849365
141	0xbcc8edfc	-0.024527542
142	0xbc0adc49	-0.008475372
143	0x3e4ad72c	0.19808644
144	0x3d756c2b	0.05991761
145	0xbdda869a	-0.106702045
146	0xbd324e69	-0.04353181
147	0x3d9e80fc	0.077394456
148	0xbce6dfef	-0.028182952
149	0x3e57426d	0.21021433
150	0xbd6be1b8	-0.05758831
151	0x3e150165	0.14551313
152	0xbe4b56be	-0.19857308
153	0xbd59fbac	-0.05321853
154	0x3e57192d	0.21005698
155	0xbd4f6bb2	-0.050639816
156	0x3e0562da	0.1302599
157	0x3e2c758e	0.16841719
158	0xbd6cb692	-0.0577913
159	0x3d30308d	0.04301505
160	0xbda9e5f4	-0.08295813
161	0xbdea207d	-0.11431978
162	0xbdcd41a8	-0.100222886
163	0x3d156de2	0.036481746
164	0x3d044a16	0.032297216
165	0xbd24ae3d	-0.04020523
166	0x3d333f08	0.043761283
167	0x3da2d99c	0.07951662
168	0x3e303677	0.17208277
169	0x3de8d891	0.11369432
170	0xbde96de4	-0.11397913
171	0x3d77e6c6	0.060522817
172	0x3dd09f95	0.10186688
173	0x3d514733	0.05109329
174	0x3ddc6c67	0.107628636
175	0x3c43d991	0.011953727
176	0x3da08c48	0.078392565
177	0x3d7d615b	0.061860424
178	0x3e0f43c7	0.13990699
179	0xbd80589e	-0.062669024
180	0xbe3d9551	-0.18513991
181	0x3d3d480b	0.046211284
182	0x3e5550ba	0.20831576
183	0x3e42c0c5	0.19018848
184	0xbdcd89ca	-0.10036047
185	0x3d42d701	0.047568325
186	0xbd904f6d	-0.07046399
187	0x3e3f455c	0.18678802
188	0xbc00bb30	-0.007857129
189	0xbdd647e7	-0.10462933
190	0x3d9e3e92	0.07726778
191	0xbd1af162	-0.037827857
192	0x3dede37d	0.116156556
193	0xbdb930ec	-0.09042534
194	0x3d726a00	0.05918312
195	0xbdfa763b	-0.12229582
196	0xbe069cb4	-0.13145715
197	0x3d8d8e4b	0.06911906
198	0xbe26ecf3	-0.16301326
199	0x3c6f84a8	0.01461903
200	0xbe355091	-0.17706515
201	0xbd661cee	-0.056179933
202	0x3cd2acde	0.025717195
203	0x3dcc3a85	0.09972099
204	0xbe411970	-0.1885736
205	0x3d652ad5	0.05594905
206	0xbe30bf18	-0.17260396
207	0x3e236dab	0.15959804
208	0xbda7830f	-0.08179294
209	0x3c834ff7	0.016029341
210	0x3e3c046b	0.1836106
211	0xbd77b2ef	-0.06047338
212	0xbd558ca7	-0.05213609
213	0xbe2943b4	-0.16529733
214	0xbde174fc	-0.11008641
215	0xbe59e2ff	-0.21277998
216	0xbe231d44	-0.15929133
217	0x3de565bd	0.11201046
218	0xbe1e75d1	-0.15474631
219	0x3db8dae0	0.09026122
220	0x3e38bcff	0.18040846
221	0x3e3dd3d1	0.18537833
222	0xbd4230f1	-0.047409955
223	0xbbe06a11	-0.0068485816
224	0xbe39da4f	-0.18149684
225	0xbcf99d3a	-0.03047048
226	0xbe4e87a0	-0.20168924
227	0x3d9e392f	0.07725751
228	0x3dca0bc2	0.09865524
229	0xbe24d9a1	-0.16098644
230	0xbcad1c47	-0.021131648
231	0x3d05353d	0.032521475
232	0xbdc6d487	-0.09708505
233	0xbe339462	-0.17537072
234	0xbd9fa6a1	-0.07795454
235	0xbe26cf7e	-0.1629009
236	0xbe452c67	-0.1925522
237	0x3df221ee	0.11822878
238	0x3e440382	0.19141963
239	0x3d2e0544	0.04248549
240	0xbe0ed18f	-0.13947128
241	0x3dd5dbda	0.10442324
242	0x3df2b408	0.118507445
243	0xbe416f52	-0.18890122
244	0xbe180c73	-0.14848499
245	0xbe05171e	-0.129971
246	0xbded68d0	-0.11592257
247	0xbe555785	-0.20834167
248	0xbd46c940	-0.04853177
249	0x3dc376d0	0.09544146
250	0x3cfb0392	0.03064135
251	0x3d862fce	0.06552087
252	0xbe2d908c	-0.16949672
253	0xbdffd214	-0.12491241
254	0xbe12aa19	-0.143227
255	0x3e1a55f0	0.15071845

encoder.trans_layer_T.trans_layers.0.vff.bias f4 [64]
0	0x3f67c000	0.90527344
1	0x3ef66bfb	0.48129258
2	0x3f568636	0.8379854
3	0x3f78d91a	0.9720627
4	0x3f7e7ad7	0.9940619
5	0x3f4e7bcd	0.80657655
6	0x3ee6ba43	0.4506398
7	0x3f26493b	0.6495549
8	0x3eae05a2	0.33988672
9	0x3da67e37	0.08129542
10	0x3ebea82a	0.37237674
11	0x3f1e3dc5	0.61813
12	0x3e10694e	0.1410267
13	0x3f0dc982	0.553856
14	0x3f2ce820	0.67541695
15	0x3e2b95e6	0.167564
16	0x3f3d838c	0.7402885
17	0x3f267783	0.6502611
18	0x3f2acc74	0.6671822
19	0x3d4d6b4a	0.050151147
20	0x3ea8568e	0.32878536
21	0x3ed769e9	0.4207299
22	0x3ee2dea1	0.44310477
23	0x3f66bc99	0.9013153
24	0x3f07dd3c	0.5307195
25	0x3f7ffa8d	0.99991685
26	0x3d83d625	0.06437329
27	0x3f5368fa	0.82582057
28	0x3cb2d291	0.021828922
29	0x3f6e13f2	0.92999184
30	0x3c791e0b	0.015204917
31	0x3c138154	0.009003002
32	0x3dff7cf8	0.12475008
33	0x3e454a32	0.19266585
34	0x3da01f3b	0.07818457
35	0x3f4092e6	0.7522415
36	0x3f6d8348	0.92778444
37	0x3cf93c5d	0.030424291
38	0x3f654a3b	0.8956639
39	0x3e45b038	0.19305503
40	0x3f6625b4	0.8990128
41	0x3e1c05ba	0.1523656
42	0x3edc5bc5	0.43038765
43	0x3e7b9c7f	0.24571417
44	0x3f56b064	0.838629
45	0x3e57f43f	0.21089266
46	0x3ee1a4f5	0.44071165
47	0x3f1a418f	0.60256284
48	0x3f0ab3b7	0.54180473
49	0x3d9432f8	0.07236284
50	0x3f32a74d	0.6978653
51	0x3ef99b94	0.4875151
52	0x3ea1c2f0	0.31594038
53	0x3ecf2ddf	0.40464684
54	0x3f5e5635	0.8685029
55	0x3e854a70	0.26033354
56	0x3f7044dd	0.9385508
57	0x3ea1fcb2	0.31638104
58	0x3f29b24a	0.6628767
59	0x3f31c91c	0.69447494
60	0x3e7a084d	0.24417229
61	0x3db409f2	0.087909594
62	0x3f24447c	0.64167
63	0x3eb51611	0.35368398

encoder.trans_layer_T.trans_layers.0.ln.weight f4 [64]
0	0x3f031c11	0.512147
1	0x3f75d5fc	0.9602964
2	0x3fab75d4	1.3395333
3	0x3f3d2e93	0.7389919
4	0x3f42fe73	0.7616951
5	0x3f20319e	0.6257571
6	0x3f65b279	0.8972545
7	0x3f484432	0.7822906
8	0x3f248545	0.64265853
9	0x3eb3a5de	0.35087484
10	0x3f15f2e7	0.58573765
11	0x3f2790d7	0.65455383
12	0xbebf123e	-0.37318605
13	0x3f8a37c2	1.0798266
14	0x3f663d3f	0.89937204
15	0x3f7cf135	0.9880555
16	0x3f7319fa	0.9496151
17	0x3f3f2795	0.7466977
18	0x3e6606cd	0.22463532
19	0x3f38c139	0.72169834
20	0x3f59b8d2	0.8504764
21	0x3f298aec	0.662276
22	0x3fa31e62	1.2743647
23	0xbeded68d	-0.43523064
24	0x3f72abd6	0.9479345
25	0x3f08c004	0.5341799
26	0x3f4f46ab	0.80967206
27	0x3ee83bda	0.45358163
28	0x3f4f2523	0.8091604
29	0x3f2fb164	0.6863005
30	0x3f8215f4	1.016295
31	0x3f0ea678	0.5572276
32	0x3f923b7b	1.1424402
33	0xbeb7198d	-0.3576168
34	0x3f131a51	0.5746203
35	0x3f0eb67c	0.557472
36	0x3f567967	0.83778995
37	0x3f54862b	0.83017224
38	0x3f59a239	0.8501316
39	0x3f0bb447	0.54571956
40	0x3f808a36	1.0042179
41	0x3eb9dce5	0.36301342
42	0x3f81b550	1.0133457
43	0xbe99eb0f	-0.30062148
44	0x3d9bf11a	0.07614346
45	0x3f089fc9	0.5336881
46	0x3f880b46	1.062844
47	0x3f30e673	0.6910164
48	0x3f80ca1f	1.0061682
49	0x3f532b7f	0.82488245
50	0x3f4f7500	0.810379
51	0xbeb3957e	-0.3507499
52	0x3f996ef1	1.1986982
53	0x3e95c2f6	0.29250306
54	0x3f5a51da	0.85281146
55	0x3f38d7cc	0.7220428
56	0x3ee5f68d	0.44914666
57	0xbf0dead5	-0.5543645
58	0x3f83214c	1.0244536
59	0xbcb56946	-0.022144925
60	0x3eedc12c	0.4643644
61	0xbabe0c8f	-0.0014499592
62	0x3f6f8698	0.9356475
63	0x3f52b296	0.8230375

encoder.trans_layer_T.trans_layers.0.ln.bias f4 [64]
0	0x3ef1f388	0.47256112
1	0x3ecf925e	0.40541357
2	0x3f0755c0	0.5286522
3	0x3ecf367e	0.40471262
4	0x3f4391f5	0.7639459
5	0x3db2a1b0	0.08722246
6	0x3e02b519	0.12764396
7	0x3f2d9df9	0.6781917
8	0x3d29dec5	0.041472215
9	0x3e9b4bab	0.30331168
10	0x3d7c15f8	0.06154439
11	0x3f228f4f	0.6349992
12	0x3e758048	0.23974717
13	0x3f04eebc	0.5192678
14	0x3ea5500e	0.3228764
15	0x3e9fe77a	0.3123129
16	0x3c9274cb	0.017877957
17	0xbdf0ca45	-0.1175733
18	0xbd65444d	-0.05597334
19	0xbd2d5584	-0.042317882
20	0x3e9e86a3	0.30962095
21	0x3e770b6a	0.24125448
22	0x3f16d005	0.5891116
23	0x3ecda4b0	0.4016471
24	0x3ecfdcdf	0.405982
25	0xbdd2b049	-0.1028753
26	0x3e865c22	0.26242167
27	0xbe985c89	-0.297581
28	0x3f4b796c	0.7948215
29	0xbe442612	-0.19155148
30	0x3f0ac30a	0.54203856
31	0xbdf8d0a3	-0.12149169
32	0x3ea7c8a9	0.3277028
33	0x3e8b347c	0.2718848
34	0x3e964562	0.2934981
35	0x3da4b5af	0.08042466
36	0x3eea6871	0.45782807
37	0x3d7fbf07	0.062438037
38	0x3eda9a83	0.42696008
39	0x3e81faf3	0.25386772
40	0x3f40d849	0.75330025
41	0xbe9385a4	-0.28812897
42	0x3f4bd21e	0.7961749
43	0x3dd29b37	0.10283511
44	0x3ec9e3af	0.3943152
45	0xbe34c147	-0.17651854
46	0x3f54598c	0.8294914
47	0x3e7fc11e	0.24976012
48	0x3ec55e44	0.3854848
49	0x3ecbc37c	0.3979758
50	0x3f54bf82	0.8310472
51	0x3e723c93	0.2365592
52	0x3f0d78c4	0.552624
53	0x3f1fe7b4	0.62462926
54	0x3f2344d4	0.637769
55	0x3e5b8c16	0.21440157
56	0x3e852a4c	0.26008832
57	0x3e8fab1a	0.28060228
58	0x3e9edf84	0.31029904
59	0x3e40bcd1	0.18822028
60	0x3ebaac4c	0.36459577
61	0x3af654e6	0.0018793612
62	0x3f2f0221	0.68362623
63	0x3e77f995	0.24216302

encoder.trans_layer_T.trans_layers.0.lnff.weight f4 [64]
0	0x3f9b66c1	1.2140733
1	0x3f98798a	1.1912091
2	0x3edd2dc3	0.43198976
3	0x3f44c909	0.76869255
4	0x3eeb3b00	0.4594345
5	0x3d2ac5fb	0.041692715
6	0x3e19e6c5	0.15029438
7	0x3f2dedb3	0.67940825
8	0x3e167f5c	0.14697021
9	0x3f0d79e3	0.5526411
10	0x3e3ebbb9	0.18626298
11	0x3f4afe13	0.79293936
12	0x3c8cb21d	0.017174775
13	0x3eeaefe6	0.45886153
14	0x3ec09c04	0.3761903
15	0x3e9a38f5	0.3012158
16	0x3f48e0a2	0.7846776
17	0x3f5bfad9	0.8592964
18	0x3e07854e	0.13234445
19	0x3d33952b	0.04384343
20	0x3e848604	0.25883496
21	0x3f6801dd	0.90627843
22	0x3f990500	1.1954651
23	0x3fa8d7d3	1.3190864
24	0x3f6dfbf4	0.92962575
25	0x3ef121c1	0.47096065
26	0x3fb7aae2	1.4349024
27	0x3fb5890b	1.4182447
28	0x3f1e77e0	0.61901665
29	0x3ef47acc	0.47749937
30	0x3f67ec11	0.90594584
31	0x3e5fa9d6	0.21842131
32	0x3f562379	0.83647877
33	0x3f5db8a4	0.86609864
34	0x3ea8b0da	0.32947427
35	0x3f4e98fb	0.8070218
36	0x3f02287e	0.50843036
37	0xbdb22e9b	-0.087002955
38	0x3f62b6ff	0.8856048
39	0x3f200027	0.6250023
40	0x3e4e6357	0.20155083
41	0x3cb9c434	0.022676565
42	0x3f97fc4d	1.1873871
43	0x3f484f9b	0.7824647
44	0x3e417102	0.18890765
45	0x3e3756de	0.17904231
46	0x3f74afd7	0.9558081
47	0x3f231900	0.6371002
48	0x3f8fd6d3	1.1237434
49	0x3f8746c5	1.0568472
50	0x3f5b04bc	0.855541
51	0x3ee92b3a	0.45540792
52	0x3f718c90	0.94355106
53	0x3ed49d30	0.41526175
54	0xbe431620	-0.19051409
55	0x3ef2c58c	0.4741634
56	0x3c2784ea	0.01022456
57	0x3f7c0c79	0.9845653
58	0x3f3f9100	0.7483063
59	0x3f213a2e	0.629794
60	0x3f696401	0.9116822
61	0x3f6de3c1	0.9292565
62	0x3f34667f	0.70468897
63	0x3e08ba7f	0.13352393

encoder.trans_layer_T.trans_layers.0.lnff.bias f4 [64]
0	0x3f47abd5	0.7799657
1	0x3ed21560	0.41031933
2	0x3e571b30	0.21006465
3	0x3f2fcfd6	0.6867651
4	0x3e0845dd	0.133079
5	0x3f3e0afe	0.7423552
6	0x3df8fffb	0.121581994
7	0x3d499ef7	0.049223866
8	0x3ec843e9	0.3911431
9	0x3ea4e270	0.32204008
10	0x3f61f534	0.88264775
11	0x3f558cff	0.8341827
12	0x3f57a581	0.84236914
13	0x3f51f3cc	0.8201263
14	0x3e3d7fd2	0.18505791
15	0xbd1a6198	-0.03769073
16	0x3f5fd2fa	0.874313
17	0x3f4b059c	0.79305434
18	0x3e49e615	0.19716676
19	0x3f2e76c8	0.68149996
20	0x3f406390	0.7515192
21	0x3f531f64	0.82469773
22	0x3f11a9c3	0.5689966
23	0x3f56804a	0.83789504
24	0x3f2bb16a	0.6706759
25	0x3f555a60	0.83341026
26	0x3f839e0a	1.0282605
27	0x3eeffb55	0.4687144
28	0x3c89327a	0.016747702
29	0x3f298dac	0.662318
30	0x3f5e453f	0.8682441
31	0x3f31eaa6	0.6949867
32	0x3ed568be	0.41681474
33	0x3f36eecf	0.71458143
34	0x3f05e9b9	0.5230976
35	0x3e9d9bd2	0.30782944
36	0x3f130748	0.57432985
37	0x3f23431f	0.63774294
38	0x3f5d7177	0.8650126
39	0x3f1ef5a7	0.62093586
40	0x3f7b4759	0.9815574
41	0x3ee3df5e	0.44506353
42	0x3f3e0b1f	0.7423572
43	0x3d8ea2b1	0.06964625
44	0x3f2c249b	0.67243356
45	0x3eca62e0	0.3952856
46	0x3ef61486	0.48062533
47	0x3e3a3663	0.1818481
48	0x3edfe7dd	0.43731585
49	0x3e5750d5	0.21026929
50	0x3f1b28eb	0.6060931
51	0x3f38eb2e	0.72233856
52	0x3ef8ddf5	0.4860684
53	0x3f14f5ea	0.58187735
54	0x3f58df6d	0.8471592
55	0x3e7fe94f	0.24991344
56	0x3f13ccbc	0.57734275
57	0x3f26566e	0.6497563
58	0x3eb7394c	0.35785902
59	0x3eb2a7e0	0.34893703
60	0x3f0e5a83	0.5560686
61	0x3e1dfd58	0.15428674
62	0x3efa8955	0.489329
63	0x3e5cd986	0.21567354

encoder.trans_layer_T.trans_layers.0.ff.0.weight f4 [64, 64]
0	0xbde13eea	-0.10998328
1	0xbe934d16	-0.2876975
2	0x3eb3a68e	0.3508801
3	0x3dc0512f	0.093904845
4	0xbda48014	-0.080322415
5	0x3e20584e	0.15658686
6	0xbdbdf11b	-0.09274503
7	0x3d080edc	0.033217296
8	0xbe2dbbb4	-0.16966134
9	0xbe6dd011	-0.23223902
10	0xbd14cdad	-0.03632896
11	0xbf2f2a77	-0.6842417
12	0xbdebcf4e	-0.115141496
13	0xbf203215	-0.6257642
14	0x3dc0b5d9	0.09409685
15	0x3d1b0d38	0.037854403
16	0x3c72713d	0.014797506
17	0xbe7b7bec	-0.24558991
18	0xbd8696a3	-0.065717004
19	0xbe7ce1ef	-0.24695562
20	0xbdaaa067	-0.083313756
21	0x3c1f3d48	0.0097192
22	0x3f068f7f	0.5256271
23	0xbe00e5b5	-0.12587626
24	0x3e858903	0.26081094
25	0xbe99c661	-0.30034164
26	0x3e1e88ec	0.15481919
27	0xbe4abc10	-0.19798303
28	0xbd622b0a	-0.055216826
29	0xbedc9ad5	-0.43086877
30	0x3f6cda47	0.92520565
31	0xbe4eb12e	-0.20184776
32	0xbe844a18	-0.2583778
33	0xbe2f2d1c	-0.17107052
34	0x3edb5cd9	0.42844275
35	0xbe6d7a5f	-0.23191212
36	0x3ed06647	0.4070303
37	0xbeff835b	-0.49904904
38	0x3e428e5a	0.18999615
39	0xbeca5122	-0.39515024
40	0x3ec5b7a1	0.3861666
41	0xbe6cc605	-0.23122413
42	0x3d3da324	0.04629816
43	0x3ec343ec	0.38137758
44	0xbe9a1616	-0.30094975
45	0x3cd394f6	0.025827866
46	0x3daa0aa3	0.0830281
47	0xbe921562	-0.2853194
48	0x3dcbcc71	0.099511035
49	0xbd841961	-0.06450153
50	0xbd58c046	-0.05291774
51	0x3bfabbde	0.00765179
52	0xbf0df0ef	-0.5544576
53	0x3b8f7eb8	0.0043791197
54	0x3e06cec6	0.13164815
55	0xbe6409ac	-0.22269315
56	0x3c91c9cd	0.017796421
57	0xbe44835d	-0.19190736
58	0x3f2e59f1	0.6810599
59	0xbe895d39	-0.26828936
60	0xbe3aa723	-0.1822782
61	0x3d26b3ab	0.04069869
62	0xbeae285f	-0.34015176
63	0xbe363f07	-0.1779748
64	0xbe9c55ed	-0.30534306
65	0x3e1c23c2	0.15248016
66	0x3dacfb0b	0.0844632
67	0xbd3de1da	-0.046357967
68	0xbe25412e	-0.16138145
69	0x3c8f5539	0.017496692
70	0xbc7d3774	-0.015455116
71	0xbd106e2b	-0.035261314
72	0xbcaf8592	-0.021425996
73	0xbeb718a2	-0.3576098
74	0xbd54bbf4	-0.05193706
75	0xbe4ccb42	-0.19999412
76	0x3d4c7d77	0.04992434
77	0x3d0b3774	0.03398843
78	0xbf0df6d4	-0.55454755
79	0xbd0ee3a1	-0.034885053
80	0x3e351619	0.17684211
81	0xbe90c7e1	-0.28277496
82	0xbe8f875f	-0.28032967
83	0xbe968c74	-0.29404032
84	0xbe86d24d	-0.26332322
85	0xbf09d565	-0.5384124
86	0xbe3d630d	-0.18494816
87	0xbecaf161	-0.39637282
88	0xbe09be5f	-0.13451527
89	0xbc9a26a6	-0.018817257
90	0xbea4933b	-0.32143578
91	0xbe189826	-0.1490179
92	0xbdb61c4a	-0.088921145
93	0xbf00b8fe	-0.50282276
94	0xbe4f167f	-0.20223425
95	0xbefb2f20	-0.4905939
96	0xbd66beb0	-0.056334198
97	0xbe6c0b57	-0.23051201
98	0xbe8ebc30	-0.2787795
99	0xbe27a2d3	-0.16370706
100	0x3d86c089	0.06579692
101	0xbde631dd	-0.112399794
102	0x3da50301	0.080572136
103	0xbe7f02a3	-0.2490335
104	0xbe28079a	-0.1640915
105	0xbead5644	-0.33854878
106	0xbe2f2c9e	-0.17106864
107	0xbedc85eb	-0.4307092
108	0xbeab979c	-0.33514106
109	0xbedfb95b	-0.43696102
110	0xbc6bd945	-0.014395063
111	0xbf32781d	-0.6971453
112	0xbd8ddde2	-0.069270864
113	0xbe406687	-0.18789111
114	0xbd261fa4	-0.04055752
115	0xbe811412	-0.25210625
116	0xbdcc7168	-0.09982568
117	0xbee9d517	-0.45670387
118	0xbeaf549a	-0.34244233
119	0xbead3e14	-0.33836424
120	0xbecbd2af	-0.39809176
121	0xbe6e536b	-0.23274009
122	0x3d4da321	0.0502044
123	0xbf080826	-0.53137434
124	0xbd956af7	-0.072957925
125	0xbeeedb09	-0.46651486
126	0xbd58dcea	-0.052945055
127	0xbe28ea53	-0.16495638
128	0x3e815c88	0.25265908
129	0xbef34929	-0.47516754
130	0x3ef1d914	0.4723593
131	0xbe50a593	-0.20375662
132	0x3e860485	0.26175323
133	0xbe2555f0	-0.16146064
134	0xbda01d98	-0.078181446
135	0x3eb17d04	0.34665692
136	0xbbfbd3f0	-0.007685177
137	0x3e9b091f	0.30280396
138	0x3d3f5fce	0.046722226
139	0xbd9bbe96	-0.07604711
140	0x3dd05f37	0.10174411
141	0x3e9e8392	0.30959755
142	0xbdd7188a	-0.10502727
143	0xbd04bce2	-0.032406695
144	0xbed5f9bc	-0.41792095
145	0x3da740b7	0.0816664
146	0xbe9541c0	-0.29151726
147	0x3e9616bf	0.2931423
148	0x3c7f022a	0.015564481
149	0xbb9d2352	-0.0047954703
150	0x3f1736cb	0.5906798
151	0xbb66976b	-0.0035185467
152	0x3b1aa2f7	0.002359567
153	0x3e512da1	0.20427562
154	0x3e99f383	0.30068597
155	0x3e0f88d3	0.14017038
156	0xbea2b23d	-0.3177661
157	0x3e29880f	0.16555808
158	0x3de57227	0.112034135
159	0xbbc1c70d	-0.0059136213
160	0xbd474f45	-0.04865958
161	0x3e6686d6	0.22512373
162	0x3de298d3	0.11064305
163	0x3e7646e2	0.24050477
164	0xbe86eb33	-0.26351318
165	0x3e0ac86f	0.13553022
166	0x3ca64014	0.020294227
167	0xbdb460b9	-0.08807511
168	0x3e5a65ee	0.21327946
169	0x3ea80c55	0.3282191
170	0x3ed80bf5	0.42196622
171	0x3df1f50c	0.11814317
172	0x3d735182	0.059403904
173	0xbe1e88e0	-0.15481901
174	0xbe9c6db8	-0.3055246
175	0xbd4129e1	-0.04715908
176	0x3f1eb540	0.61995316
177	0xbe231e73	-0.15929584
178	0x3ea107d5	0.31451288
179	0x3dd9e662	0.10639645
180	0xbe896252	-0.26832825
181	0xbde855dc	-0.113445014
182	0x3e5030c2	0.203311
183	0x3eb6b5f9	0.3568571
184	0x3e7c205c	0.24621719
185	0x3ea82a19	0.32844618
186	0xbe0369fb	-0.12833397
187	0x3e89ab15	0.26888338
188	0x3e2cae6c	0.16863412
189	0xbe31d5ef	-0.17366765
190	0xbf096a8d	-0.5367821
191	0xbd1a278e	-0.03763538
192	0xbdc8dd9a	-0.09807892
193	0x3efff33e	0.49990267
194	0xbe35ca69	-0.17752995
195	0x3df269f3	0.118366145
196	0xbf065f8e	-0.52489555
197	0xbe7bcd9f	-0.24590157
198	0x3d53ff1a	0.051756956
199	0xbdd8d60f	-0.105877034
200	0x3d4ce508	0.05002311
201	0xbc3c8134	-0.011505414
202	0xbd850eb1	-0.06496943
203	0xbe528690	-0.20559144
204	0xbe3f753c	-0.18697065
205	0xbe159537	-0.14607702
206	0xbd24d786	-0.0402446
207	0x3d860a7e	0.0654497
208	0xbe6d1fc9	-0.23156656
209	0xbcc9d969	-0.024639802
210	0x3ddde2b3	0.10834255
211	0x3e601daa	0.21886316
212	0xbc83b7c2	-0.016078833
213	0x3e84f1fb	0.25965866
214	0xbeeaea9c	-0.45882118
215	0x3e98b430	0.29824972
216	0xbeacd7b2	-0.33758312
217	0xbe990196	-0.29884022
218	0x3e7b9a82	0.24570659
219	0xbe163c69	-0.14671482
220	0xbd8a4aa8	-0.06752521
221	0x3cd49cd3	0.025953686
222	0xbe8989bf	-0.26862904
223	0x3e77a915	0.24185593
224	0x3c825bd1	0.015912922
225	0xbe9276e9	-0.28606346
226	0x3ed23be3	0.41061315
227	0xbe2f0274	-0.1709078
228	0xbdd38c33	-0.10329475
229	0x3e9ee599	0.31034544
230	0xbc19b7ca	-0.009382198
231	0x3dc05a9e	0.09392284
232	0xbe6da2bf	-0.23206614
233	0xbcc081ab	-0.02349933
234	0xbec50c1b	-0.38485798
235	0xbdffdfda	-0.12493868
236	0xbdbecf57	-0.09316891
237	0xbdb42468	-0.087960064
238	0x3e52aff4	0.20574933
239	0x3c11bef7	0.008895627
240	0xbd9f9016	-0.07791154
241	0x3e90317b	0.2816275
242	0xbe19efbd	-0.15032859
243	0x3e8ef04f	0.27917716
244	0x3e57b078	0.21063411
245	0xbd89bcb7	-0.067254476
246	0xbe9883a4	-0.29787934
247	0x3e80c93d	0.25153533
248	0x3d6af51b	0.057362657
249	0xbe66fb61	-0.22556831
250	0xbdaba683	-0.08381369
251	0x3d9cfd1f	0.076654665
252	0xbdbd7203	-0.09250262
253	0x3dd35437	0.10318797
254	0xbec22f67	-0.3792679
255	0x3d08f324	0.033435002

encoder.trans_layer_T.trans_layers.0.ff.0.bias f4 [64]
0	0x3f0f9b3e	0.56096256
1	0x3ebb15ae	0.36539978
2	0x3f7e6fb3	0.9938919
3	0x3f087ccc	0.53315425
4	0x3f035aae	0.5131024
5	0x3f04107c	0.51587653
6	0x3e25ddd7	0.16197906
7	0x3f60b379	0.87773854
8	0x3d849c1d	0.06475089
9	0x3ed3e6c5	0.41387
10	0x3e82c6b2	0.25542217
11	0x3f619830	0.88122845
12	0x3f083342	0.53203213
13	0x3ee2e25d	0.44313326
14	0x3ebe5791	0.37176183
15	0x3e273b05	0.16331108
16	0xbce222e8	-0.027604535
17	0x3ec79de4	0.38987648
18	0xbe532d49	-0.20622744
19	0xbe570d16	-0.21001086
20	0x3e29cc73	0.16581897
21	0x3f30d2be	0.6907157
22	0x3ebfef75	0.3748738
23	0xbd97e1e6	-0.074161336
24	0x3ecbee22	0.39830118
25	0x3e932413	0.2873846
26	0xbdebdd29	-0.11516792
27	0x3eb470f0	0.35242414
28	0xbd726f48	-0.059188157
29	0x3da0051c	0.078134745
30	0x3e8946ae	0.26811737
31	0x3e6cfff0	0.23144507
32	0x3e9d0277	0.30665943
33	0x3f389538	0.7210269
34	0x3f3c7c4a	0.7362715
35	0x3e655ebb	0.22399418
36	0x3ed963f0	0.4245906
37	0x3f1e0d64	0.6173918
38	0x3e23011d	0.15918393
39	0x3f173bf6	0.5907587
40	0x3f04bb6f	0.518485
41	0xbda38629	-0.079845734
42	0x3dfe64fa	0.124216035
43	0x3eec3c40	0.46139717
44	0x3f2b2ab2	0.6686202
45	0x3c32c02f	0.010910078
46	0x3dbbd1ad	0.09170852
47	0x3ecae2c2	0.39626127
48	0x3e7c673d	0.24648757
49	0x3f2a1b34	0.6644776
50	0x3f28adef	0.658904
51	0x3e71e8e3	0.23623995
52	0x3ee46a90	0.4461255
53	0x3f6fa80d	0.936158
54	0x3f854021	1.0410196
55	0x3f081ec0	0.5317192
56	0x3ed28612	0.41117913
57	0xbe5e4743	-0.21706872
58	0x3ef23c85	0.47311798
59	0x3d7493e8	0.059711367
60	0x3c384621	0.011247189
61	0x3f261f83	0.64891833
62	0x3e228822	0.15872243
63	0x3f16d9de	0.5892619
