AGCRN-master/model/model_para/PEMSD8/epoch_83.pth (torch, 851905 bytes, 64 tensors)

node_embeddings f4 [170, 2]
00000000: f8a0 3ebe 236f 3cbe 016c a0bd a0e3 f63d
00000010: 29e5 94bd b46b a6bd 8471 07be e7c0 fdbc
00000020: aa97 adbd bfc4 033e 08cb e8bd f438 ea3c
00000030: a9ed ad3b 4163 bcbd 9855 15bd b67b a43d
00000040: 5e78 7fbd 605b e03c 117d ccbc 38b3 20be
00000050: 8ad7 c3bb 3320 a93d c1da 123e 85c3 203e
00000060: fda0 8b3d 5c2a 383e 40cf 393e f2c8 dabd
00000070: ad6a bfbc c0c2 013d 4e61 11be 9a93 1d3e
00000080: 0bdd 2f3e af40 dbbd de72 e6bd 47be cbbb
00000090: 7701 3e3e d324 20be 9970 e43d e8c7 2cbe
000000a0: 5211 e83c d911 bc3d 6052 4ebc 56c4 57bd
000000b0: 567b a4bb 7afa 153e 9bfa 1b3e e9df 0cbe
000000c0: 12ae 233e 2963 d23c 2889 fc3c 25ba 873d
000000d0: 340b dc3d 46c7 b63d 5a41 1c3e a84b dfbd
000000e0: 715e f7bc c5c0 22be f89b 3dbe ec24 ecbd
000000f0: f774 883c f6ec 373e 1030 0b3e ecd8 f6bd
00000100: 6d1d ac3d 937c 223e d64a 92bc a2e8 aebd
00000110: 9b8e 233e 96f8 a93d b518 1cbe 8fd1 2abe
00000120: 50d6 adbd 0f6c 1d3e 3faf 08be 22d6 f9bd
00000130: 45fe 083e 5a0b abbc cb47 07bc 02c2 1f3e
00000140: 537b 3bbe c0a5 6d3c 8325 08be a7fa 3b3d
00000150: b229 093e eeae 013e 08e3 dfbd d27f 0d3e
00000160: f1de 273d 73ad ca3d 13d3 023e 196c ff3d
00000170: 6c98 a53d 764d d43d 7e22 5a3d c50c 83bd
00000180: eb2e 0ebe d6b9 a3bd c653 cabd 527e cbbd
00000190: 73c2 2a3e b27b 073e 89ae debd 68f8 9cbc
000001a0: 5034 51bc 283d 863d c71a 483d f201 e5bd
000001b0: 58f7 16bc 764b 383e 7f99 babd ccb8 5a3d
000001c0: 9eb1 503d 21f3 a3bd e00b c93d bc4b 1d3e
000001d0: f2a2 7abd e204 c13d 63a1 d53d 93f1 313e
000001e0: d9dd 74bd 8aa7 a7bc aa1a 2a3e e759 23be
000001f0: 52e7 25be 7522 22be a2c9 29be 4270 6ebc
00000200: f865 dd3d 51f5 a73d d98f ea3c 9114 b63d
00000210: 587b 1d3e 8f48 a3bd 9068 413c 3cdb 26be
00000220: c550 25bc 2e61 bc3d 19a5 d33d 3cbc 2dbe
00000230: 4d82 a6bd b3b4 98bd 6649 343d 432a 8fbd
00000240: 219f 003b 114c bb3b ef63 f43d 9c90 09be
00000250: 0b4c af3b ece7 0f3e 4aa3 a33c c13c 07bd
00000260: 57ab a9bd 006b febd 5167 a6bc 3972 1abe
00000270: 5410 bc3d 174f b9bc a020 a83d 6732 823d
00000280: 838a 26be a600 14be 57ef ed3d a286 693d
00000290: 7582 23be 7513 3fbe 9337 173e 783c e3bd
000002a0: 09bd bdbd 9566 803c ee35 403d 8476 9abc
000002b0: 1c8a b33d 2a4a 90bd e47c ea3d 43dc 6abd
000002c0: 888c e6bc 6b09 97bd af67 27be 85fc 5b3d
000002d0: 21fe 1fbb 1d43 84bd cbcc e03c 173a 573d
000002e0: e3b2 293e c2bc ff39 9c3e bd3d 5315 bcbd
000002f0: dcfb 863d 4fc4 0d3e 7a85 073d ca0e 32be
00000300: 74dd 34be 05f4 1cbe 6257 083e afe8 29be
00000310: d4d8 afbd d991 11be 7356 073e bac9 1cbe
00000320: 32eb dfbc 9ad4 c5bd 5375 27be 159c 263e
00000330: 6b33 223e 5c3d 99bd dcff 3c3e 7d7f 0abe
00000340: 50cd 28be 2bac 9e3c 6e91 3a3e 9c2e 223d
00000350: 529c 8dbb a384 af3d 2bba 7b3d dfcf 9ebd
00000360: c386 043e de22 e23b 1586 99bd 09c1 fdbd
00000370: 6c9e 10be be64 0dbe 583b 3c3d 727c 2e3d
00000380: 1583 31bb 5061 8b3d 1434 d33d bfe5 e0bd
00000390: 5b0f 303e 8faa 37be 76ea b5bd 6c67 043e
000003a0: c29a 1a3e e3c1 1d3e 76ef 4c39 5b60 073e
000003b0: 4410 bcbd 0f8d 943d df50 0b3e faf0 303e
000003c0: fb2a a43c 95bd 1e3d 6162 b23d 48a7 5fba
000003d0: 58ca 94bd df7a b4b9 bd2e 10be cceb a6bd
000003e0: 41c8 9bbd cc80 9d3d 45cc 44bd c389 213d
000003f0: c7fb cc3d c0f4 f7bd bb73 edbd 8ec9 b3bc
-0.18616092 -0.1840177 -0.078331 0.12055135 -0.07270271 -0.081260115 -0.13226897 -0.030975772
-0.08476193 0.12868021 -0.1136685 0.02859161 0.0053078723 -0.09198619 -0.03645858 0.080314085
-0.06237065 0.027387321 -0.02496198 -0.15693367 -0.005976622 0.08258095 0.1434126 0.15699585
0.068178155 0.17984909 0.18145466 -0.106828585 -0.023366297 0.03167987 -0.14197275 0.15388337
0.17174165 -0.10705697 -0.11252378 -0.006217751 0.18555246 -0.15639047 0.11154289 -0.16873133
0.028328571 0.09183092 -0.012592882 -0.052677475 -0.0050195856 0.1464633 0.15232317 -0.1375729
0.15984371 0.025682049 0.03082712 0.06627301 0.10744324 0.08924727 0.15259305 -0.10903102
-0.0301964 -0.15893848 -0.18516529 -0.1153048 0.016657336 0.17961487 0.13592553 -0.12053093
0.0840405 0.15867834 -0.01785795 -0.08540465 0.15972368 0.08299367 -0.152438 -0.16681503
-0.084881425 0.15373252 -0.13348101 -0.12199046 0.13378246 -0.020879436 -0.008256863 0.15601352
-0.18308763 0.01450485 -0.1329556 0.045893338 0.13394812 0.12664387 -0.10931975 0.13818291
0.040984098 0.09896364 0.12775831 0.1247179 0.08085713 0.10366337 0.05325555 -0.0639892
-0.13885085 -0.0799443 -0.0987926 -0.09936203 0.16675739 0.1323078 -0.10873134 -0.019161418
-0.01276882 0.065546334 0.048853662 -0.11182012 -0.009214245 0.17997536 -0.09111308 0.053398892
0.05095064 -0.080053575 0.09816718 0.15360922 -0.061190553 0.094247594 0.10431173 0.1737731
-0.059781883 -0.020465631 0.16611734 -0.15952264 -0.16201523 -0.15833457 -0.16580823 -0.014553132
0.108104646 0.08201087 0.028633045 0.088906415 0.15379083 -0.07972824 0.011804715 -0.16294569
-0.010090058 0.09198223 0.10334224 -0.16966337 -0.08130322 -0.07456341 0.04401531 -0.06990483
0.0019626098 0.005715855 0.11933123 -0.1343407 0.005349641 0.14053315 0.019975323 -0.033016924
-0.082846336 -0.124227524 -0.020312937 -0.15082635 0.09182802 -0.02262072 0.08209348 0.0635727
-0.16263776 -0.14453372 0.11617916 0.05701316 -0.15967734 -0.18659766 0.14767294 -0.11095518
-0.09264571 0.015673915 0.04692643 -0.01885534 0.08766577 -0.07045396 0.11449602 -0.057338964
-0.028143182 -0.07374843 -0.16348146 0.05370762 -0.0024412947 -0.06458113 0.027441403 0.052545633
0.16572146 0.00048778026 0.092404574 -0.09183755 0.06591007 0.13844417 0.033086278 -0.17388454
-0.17662603 -0.15327461 0.13314584 -0.16592668 -0.085862786 -0.14215793 0.13216572 -0.15311328
-0.02733383 -0.09659691 -0.1635335 0.16270478 0.15839927 -0.074824065 0.18456978 -0.13525195
-0.1648457 0.019369205 0.1821954 0.03959523 -0.0043216133 0.0857022 0.06145684 -0.07754492
0.12942033 0.006901129 -0.07496277 -0.12390334 -0.14122933 -0.13807961 0.045955032 0.04259915
-0.0027086188 0.0680567 0.103126675 -0.109813206 0.17193358 -0.17936157 -0.088826105 0.12930077
0.15098098 0.15405993 0.00019544162 0.1322035 -0.0918279 0.07253467 0.13605069 0.17279425
0.020040026 0.03875502 0.087101705 -0.0008531702 -0.072651565 -0.00034423821 -0.14080329 -0.081504434
-0.07606555 0.07690582 -0.04804637 0.03943802 0.1000896 -0.12107229 -0.115943395 -0.021946695

encoder.trans_layer.trans_layers.0.qff.weight f4 [64, 64]
00000000: d726 0d3e ee72 433e 3e49 a1bd ff17 5c3e
00000010: a167 c2bd 585b 20be b581 1b3e 2eac 183e
00000020: 8260 fb3d eafc 56be 2471 21bd 350c 1e3e
00000030: 431a 863d b1f9 883d 484b 6f3c 88a7 e83d
00000040: 9609 f2bd b3bc 4fbd 6213 36be ccad 2cbe
00000050: fa6d 173d 2297 173e 1bd0 24bc b2e0 5cbe
00000060: 91fd 1c3e 77fe d2bc 35bb f6bd 1cf4 913d
00000070: ee85 cdbd d0ab c53c 41e2 163e a8be 103e
00000080: 4899 103e 11b5 473e 0dfa 48be b050 30be
00000090: 9fb8 3b3e 0457 c0bd d446 1c3d 579b 093e
000000a0: 7681 063e 6297 393e 9ee6 45be 2372 933d
000000b0: ba64 86bc 10c9 3f3e b034 493e 747a 233e
000000c0: 16ff e1bd 1531 5d3e d618 883d f463 3abe
000000d0: 089a 073e 0d1f 2fbe 9158 45bd 3f46 30be
000000e0: 344f 3fbe 00d4 fcbd 1b23 27be 77e4 363e
000000f0: f93d 3e3e 97ed 043e 08dd 19be 94f1 debd
00000100: 4e46 9abd ae41 473d 53c0 f63c b172 3fbd
00000110: ac07 4f3c 47c9 e83d 7fe4 5b3e f71d e83d
00000120: 14bf 063e a8d1 3ebe 4445 363e 1bb3 2e3e
00000130: 7b04 453d ff96 32be 0f68 f13d 0feb 7bbd
00000140: 67f6 8a3d 6772 12bd e5f4 1e3e 5e7c 473e
00000150: 8c87 e3bd 1ea6 bcbd 880e 233e 0b2e e3bc
00000160: 0e33 353e 9bbf 013e fa68 0bbe d61a bcbd
00000170: 6d9a 743d 3241 d2bd bfad b33c e92a b33d
00000180: 2b9a d6bd 58a1 01be d34a d13d dbac 203e
00000190: 85fe d03d 2db3 12bd 40e2 87bd 31f1 1fbe
000001a0: 06cb f9bd 3576 c43d 9675 6bbc e194 0f3e
000001b0: 5ea0 543e fce1 e53d 45ba 103d 4419 d9bd
000001c0: b8f9 603d a85e dabd b5c4 323d 93e8 04be
000001d0: fb34 253e 50ea 34be 2bea 02bd ad22 1d3e
000001e0: bfe4 2fbd 4262 483c 8a25 93bd 4dd1 e33d
000001f0: 4e8a 1dbe 54df 50be 3a57 453e 0280 01bd
00000200: 77fb db3d 3e81 383c fe3b 1d3c 7bba 98bd
00000210: 67c7 46be 8677 2b3e 434f 1d3c a36a 0bb9
00000220: b2d9 04be b6dc 20bd 4758 3f3e 0111 033e
00000230: 28e6 15be ed5e 273e 1316 313e c7b1 ca3d
00000240: c89e cdbd b769 4f3e 2ebd 493e a894 9cbd
00000250: 2039 46be bc2c 8c3d 818f b0bd 07c8 87bd
00000260: 657e 9d3d 16cc 56be f2be dbbd c6f5 a7bd
00000270: 55f3 b43d 1339 43be 7d71 123e b732 00be
00000280: 20a4 56be 6d94 ee3d b379 033e 2207 073d
00000290: b179 143d 0c00 01be ed14 db3d 6e00 14be
000002a0: 7e50 95bc 5a8f 24be 98ec 24be 722f c83d
000002b0: d1b2 133e df13 163e e708 843d f607 0f3d
000002c0: cf57 57bd 1075 e93d e9c2 fb3c 1cca 913d
000002d0: 293a 58be 7db1 70bb 8d04 1f3e fb07 c43d
000002e0: 7b2b 4c3e 30b0 10be 2228 c3bd 653b 0f3e
000002f0: 7257 293d 14ea 983a bf54 c7bd 5d43 f43a
00000300: f1e5 4dbe 8bc4 593e 99af bebd 6cf8 323e
00000310: ded7 eabd 1bfb 51be 072b c8bd fea1 043e
00000320: 9644 2f3d 1ca8 2abe 6bd8 ac3d 1ded 4cbe
00000330: ed14 173e 3c63 aa3d 1d75 e33d 0cc1 463c
00000340: 03b1 4b3c 0059 453d 7047 593e a3ec 6bbd
00000350: 7820 193e d642 6fbc 8053 2abe ab88 2dbd
00000360: b9d7 113e 7bfb 40be dec5 10bd e790 0d3e
00000370: a662 35be 3410 9f3d bd5e 55be 63ee 493e
00000380: a6db 193d 4337 133e 7c28 bfbd 28a3 e23b
00000390: 919f 7e3d dbdc 16be ba23 6cbd ea90 853d
000003a0: 3473 49be b008 1dbe 4357 ccbc b234 41be
000003b0: fd88 9dbd d565 5b3e 1af1 863d abb7 443e
000003c0: 4a41 503e 1291 37be c987 d9bd 2dd4 0c3e
000003d0: b6a6 4e3e 4e62 393e 3ab1 ae3d 3cc7 05be
000003e0: 1845 30be 9a48 0ebe f24e 2cbe 0eef 1c3e
000003f0: 813e 5bbe a44d 07be a59b 0f3b d194 23be
0.13784347 0.19086811 -0.07875298 0.21493529 -0.09492422 -0.15659845 0.15186198 0.14909431
0.12274267 -0.20994917 -0.03941454 0.15434344 0.06547978 0.0668825 0.014605351 0.11360079
-0.118182346 -0.050717067 -0.17780831 -0.16863173 0.036970116 0.14803746 -0.010059382 -0.2157009
0.15331103 -0.025756104 -0.12047426 0.07126638 -0.10035311 0.024129778 0.14734747 0.1413523
0.14120972 0.19502665 -0.19626637 -0.1721828 0.18332146 -0.09391597 0.038153484 0.13438164
0.13135323 0.18124154 -0.19326255 0.07199504 -0.016405452 0.18729043 0.19649005 0.15964681
-0.11034982 0.21600755 0.06645362 -0.18202192 0.13242352 -0.17101689 -0.048180167 -0.17214297
-0.18682557 -0.12345123 -0.16321985 0.1786059 0.18578328 0.12981258 -0.15025723 -0.10885921
-0.07532941 0.04864662 0.030121004 -0.046740238 0.012636106 0.113665156 0.21473883 0.1133384
0.13158828 -0.18634665 0.1779986 0.17060511 0.048099976 -0.17440413 0.11787426 -0.061503466
0.06785279 -0.035753634 0.15523107 0.19481036 -0.11109838 -0.09211372 0.15923512 -0.027731916
0.17695257 0.12670748 -0.13614264 -0.09184806 0.059717584 -0.10266341 0.021933435 0.08748419
-0.10478624 -0.12659204 0.1021935 0.15690939 0.10204796 -0.035815407 -0.06634951 -0.15619351
-0.12196927 0.09592859 -0.014371296 0.14021637 0.207643 0.11224744 0.03533389 -0.10600522
0.05492565 -0.106625855 0.043644626 -0.12979345 0.16133492 -0.17667508 -0.0319616 0.15345259
-0.04294276 0.012230458 -0.071848944 0.11123905 -0.1538479 -0.20397693 0.19271556 -0.03161622
0.107413225 0.0112612825 0.009596823 -0.07457443 -0.19412003 0.16744813 0.009601417 -0.00013295798
-0.12973669 -0.039272986 0.18686019 0.12799455 -0.14638579 0.16344805 0.17293577 0.098971896
-0.10040051 0.20255171 0.19701073 -0.076455414 -0.19357729 0.0684447 -0.08621121 -0.06629949
0.076901235 -0.2097629 -0.10729779 -0.082011744 0.088354744 -0.19064741 0.14301105 -0.12519346
-0.20961046 0.11649404 0.12839393 0.032965787 0.036248866 -0.12597674 0.10697351 -0.14453289
-0.018226858 -0.1607031 -0.16105878 0.097746745 0.14423682 0.14656018 0.064470105 0.0349197
-0.052573975 0.11399281 0.030732589 0.071186274 -0.21115936 -0.0036726885 0.1552908 0.09571835
0.19938461 -0.1412971 -0.09529139 0.13987501 0.04134316 0.001166644 -0.09732961 0.0018635798
-0.20107247 0.21266381 -0.09310836 0.17477578 -0.11466955 -0.20505945 -0.09773832 0.1295242
0.042790018 -0.16665691 0.08439716 -0.20012327 0.14754076 0.08319709 0.11106322 0.012130987
0.01243234 0.04818058 0.21218657 -0.05759872 0.14953792 -0.014603337 -0.16633415 -0.042366665
0.14242448 -0.18845932 -0.03534495 0.13824807 -0.17713413 0.077667624 -0.20836921 0.19719844
0.03756299 0.1437655 -0.09333894 0.0069164224 0.062163893 -0.14732687 -0.05765126 0.06521781
-0.19672853 -0.15335345 -0.024943953 -0.18867758 -0.07692144 0.21425565 0.06588955 0.19210689
0.20337406 -0.17926434 -0.10621602 0.13752814 0.20180783 0.18103907 0.08529897 -0.13064283
-0.17213857 -0.13894883 -0.1682699 0.15325567 -0.21410562 -0.13213211 0.002191284 -0.15974738

encoder.trans_layer.trans_layers.0.qff.bias f4 [64]
00000000: b665 2f3f f114 633e 8639 713f 3b28 233f
00000010: 9d01 7c3f b08c 0d3f f739 273f f5d8 a83e
00000020: 68a4 263f 281b 4b3e c548 263f aa83 2b3f
00000030: b7cd 053e ac95 ac3e ed63 783f 4d51 733e
00000040: e3cd e03e e61f fc3e 7e78 323f 2941 c23c
00000050: a497 473f 0a98 013e 32f7 e13e 21f5 633e
00000060: eba0 4b3f 5a7d 6b3e 6f0e 823e 4550 663f
00000070: c200 4c3f cd1a 333e 7c8b 2f3f 6a80 7e3f
00000080: 0eb6 ca3d 0176 103f 2b7b 473f a483 cf3e
00000090: c53b 783e 1d91 8d3d bd4b 323e 4ddb 013d
000000a0: e8a3 413f 94d2 6e3f 1697 003d fb4a 543f
000000b0: c4e8 253f f031 2a3f ff57 b43d bacd 333f
000000c0: d21a 6e3f 4ca3 6c3f 00ec 573f 71f2 303f
000000d0: 4fc0 153f 9cd9 e93e 803f d23e 73b9 3c3c
000000e0: e4e9 c83e 10fa 6c3f cf16 3e3f 0840 2c3f
000000f0: c313 7c3f 9cde cc3e 26f3 1a3f 9728 cf3e
0.68514574 0.22175957 0.942284 0.6373326 0.9843996 0.552928 0.6532282 0.32978025
0.65094614 0.19834578 0.6495479 0.6699778 0.13066755 0.3370794 0.97027475 0.23761483
0.4390708 0.49243087 0.69715106 0.023712711 0.7796576 0.12655655 0.44133908 0.22261478
0.79542416 0.22997037 0.25401637 0.8996623 0.79688656 0.17490692 0.6857221 0.99414694
0.098980054 0.5643006 0.77922314 0.4053012 0.2424155 0.06912444 0.17411704 0.031703282
0.75640726 0.93290067 0.031394087 0.8292691 0.648083 0.6648245 0.088058464 0.7023579
0.93009675 0.9243667 0.8434448 0.69119936 0.58496565 0.45673835 0.41064072 0.011518824
0.39240944 0.92569065 0.74253553 0.67285204 0.98467654 0.40013587 0.60527265 0.40460655

encoder.trans_layer.trans_layers.0.kff.weight f4 [64, 64]
00000000: ec9c 133e 6ff4 4cbd 99ea abbd cc62 01be
00000010: c249 633c 7e15 02bb 904f 2d3d bc38 473e
00000020: e698 cfbd fcd9 063e a80c 3a3e bf15 0cbd
00000030: 6c64 a0bd c34a 4f3e ea2a 10be 8402 02be
00000040: 42fa d0bd 24a6 5dbe eac1 06be 7905 30be
00000050: e85a 573e c59b e4bd db81 c13d 3701 2d3d
00000060: 0591 c53c d74e b1bd a310 b4bd 49b1 83bc
00000070: 0ea2 e43c 157d b2bd 9c05 393e 7381 b43d
00000080: 5cea 4bbe 808f 27be 2682 4d3e bcb9 05be
00000090: 5a39 a3bd 095c b93d 633b 7d3d a4ab 533b
000000a0: ae4d 023e 56aa fe3c ebf5 a1bd c291 07be
000000b0: 27d4 123e c257 0abe 4057 a4bd 7f27 adbd
000000c0: 46e3 4fbe 5246 07be 2c0a 75bc 68a6 463e
000000d0: 6a17 42be b357 8c3d 9800 93bd 875b 1e3e
000000e0: c8b8 2b3e 4b5e 56be 4554 3ebe 91f5 2a3c
000000f0: 4dc9 ea3d 10cb 953d 3546 053d 1c99 5c3d
00000100: b4d1 fbbd 7552 bc3d 9e29 1d3d 9bb2 873c
00000110: 75be 13be 443e 1abc fefc b6bc ce0e 02be
00000120: 14d4 183d 221a 58be c454 85bb fb4c 163e
00000130: 4420 f73d 9cba b43d d391 803d 38e1 cabd
00000140: fa0c 52bd 2c5e fabd dea9 e2bc cc84 3a3e
00000150: 428e 4bbe bd8f d7bd 1a7a 013e da4f 223e
00000160: 3884 36be c0bc 09bd 5173 9b3d 99ea 19be
00000170: 4af6 b53d c851 f8bc a21b cdbd 3dab 4cbd
00000180: 1bac e6bd cee1 823d be93 003e cf33 3f3d
00000190: 5fa1 88bd b973 15be ccdd 90bd 544f 303e
000001a0: 7430 f0bb 3f58 cabd 7c35 dabd 45a0 07bd
000001b0: 5979 2a3e 5ee6 05bb b89b 1d3e e6b6 a9bd
000001c0: f845 b1bd 927b 4b3e 62c4 3fba 7697 ab3c
000001d0: e52d 08bd 716c 203c 5d83 433e 7c67 373d
000001e0: 7420 12bc e3c8 5e3d c96f 333e be3c 51be
000001f0: d8e8 e9bd 94bd 28bd 57a2 21bd 061f a23d
00000200: 9482 863d 38fc 56be a478 7f3d 16df f5bd
00000210: 6759 85bd 448f 02be 39c4 463e 39bd f5bd
00000220: 0386 9abd ba5e 243e eb41 413e b245 1dbe
00000230: dbd9 0e3e d4dc a73d 49e7 1fbe f7aa c6bc
00000240: e1b6 543e 88fb d33d ac25 f9bd 3614 f03d
00000250: e89c b5bd 7edf 0f3d 0bc1 a13d 45b8 503e
00000260: e88e 96bd a5f7 45be 9759 293e 358e 93bd
00000270: f8e2 2ebd aff7 7e3c 834c 27be 1935 cebd
00000280: 633a 41be 1e1a 0f3e 1f27 52bc c0c3 11be
00000290: 2e0d 13be f5b4 4a3e 9924 833d 42a2 9e3d
000002a0: 5488 bf3d 3d57 4e3e b6ca ed3d 4e40 67bc
000002b0: 6f27 5dbe 3268 c1bd 1333 083e 00d4 ee3d
000002c0: c92b 1f3e ad58 a8bd 4f98 3e3e ff1a d23c
000002d0: 2146 373e d586 4dbd e93f 2dbe 174c 28be
000002e0: dc35 94bd fe78 fabd 6c36 163e c0a4 dfbc
000002f0: 7b28 65bd 0ed3 4abd e15e 16be 8ff0 10be
00000300: 5fda 4bbe 666c 98bb 3195 283e c90a 52be
00000310: e673 52be 9486 243d ca24 32bd 7f7f c1bd
00000320: 81bd 50be 1126 483c ab7e 003e ca98 07bc
00000330: 774f c63d 228d 05be 8253 47be 63e7 133e
00000340: 5523 5c3d 728c 41be e5c2 4f3e 90d9 d1bd
00000350: c59a f8bd 936b a33c a500 063e d3ec 953d
00000360: 427d 033e 4622 323e 49c5 113e d0ff a8bd
00000370: 13b4 49bd af11 933d 2ec4 01be 611d 44be
00000380: b5df 13be 29a4 4e3d d74d 4a3e 9c8b fc3d
00000390: f7e8 5abe 18ae 37bd 4ff7 023b c2fb 553d
000003a0: b05c d9bd 3fa0 293e 629d 05be 9a92 16bd
000003b0: 68a6 cebc 5494 1d3b 2f84 163e c3d9 14be
000003c0: 28d4 113e f695 14be 229a 2a3e d3b7 1ebe
000003d0: a636 68bd 3a39 00be d97b 20be a622 373e
000003e0: 4931 4ebe 8a39 3a3e c271 19be 5521 253e
000003f0: 739b 1b3e 266e abbd 4c8c fe3c 7865 55be
0.1441533 -0.050037798 -0.08394355 -0.12635344 0.013872566 -0.0019849236 0.042312205 0.19455236
-0.10136585 0.13169092 0.1816889 -0.034200426 -0.07831654 0.20243363 -0.1407887 -0.12696272
-0.10203983 -0.21645409 -0.1315991 -0.17189588 0.21030772 -0.11162523 0.09448596 0.042237487
0.024117002 -0.08657616 -0.08792236 -0.016075747 0.027909305 -0.08715264 0.18068546 0.08813753
-0.1991362 -0.16363335 0.20069179 -0.13059133 -0.07969923 0.090507574 0.061824214 0.003229835
0.12724945 0.031087082 -0.07908233 -0.13239196 0.14338742 -0.1351004 -0.08024454 -0.08454799
-0.20301542 -0.13210419 -0.014956038 0.19399416 -0.18954244 0.06852665 -0.071778476 0.15464602
0.16769707 -0.20934407 -0.18586834 0.010434524 0.11464176 0.07314122 0.032537658 0.053856954
-0.12295857 0.09195415 0.038369767 0.016564658 -0.14428122 -0.009414259 -0.022337433 -0.1270096
0.03731163 -0.21103719 -0.0040689427 0.14677803 0.12066701 0.088246554 0.06277814 -0.09906238
-0.051281907 -0.12224993 -0.02766889 0.1821472 -0.19878486 -0.10525463 0.12644234 0.15850773
-0.17823875 -0.03362727 0.07590354 -0.15030898 0.088848665 -0.030312434 -0.10015036 -0.049967993
-0.11263295 0.06390725 0.12556359 0.046680268 -0.06671404 -0.14594926 -0.070735544 0.17217761
-0.007329995 -0.09880113 -0.106547326 -0.03311183 0.16647853 -0.00204315 0.15391433 -0.08286838
-0.086559236 0.19871357 -0.0007315335 0.020946246 -0.033246893 0.009791479 0.1909308 0.044776425
-0.00891887 0.0543908 0.17523111 -0.20433328 -0.114213645 -0.04119642 -0.03946146 0.079160735
0.065678746 -0.20994651 0.06237091 -0.12005441 -0.06511193 -0.12749964 0.1941079 -0.11998982
-0.07545092 0.1605176 0.18872802 -0.15358618 0.13950293 0.081964165 -0.15615572 -0.024251444
0.20772888 0.1035071 -0.121653885 0.11722605 -0.08867818 0.035125248 0.07898148 0.20382793
-0.07351476 -0.1933275 0.16538082 -0.07204858 -0.042696923 0.015561982 -0.1633778 -0.10068721
-0.18869929 0.13974807 -0.01282671 -0.14234829 -0.14360496 0.19795592 0.06403465 0.07745792
0.093521744 0.20150466 0.1161093 -0.0141144525 -0.21597074 -0.09443702 0.13300733 0.116615295
0.15544046 -0.082200386 0.18612789 0.025647638 0.17897846 -0.050177414 -0.16918911 -0.16435276
-0.07236835 -0.12230109 0.14669198 -0.027300239 -0.05594681 -0.049517684 -0.14684631 -0.14154266
-0.1990752 -0.004651594 0.16463162 -0.20511927 -0.20552024 0.040167406 -0.043492116 -0.09448146
-0.2038479 0.012216107 0.1254832 -0.008276174 0.096831255 -0.13042119 -0.1946545 0.14443736
0.053744633 -0.18901232 0.2028919 -0.10246575 -0.12138895 0.019948756 0.13086183 0.07320561
0.12840751 0.17395887 0.14235415 -0.08251917 -0.049243998 0.07181107 -0.12672493 -0.19151832
-0.14440806 0.050449524 0.19756256 0.12331316 -0.21377932 -0.044843763 0.0019983833 0.052242048
-0.10613382 0.16565035 -0.13048318 -0.036760904 -0.025225833 0.002404471 0.14698862 -0.14536195
0.14241087 -0.1451033 0.1666036 -0.15499811 -0.05669274 -0.1252183 -0.15672244 0.17884311
-0.20135988 0.18186012 -0.14984801 0.16125996 0.15196018 -0.083706185 0.031072758 -0.20839489

encoder.trans_layer.trans_layers.0.kff.bias f4 [64]
00000000: 5527 583e 4bab 8d3e dceb 913e 3add 4c3b
00000010: 1608 413f 48cd 0b3f 9ea6 0d3f 0de9 c13e
00000020: 1f04 613f d823 943e 25fe 263f 59a5 1b3f
00000030: 0207 0c3e b190 a03e 3e08 173f c899 713f
00000040: 58f1 623f 1b99 be3e 15b6 5d3e 78e5 333f
00000050: 478a b73e 8c6c f73e 38e6 453f 2380 cf3e
00000060: bb0a 023d 4e31 fc3e 382f 3b3f 3f8b 593f
00000070: 891b 853e 153d cc3e 6251 623f 3ba8 7c3d
00000080: 6715 273d f88e ef3e 8f2a 5b3e b347 723f
00000090: 04c1 263f 706e 663e 0e49 9d3e 26c5 de3e
000000a0: baa0 583d 5508 213e 3a8a 263e 65b6 903e
000000b0: 6d42 5b3f 2546 1c3f 1630 db3e 4c5e 643f
000000c0: fbac 573f 74e5 393f e357 dd3e 0fc0 103f
000000d0: c7b2 f93d e965 673f cedf d03e ef46 ad3e
000000e0: bf9d 423f 7f0e 353f 0c71 ae3e 017f 323f
000000f0: ca4b 633f c092 453e 8442 283e b5a6 4c3f
0.21108754 0.2766975 0.2850026 0.003125979 0.75402963 0.5461011 0.5533236 0.37873116
0.87896913 0.28933597 0.65231544 0.60799176 0.13674548 0.3136039 0.5899695 0.94375277
0.8864951 0.37226185 0.2165149 0.70272017 0.35847685 0.48325002 0.7730441 0.40527448
0.031748515 0.49256366 0.73118925 0.849781 0.2599757 0.39890352 0.8840543 0.061683875
0.040791895 0.46788764 0.21402954 0.94640654 0.6513827 0.22503066 0.307198 0.43509787
0.052887656 0.15725835 0.16263667 0.28264156 0.8564823 0.6104453 0.42810124 0.89206386
0.8424832 0.7261574 0.43231115 0.5654306 0.12192302 0.9038988 0.4079575 0.3384318
0.7602195 0.70725244 0.34070623 0.6972504 0.8878752 0.19294262 0.16431624 0.79941875

encoder.trans_layer.trans_layers.0.vff.weight f4 [64, 64]
00000000: 3a9e c83d df38 34be 0f6a 473d 841f 9dbd
00000010: 2a7c 4dbe 82b7 17bd f8da 4bbe 8786 3a3d
00000020: 0e2d 343d e454 1e3e 9404 5cbe 756a a8bd
00000030: db58 493e fab6 e5bd 7d12 f23d cc75 243d
00000040: 9e2b f8bd 3552 943d 95e6 993c ae36 42bd
00000050: 35f0 49be 0a63 693d b920 57be 5c1a a83d
00000060: e873 7f3d 0890 c4bd c2ec 45be 0314 813c
00000070: 5ad1 943d 5854 5abd cfca 053e 35a6 d8bd
00000080: 62c0 1abe 1101 7dbd 1d35 0c3e ac79 17be
00000090: 29a9 4dbe 75e4 ef3a 7311 1a3e de4e 353e
000000a0: f517 9bbd a5ac d33d f812 a5bd d2b0 363e
000000b0: 197b e5bd 074d 1fbe 3b89 653c 0887 c5bc
000000c0: 3b8b 58bd d25f aebb 522d 07bd cb44 59be
000000d0: 4777 25be 9fb0 39bd f326 2c3e 9443 df3d
000000e0: 15b7 543e 5b8b 1cbe 6b21 563e fc26 b8bc
000000f0: fd89 23be fc9c adbd 6267 443e b064 06be
00000100: 5fea 1cbe f6e5 ef3d 9b18 3abe 95c1 4b3e
00000110: b3af 433d 648a efbc 021f 383e 2492 2d3d
00000120: 45ee 1f3e 2528 2dbd 4913 0cbe ef54 68bd
00000130: 09ab 04be e863 073d bfef 9abb 375d f0bd
00000140: 4d2f 2f3e 09a4 ecbd a808 f53d 043c a43d
00000150: db8f 5c3d 72c1 373e d85a bebd 1ebe 173e
00000160: 8b78 57be de46 453d 2732 003e b075 5fbd
00000170: daf0 57bd fed0 d4bd 2d33 893c 37d1 4e3e
00000180: ad47 ffbd 682d ecbd 109a 8abc e44d 59be
00000190: 6b01 8fbd e581 05be 803a 5dbe 17b0 7c3d
000001a0: b55f 8fbd c2b1 bdbd 9de9 bbbd a807 1cbe
000001b0: ce86 13be 2a80 5b3e 6fd3 e2bc 5556 24be
000001c0: cc4e d6bd 3ebf 453e 52cc 5bbc 22e5 f0bd
000001d0: d8cd cd3c bac9 38be 7dcc 1a3e 0440 4dbe
000001e0: 47f6 0b3e 9738 5abd d68c e13c 8add 303d
000001f0: 2d64 44be b414 fdbd a5b4 c2bd 44b5 e0bd
00000200: 304e 0f3d 9f04 57be dc68 483d 145d 803d
00000210: c2c1 043e 2005 1abe f2b0 6d3d 234b de3d
00000220: 0712 593e 8f8c 57be 000c 4b3e 70d3 5b3d
00000230: 0ac7 363e fced c8bc 49dc 0abc 2cd7 4a3e
00000240: 2b6c 753d 9a86 dabd 694e 32bd fc80 9e3d
00000250: efdf e6bc 6d42 573e b8e1 6bbd 6501 153e
00000260: be56 4bbe acfb 59bd 2d19 573e b26b 4fbd
00000270: da62 053e 8e75 2c3e 92b6 6cbd 8d30 303d
00000280: f4e5 a9bd 7d20 eabd a841 cdbd e26d 153d
00000290: 164a 043d 3dae 24bd 083f 333d 9cd9 a23d
000002a0: 7736 303e 91d8 e83d e46d e9bd c6e6 773d
000002b0: 959f d03d 3347 513d 676c dc3d 91d9 433c
000002c0: 488c a03d 5b61 7d3d c743 0f3e 9e58 80bd
000002d0: 5195 3dbe 0b48 3d3d ba50 553e c5c0 423e
000002e0: ca89 cdbd 01d7 423d 6d4f 90bd 5c45 3f3e
000002f0: 30bb 00bc e747 d6bd 923e 9e3d 62f1 1abd
00000300: 7de3 ed3d ec30 b9bd 006a 723d 3b76 fabd
00000310: b49c 06be 4b8e 8d3d f3ec 26be a884 6f3c
00000320: 9150 35be ee1c 66bd deac d23c 853a cc3d
00000330: 7019 41be d52a 653d 18bf 30be ab6d 233e
00000340: 0f83 a7bd f74f 833c 6b04 3c3e efb2 77bd
00000350: a78c 55bd b443 29be fc74 e1bd ffe2 59be
00000360: 441d 23be bd65 e53d d175 1ebe e0da b83d
00000370: ffbc 383e d1d3 3d3e f130 42bd 116a e0bb
00000380: 4fda 39be 3a9d f9bc a087 4ebe 2f39 9e3d
00000390: c20b ca3d a1d9 24be 471c adbc 3d35 053d
000003a0: 87d4 c6bd 6294 33be a1a6 9fbd 7ecf 26be
000003b0: 672c 45be ee21 f23d 8203 443e 4405 2e3d
000003c0: 8fd1 0ebe dadb d53d 08b4 f23d 526f 41be
000003d0: 730c 18be 1e17 05be d068 edbd 8557 55be
000003e0: 40c9 46bd d076 c33d 9203 fb3c ce2f 863d
000003f0: 8c90 2dbe 14d2 ffbd 19aa 12be f055 1a3e
0.09795804 -0.1759982 0.04868513 -0.07672027 -0.20066896 -0.03704024 -0.19907749 0.04553845
0.04398828 0.1546207 -0.21486121 -0.0822343 0.19662802 -0.11216541 0.118199326 0.040151402
-0.12117694 0.07242242 0.018786708 -0.047415428 -0.19720538 0.056979217 -0.21008576 0.08208153
0.062366396 -0.09597784 -0.19328597 0.015756613 0.07266493 -0.053303093 0.13065647 -0.105785765
-0.1511245 -0.061768595 0.13692136 -0.14792508 -0.2008406 0.0018302338 0.15045719 0.17705867
-0.07572929 0.10335664 -0.080602586 0.17840889 -0.1120512 -0.15556727 0.014009769 -0.02411224
-0.052867156 -0.0053214813 -0.033002205 -0.21217649 -0.16158782 -0.045334455 0.16811733 0.109015614
0.20772965 -0.15287535 0.20911185 -0.022479527 -0.15970607 -0.08477208 0.19180062 -0.13124347
-0.1532378 0.117137834 -0.18173449 0.19898064 0.04777498 -0.029240794 0.17980579 0.0423757
0.15618236 -0.042274613 -0.13679232 -0.056721624 -0.1295587 0.033054262 -0.004728287 -0.11736529
0.17107888 -0.11554725 0.11964542 0.080192596 0.05384813 0.17944887 -0.09294671 0.14818618
-0.21042077 0.048163287 0.12519132 -0.054555595 -0.05271993 -0.103914246 0.016748035 0.20196997
-0.12464843 -0.11532098 -0.016919166 -0.21221119 -0.06982692 -0.13037832 -0.21604347 0.06169137
-0.070006765 -0.0926242 -0.091754176 -0.15237296 -0.14406893 0.2143561 -0.02768871 -0.16048558
-0.10464248 0.19311234 -0.013415413 -0.117624536 0.025122568 -0.18045703 0.15117069 -0.20043951
0.13668166 -0.053276625 0.027532976 0.043180026 -0.19178839 -0.123574644 -0.095071115 -0.10972074
0.034986675 -0.20997857 0.048928127 0.06267753 0.12964538 -0.15041018 0.058030076 0.10854175
0.21198283 -0.21049713 0.19828796 0.05366844 0.17849365 -0.024527542 -0.008475372 0.19808644
0.05991761 -0.106702045 -0.04353181 0.077394456 -0.028182952 0.21021433 -0.05758831 0.14551313
-0.19857308 -0.05321853 0.21005698 -0.050639816 0.1302599 0.16841719 -0.0577913 0.04301505
-0.08295813 -0.11431978 -0.100222886 0.036481746 0.032297216 -0.04020523 0.043761283 0.07951662
0.17208277 0.11369432 -0.11397913 0.060522817 0.10186688 0.05109329 0.107628636 0.011953727
0.078392565 0.061860424 0.13990699 -0.062669024 -0.18513991 0.046211284 0.20831576 0.19018848
-0.10036047 0.047568325 -0.07046399 0.18678802 -0.007857129 -0.10462933 0.07726778 -0.037827857
0.116156556 -0.09042534 0.05918312 -0.12229582 -0.13145715 0.06911906 -0.16301326 0.01461903
-0.17706515 -0.056179933 0.025717195 0.09972099 -0.1885736 0.05594905 -0.17260396 0.15959804
-0.08179294 0.016029341 0.1836106 -0.06047338 -0.05213609 -0.16529733 -0.11008641 -0.21277998
-0.15929133 0.11201046 -0.15474631 0.09026122 0.18040846 0.18537833 -0.047409955 -0.0068485816
-0.18149684 -0.03047048 -0.20168924 0.07725751 0.09865524 -0.16098644 -0.021131648 0.032521475
-0.09708505 -0.17537072 -0.07795454 -0.1629009 -0.1925522 0.11822878 0.19141963 0.04248549
-0.13947128 0.10442324 0.118507445 -0.18890122 -0.14848499 -0.129971 -0.11592257 -0.20834167
-0.04853177 0.09544146 0.03064135 0.06552087 -0.16949672 -0.12491241 -0.143227 0.15071845

encoder.trans_layer.trans_layers.0.vff.bias f4 [64]
00000000: 00c0 673f fb6b f63e 3686 563f 1ad9 783f
00000010: d77a 7e3f cd7b 4e3f 43ba e63e 3b49 263f
00000020: a205 ae3e 377e a63d 2aa8 be3e c53d 1e3f
00000030: 4e69 103e 82c9 0d3f 20e8 2c3f e695 2b3e
00000040: 8c83 3d3f 8377 263f 74cc 2a3f 4a6b 4d3d
00000050: 8e56 a83e e969 d73e a1de e23e 99bc 663f
00000060: 3cdd 073f 8dfa 7f3f 25d6 833d fa68 533f
00000070: 91d2 b23c f213 6e3f 0b1e 793c 5481 133c
00000080: f87c ff3d 324a 453e 3b1f a03d e692 403f
00000090: 4883 6d3f 5d3c f93c 3b4a 653f 38b0 453e
000000a0: b425 663f ba05 1c3e c55b dc3e 7f9c 7b3e
000000b0: 64b0 563f 3ff4 573e f5a4 e13e 8f41 1a3f
000000c0: b7b3 0a3f f832 943d 4da7 323f 949b f93e
000000d0: f0c2 a13e df2d cf3e 3556 5e3f 704a 853e
000000e0: dd44 703f b2fc a13e 4ab2 293f 1cc9 313f
000000f0: 4d08 7a3e f209 b43d 7c44 243f 1116 b53e
0.90527344 0.48129258 0.8379854 0.9720627 0.9940619 0.80657655 0.4506398 0.6495549
0.33988672 0.08129542 0.37237674 0.61813 0.1410267 0.553856 0.67541695 0.167564
0.7402885 0.6502611 0.6671822 0.050151147 0.32878536 0.4207299 0.44310477 0.9013153
0.5307195 0.99991685 0.06437329 0.82582057 0.021828922 0.92999184 0.015204917 0.009003002
0.12475008 0.19266585 0.07818457 0.7522415 0.92778444 0.030424291 0.8956639 0.19305503
0.8990128 0.1523656 0.43038765 0.24571417 0.838629 0.21089266 0.44071165 0.60256284
0.54180473 0.07236284 0.6978653 0.4875151 0.31594038 0.40464684 0.8685029 0.26033354
0.9385508 0.31638104 0.6628767 0.69447494 0.24417229 0.087909594 0.64167 0.35368398

encoder.trans_layer.trans_layers.0.ln.weight f4 [64]
00000000: abd6 953d bdfb 323f f871 5d3f 9dc9 ad3e
00000010: cb33 333f 291c a53e 918e 3b3f 126d 283f
00000020: 2155 f03d 6b78 6a3e b813 893e 8977 023f
00000030: 9def 693e 9852 673f 94bd 5a3f d1fc 523f
00000040: d293 553f 5a35 1a3f 78ff 853e 4831 173f
00000050: dfc0 063f fc20 f53e f0fc 6a3f 8c67 9a3d
00000060: b63f 4e3f 6bef 8a3e f309 dd3e 3f97 353f
00000070: f03e f53e 41c3 5f3f c537 723f 43e3 0e3f
00000080: 1ee3 2e3f f8ca d13c 38cc 003e 6dd0 bd3e
00000090: b0b4 123f 03c6 ff3e 1aaa 493f 30de 5b3f
000000a0: eec4 6b3f 501f da3e b66e 423f 294f e23d
000000b0: 7ea3 833c aed9 063f 4c3a 7a3f fe6d 7f3f
000000c0: 7d6b 543f 7954 643f bd00 1b3f feeb 493d
000000d0: 410a 673f bc07 d53e 594a 3a3f c06c 973e
000000e0: 4bcf 7b3e 6ec7 083e d13a 673f 762d 8d3e
000000f0: 132f c23e 57ce 363e b485 2e3f 0cd7 4a3f
0.07316335 0.6991537 0.8650203 0.3394288 0.70000905 0.32248047 0.73264414 0.6579143
0.11734987 0.22897498 0.26772857 0.50963646 0.22845311 0.90360403 0.85445523 0.8241702
0.8342868 0.6023766 0.2617147 0.5905957 0.5263805 0.47876728 0.917922 0.07539281
0.80565965 0.27135786 0.43171653 0.7093391 0.4789958 0.8740731 0.9461635 0.55815524
0.68315303 0.025609478 0.12577903 0.3707308 0.5730696 0.49955758 0.7877518 0.85885906
0.92097366 0.42602015 0.7595018 0.11050255 0.01606917 0.526759 0.97745204 0.9977721
0.82976514 0.89191395 0.60548 0.049297325 0.9025002 0.41607463 0.72769696 0.29575157
0.24590795 0.13357326 0.9032412 0.27573746 0.3792654 0.1785215 0.68172765 0.79234385

encoder.trans_layer.trans_layers.0.ln.bias f4 [64]
00000000: 2ef9 2c3f 5d17 db3e 12d2 0e3f 508b 363f
00000010: 668f 323f c3d4 bb3d ef67 b73c 45ef 2d3f
00000020: db61 213e af34 413e 368c fa3e d273 3b3f
00000030: 27c1 463f 7f13 1c3f 8bf6 713f 30da 2a3f
00000040: 8625 8d3d 7d0b 173e 2331 3a3e a875 2e3e
00000050: 19aa 663f cc39 103f 7cc2 103f be07 583f
00000060: 7707 ba3e 7244 8b3d d9fe 133f b3e4 843e
00000070: e4ad 763f 019b 373d 535a f33e 188b 013d
00000080: e6a1 cd3e eb87 413e 6445 ae3e f275 833e
00000090: 0082 083f dc35 c83e 7d07 a53e 2741 2b3f
000000a0: 29c8 403f 9df6 913e f7af 453f 71a8 053f
000000b0: 2078 5a3f 9ba4 f73d c3f4 613f f07d 2a3f
000000c0: b66c 2b3e 5cb7 413f e2c9 753f ae1f e93e
000000d0: bf2d 113f ba4d 6f3f 3b3a 133f 8569 663f
000000e0: 45e5 7d3e 49bb ca3e eea5 433e 236b 7b3f
000000f0: 70d7 a33e 9977 843e 1ddf 423f 9f56 723f
0.6756772 0.42791262 0.5578929 0.71306324 0.6975006 0.091714405 0.022388427 0.6794322
0.15759985 0.18867753 0.48935097 0.732236 0.7763848 0.6096725 0.9451682 0.6673918
0.06891923 0.14750476 0.18182807 0.1703707 0.901033 0.5633819 0.5654676 0.84386814
0.3633382 0.06800164 0.5781074 0.25955734 0.96359086 0.044825558 0.4752985 0.03162679
0.4016258 0.18899505 0.34037316 0.25675923 0.53323364 0.3910359 0.32232276 0.6689629
0.7530542 0.28508464 0.77221626 0.52210146 0.85339546 0.12091943 0.882641 0.66598415
0.16740689 0.7567041 0.96011174 0.45531982 0.5671043 0.93477976 0.5751073 0.9000476
0.2479449 0.39596012 0.19106266 0.9821035 0.32000303 0.25872496 0.76121694 0.94663423

encoder.trans_layer.trans_layers.0.lnff.weight f4 [64]
00000000: d602 3e3f 13bb 093f d16c 233f c1ab a33e
00000010: 4742 913d 23c9 253e c292 703d dc92 223f
00000020: ffe6 bc3e 25ec b13e 19d2 783d 1448 4d3f
00000030: 7f07 c23e 22ac b53e 1f5c 0e3e 0bc7 103d
00000040: fc01 3c3e 8d1a c83e e09e af3e 04e6 ee3e
00000050: a843 0a3d b54c 273f fcda 783f 7453 413f
00000060: 10c9 353f b8b7 a83e 72ea 703f 7c75 523f
00000070: f5a9 1e3f 4eaa 153f 8639 4e3f 3248 d73d
00000080: 4983 bc3e 276b 583f 9010 db3c f9c3 413f
00000090: 19c1 a33a 97c5 973d 4452 653f 92ed 253f
000000a0: 6bf7 443d b549 043e 17ba 643f d1db 143f
000000b0: 5feb 583e bf56 983e 8e8b 473f 200d de3e
000000c0: 1fe4 e53e 9c90 683f 5cd0 3e3f 727a 733e
000000d0: e777 223f 113f f83e 82c6 ce3d 5c11 df3e
000000e0: c8b7 3f3e 2669 b63e 2e58 1e3f d54f d93e
000000f0: 479c 0c3f d275 413f 53ba 7f3f 2b56 843e
0.7422308 0.5380108 0.63837916 0.31966975 0.070927195 0.16190009 0.05873371 0.6350534
0.36894986 0.34750476 0.06074724 0.8018811 0.37896344 0.3548289 0.13902329 0.035346072
0.18360132 0.39082757 0.343009 0.46659863 0.03375593 0.6535142 0.97209144 0.75517964
0.7100992 0.32952666 0.94107735 0.82210517 0.61978084 0.5846299 0.80556524 0.10511817
0.36818913 0.845385 0.026741296 0.75689656 0.0012493461 0.07410734 0.8957865 0.6481563
0.04808752 0.12918742 0.8934645 0.58147913 0.21183537 0.29753682 0.7794732 0.4336939
0.44900605 0.90845656 0.7453668 0.23777178 0.63464206 0.48485616 0.10096456 0.43567932
0.1872245 0.35627097 0.618533 0.4244372 0.5492596 0.75570405 0.99893683 0.2584699

encoder.trans_layer.trans_layers.0.lnff.bias f4 [64]
00000000: 36a2 5b3f 8119 913e 6faf 3c3e 8340 4d3f
00000010: 7f06 d33d 1720 b23e d66a af3e dc1b 333e
00000020: 99d9 f73e 112d f43e e01c 733f 6eb0 363f
00000030: f63e 3f3f 2712 713f 6eba 003d 8119 b03b
00000040: 616b 603f 9221 793f 2c10 e63e 5236 153f
00000050: 8885 3b3f 960a 4a3f 8546 ea3e af83 003f
00000060: d320 3a3f 6598 333f 42ff 713f acbd 8a3e
00000070: b6dc d43c 3135 7d3f a1d2 393f cb92 f23e
00000080: e7c4 833e ba33 213f 0f29 1d3f c94c 1b3e
00000090: 1583 1f3f 0044 5a3f 07ee 493f eae3 433f
000000a0: d802 6e3f 1b83 f13d f8d3 263f e081 6f3d
000000b0: a913 093f 62e9 cc3e 222b 113f 9b26 7d3e
000000c0: 69bb fd3e a3ca 063e 4278 333f 0949 543f
000000d0: e323 093f 6b95 6d3f 374f 353f 939e a33d
000000e0: 7c97 9d3e 115e 433f eed4 933e e455 123e
000000f0: f01d bc3e f5f2 c53d 7e4c f53e bd97 e23e
0.8579439 0.2833977 0.18426298 0.8017656 0.103039734 0.34790108 0.34261197 0.17491096
0.484082 0.47690633 0.94965935 0.7136296 0.74705446 0.94168323 0.031427793 0.005374134
0.8766385 0.9731685 0.44934213 0.5828601 0.7325063 0.789224 0.45756927 0.50200933
0.72706336 0.7015441 0.9453012 0.27097833 0.02598415 0.9890929 0.7258702 0.4737762
0.25736162 0.62969553 0.61390775 0.1516601 0.6230939 0.8526001 0.78878826 0.76519644
0.9297309 0.117925845 0.6516719 0.058473468 0.53545624 0.40021807 0.5670644 0.24721758
0.49557045 0.13163237 0.70105374 0.8292394 0.53570384 0.9280612 0.70824 0.0798923
0.30779636 0.7631541 0.2887339 0.14290577 0.3674159 0.09665481 0.4790992 0.44256392

encoder.trans_layer.trans_layers.0.ff.0.weight f4 [64, 64]
00000000: eef1 733d d4eb a2bd 6c8c fc3c baad c43d
00000010: f8e9 afbb 2774 4fbe 47d7 5f3c 5e7f c9bd
00000020: 17da 14bc 00d2 99bd 8c17 743d 6737 12bc
00000030: de9b 1abe 2b58 f3bd 5a3c 113e ba48 5b3e
00000040: 7464 de3d 910c 7dbd a4fe 79bd 0945 debd
00000050: cc38 e4bd 61c0 113e 4284 493e 811f 7ebd
00000060: 7027 3fbe 8dc1 3fbe 8c5e f43d c8d5 493c
00000070: 7569 4b3d 28e3 22be 7d56 533e b065 fdbd
00000080: 1a08 fcbd 044a 07be 78e7 de3d 6b6c 2dbe
00000090: d8a5 123e 280b b5bd a709 2d3e 1e93 90bd
000000a0: d5ca 03be 7840 7cbd 8ebf 4fbe 0997 153e
000000b0: ca59 35be b2c3 a63d 34c6 343e c8a3 a5bd
000000c0: 5231 7d3d 2476 bc3d 7515 75bd 5160 593e
000000d0: 1731 a0bd e3c0 1d3e 9ab0 fb3d b8dd 04be
000000e0: 3e7b b7bc 23aa 1b3e 873b ab3d 5440 1fbe
000000f0: 4d36 763c 55a7 e13d 6826 e23d 44f6 e1bd
00000100: c137 37be 5dc0 233e 6383 493e d519 6ebd
00000110: 1634 323e 2d24 53be 101d 13bd f1fe b93a
00000120: 38d7 1f3e e3d4 27bd 3a27 003e 3413 bb3b
00000130: fb25 2c3e ed89 bf3b 7544 17be 7be2 2b3d
00000140: 4a14 2ebe f786 5a3d a260 53be 0d6a f73d
00000150: 62d2 033d bbfc 9ebd 3833 06be 2272 acbc
00000160: 9f87 153b f6fc 96bc 15c0 0abe cdea 0fbe
00000170: f5ca f7bd e2b2 5e3c 5bf8 e8bc 6870 ddbd
00000180: b546 e9bd fca9 bdbd abef 27be bb94 8f3d
00000190: ee96 303d ea8c 503e db94 903d a280 263e
000001a0: 77ef dabd 7d57 cbbb e294 b73d 1590 56be
000001b0: ed1d 393e 56a2 27be 3a38 b33d bab3 4fbe
000001c0: e748 03be 7e5d 373e 0702 2d3e 4ae7 a23c
000001d0: 43e4 25bd 1346 6d3d 1202 39be 0f76 3cbd
000001e0: dacd 04be 5adf 13be 43af 40bd 02a0 f3bc
000001f0: 46cb 37be 8267 58be aaa4 353d 3b37 273e
00000200: 9db6 503e 7e65 56be 4c87 e4bd 4d72 80bd
00000210: 0fa1 1a3e 76e6 1cbe 7c6b 523d bf5d a83d
00000220: 6139 a8bd 22f5 03bd 1ba5 b4bb 9118 19be
00000230: 5705 78bd c856 2d3e ffdb 11be 332e 97bd
00000240: 1dda 73bd b1b8 4c3d 8fca 7cbd 8af4 033e
00000250: 6af9 093e 0b58 75bd 94b5 663d 7b8b 613d
00000260: 8dd7 1ebe 7cf8 4c3e b53a a23d a169 33bd
00000270: f874 56be 450f 123e 935c 31be 2d3e 013c
00000280: 6706 403e 29d5 473e 65ce bfbd d4fa 233e
00000290: ac93 23be b394 06be d2b3 8abd 5bf7 16bd
000002a0: c498 0abe fd89 e03d 8b9c 24be b54b 54be
000002b0: 4a42 013d 18d3 bdbd 086d 53be b176 91bd
000002c0: 73d6 163e 93fd 81bd 3657 473e b6ea 43bd
000002d0: 6ac9 1cbe 1cd7 05be 6ff4 063d 2c8b 583e
000002e0: 5b5a 1a3e ef77 4d3e 9312 27be b7e7 5b3e
000002f0: 0661 153e b546 313d 4851 d4bd e7c9 66bd
00000300: e22c ab39 062d 2a3e a898 113e e84f 64bd
00000310: 3fe0 2dbe 26e1 153c 66d2 f83d 533c 113e
00000320: e357 9ebc fc92 acbd 377f 1dbe f65b 7bbc
00000330: b2e3 14be 0d8d babd 53d7 4ebd 2325 6d3c
00000340: 6e5f 9abd b8b6 35be 8098 c23d 8d48 fa3d
00000350: 9441 e3bd b222 713d 10e7 903c 9332 65bc
00000360: 9c4c 1cbe 09f4 2cbe a506 a33d 1d8c 28be
00000370: 93d6 50bd 8b2f 4b3d 81a2 ae3c e80d 193e
00000380: a366 e9bc d9c7 43be da2f 013e e2bb 15be
00000390: 2e44 f53d 05fd 463c 6da4 a93d 6a95 3a3d
000003a0: 0310 b7bd 58b5 07be cb2f 36be 0650 38be
000003b0: eca6 0dbe fe21 5abd 796f 473e ff9a 62bd
000003c0: 1a4f 203d f3da 5a3e dd81 96bd e21f 363e
000003d0: 179f 1b3e c8d1 21be 7bfe 51be 8ea7 193e
000003e0: 7367 bcbd 3d33 54be c972 d63d 98be 963d
000003f0: 5753 29be 4760 583e 0506 54bd ff0c ed3b
0.059556894 -0.07955137 0.030828677 0.09603448 -0.0053684674 -0.20259152 0.013662166 -0.098387465
-0.0090852 -0.075107574 0.05959277 -0.008924342 -0.15098521 -0.11882051 0.14183179 0.21414462
0.10859004 -0.061779562 -0.06103386 -0.10853011 -0.11143646 0.14233543 0.19679359 -0.062041763
-0.18667388 -0.18726178 0.11932096 0.012319036 0.04966112 -0.15906966 0.20638461 -0.12372911
-0.12306233 -0.13211828 0.10883993 -0.1693589 0.14321077 -0.088400185 0.16898213 -0.070593104
-0.12870343 -0.06158492 -0.20287916 0.14608397 -0.17710033 0.08142795 0.17653733 -0.080878794
0.061814614 0.09202221 -0.059834916 0.21228148 -0.07821863 0.15405612 0.122895434 -0.12975204
-0.022397634 0.15201621 0.08360963 -0.15551883 0.015027595 0.11018244 0.11042482 -0.110332996
-0.17892362 0.1599135 0.19679026 -0.058130104 0.17402682 -0.20619269 -0.035916388 0.0014190358
0.15609443 -0.04097451 0.12514964 0.0057090763 0.16811363 0.0058452995 -0.14772208 0.041964035
-0.16999927 0.05335137 -0.20642331 0.120807745 0.03218306 -0.07763048 -0.13105476 -0.021050517
0.0022816432 -0.018431168 -0.13549836 -0.14054413 -0.12099258 0.013592454 -0.028438738 -0.108124554
-0.113904394 -0.092609376 -0.1640002 0.0701079 0.043112688 0.20366254 0.07059642 0.16260007
-0.106902055 -0.006205498 0.08963944 -0.209534 0.18077822 -0.1637052 0.08750959 -0.20283404
-0.12820779 0.17906758 0.16895305 0.019885678 -0.04050089 0.057928156 -0.18067196 -0.046011027
-0.12969151 -0.1444067 -0.047042143 -0.029739384 -0.17948636 -0.21133235 0.04434649 0.16329663
0.20382161 -0.20937154 -0.11158618 -0.06271801 0.15100501 -0.15322289 0.051372036 0.08221006
-0.08214069 -0.0322162 -0.005512846 -0.14950778 -0.060551967 0.16927636 -0.14244078 -0.07381859
-0.05953418 0.049980823 -0.061716612 0.12886253 0.1347405 -0.059898417 0.05632551 0.05506466
-0.15511914 0.20016664 0.07921354 -0.043801907 -0.20943058 0.14263637 -0.1732047 0.007888359
0.18752442 0.19514908 -0.093655385 0.16013652 -0.15974301 -0.13142662 -0.06772579 -0.03685699
-0.13534838 0.10963819 -0.16075341 -0.20732005 0.03155736 -0.092687786 -0.20647061 -0.07102717
0.14730243 -0.063471936 0.19466862 -0.04783126 -0.15311208 -0.13070339 0.032947954 0.2114684
0.1507353 0.20065282 -0.16315679 0.21475111 0.14587793 0.043280322 -0.10367066 -0.056344893
0.00032649102 0.16618738 0.1421839 -0.055740267 -0.16980074 0.009147918 0.12149505 0.14183168
-0.019329017 -0.084264725 -0.1538056 -0.015341749 -0.14539984 -0.091089346 -0.050498318 0.014474186
-0.07537733 -0.17745483 0.09501743 0.12220869 -0.110964924 0.05887098 0.017688304 -0.013989109
-0.15263599 -0.16889967 0.07960252 -0.16459699 -0.050985884 0.049605887 0.021317722 0.14946711
-0.028491324 -0.19119205 0.1261591 -0.14622453 0.11975895 0.0121452855 0.08283315 0.04555265
-0.08938601 -0.13252771 -0.17791669 -0.17999277 -0.13833207 -0.053255074 0.19476117 -0.055323597
0.039137937 0.21372585 -0.07348988 0.177856 0.15197407 -0.15802681 -0.20507233 0.15005323
-0.09199419 -0.20722671 0.10471112 0.073605716 -0.16535698 0.21130477 -0.051763553 0.0072342153

encoder.trans_layer.trans_layers.0.ff.0.bias f4 [64]
00000000: ab7a 353f 7441 643f 18aa 743f 4863 003f
00000010: fa0c 003f 503c cf3e 7520 e23d 8089 5c3f
00000020: 0733 a63e 0754 de3e 94ec d93e 732f 733f
00000030: 8c93 1e3f c617 a83e 5cbe fd3e d575 3a3e
00000040: d022 c03d aa3b f03e e34d ff3d 9ee5 743d
00000050: 4c1c 2b3e b45e 4e3f 5bdb c83e 1051 483d
00000060: 1488 fe3e 35d0 733e 2c90 503e f6ca ca3e
00000070: da5d fe3e a2ec 853e af95 773e 333c b93e
00000080: eff4 7a3e 860f 653f 81e1 6d3f e472 e23d
00000090: 7a51 e13e 0f62 583f 0d69 533e 37a7 2d3f
000000a0: 47c0 133f d05b 633e bf33 773e 3b67 003f
000000b0: f99a 7c3f bd33 4a3f f595 a13e 4fed ff3e
000000c0: a487 183f 0488 093f 333d 4b3f 2ad5 bd3e
000000d0: ac32 193f f3dc 793f a9b0 763f 9815 343f
000000e0: 17c3 d13e d7df 293e 0fa2 063f 3987 953d
000000f0: 9273 943e bb02 3d3f ec66 5d3e c6ce 7c3f
0.708903 0.89162374 0.9557204 0.5015149 0.500198 0.40475702 0.11041347 0.8614731
0.32460806 0.43423483 0.42563307 0.94994277 0.6194389 0.32830638 0.49559295 0.18209012
0.0938164 0.4692052 0.124660276 0.059789293 0.16710013 0.80613256 0.39229855 0.048905432
0.49713194 0.23809893 0.20367497 0.39607972 0.49680978 0.261571 0.24178194 0.3617874
0.24507497 0.8947681 0.92922217 0.1105707 0.44007474 0.84524626 0.20645542 0.67833275
0.57715267 0.22202992 0.24140833 0.5015752 0.9867397 0.78985196 0.3155972 0.4998574
0.5958197 0.5372317 0.7939026 0.37076694 0.59842944 0.97602767 0.9636331 0.7034545
0.40969154 0.16589294 0.5259103 0.07301182 0.28994423 0.7383229 0.21621293 0.9875301

encoder.trans_layer.trans_layers.0.ff.2.weight f4 [64, 64]
00000000: b326 003e b644 023e e79e e93d 9642 28bd
00000010: aed6 b0bd 4128 81bd 9d9c 5d3e 6cbc 24be
00000020: e121 82bd 539a 1d3e 2f09 c93c 80ba e83d
00000030: 1a07 5ebd 5c92 f93d 9c99 15be 5d88 a93d
00000040: 822b c0bd 0481 40be 6e9d 513e 72f2 4f3e
00000050: fff5 b0bd ce5f a3bc 6a85 3abe 615c bebd
00000060: 75eb e8bd 44d1 cfbd d11b 09be ec1c 043e
00000070: 66b7 0dbe 1f42 2cbe 8b87 1b3d 1810 483c
00000080: 413d 0fbe d306 053e b349 d33d fabf 49be
00000090: 0028 4d3d 1265 213d 0b9f 1b3e ef8c 253e
000000a0: c9ef b93d ab83 2cbc 62d0 c93d 04dd babd
000000b0: 0bf7 2a3e c8dd ccbd 37b0 b13d 036e 38bd
000000c0: 4a86 823c 93ef 56be f802 20be e7aa 423e
000000d0: 4c83 d23d 6656 d73d d81e 46be d534 d5bd
000000e0: de28 cdbd ee54 603d 90b3 3cbe d504 f93d
000000f0: 6905 9b3d 1b65 783d e21e 81bd 304e 8f3d
00000100: 18e5 dfbd bf5b f93d 85d4 58bd 911c 9c3d
00000110: 507c 5d3e 5f58 e63c 1b50 cabb a546 bc3c
00000120: 4ef2 303e b743 f43d e45a 4f3e 3e37 b93d
00000130: d098 cfbc f980 d23c 3c0d 873d b727 1a3e
00000140: 1a11 303e 0bfc a93c e1e4 853d 97b4 253e
00000150: 365e 173e 74de a7bb f08a 323e 4c1b 18be
00000160: 4f1f 82bd 0e6d e2bc 33e3 19be 13fa 34be
00000170: 35c6 68bd 6bb4 ec3d 34a1 1e3e 03b0 113e
00000180: 1320 b63d 868d 833d dd4b 923d 0828 053e
00000190: b780 573d 159d ce3d f077 1ebe 2584 aa3d
000001a0: 01b0 473e 5db7 3c3e fdf8 853c cfd9 01be
000001b0: 2a9b 0a3e 2d30 44be 6d34 0d3e 2fab 2f3c
000001c0: e89a d43d 6939 9cbd 4baf 023d a8b5 a73d
000001d0: 0017 12be 93f5 8abd da4f 38be 88d7 ca3c
000001e0: 16ff 213e 83b7 833d 47d2 f53d 8595 253e
000001f0: 61a2 5abe 822e 1b3e 950c 85bd 6e9c 923d
00000200: 3782 4a3e 32de 47be e642 483e 68e1 3abc
00000210: a131 18bd 26d4 5c3e 6128 43be 2351 7e3d
00000220: 5fed 2d3d 24b5 39bd ec65 4abd 4875 55bd
00000230: f200 b6bd 2fff 92bb a89e 3dbe 6240 233e
00000240: 655e 96bc 90db bfbd 7fae 273c 0235 0d3d
00000250: b296 ed3b 843e 01be 05fb 263e 01e3 9b3d
00000260: e1f5 f2bd 1a06 433e 6cb8 91bd 6e99 82bd
00000270: eb23 203e bdfe 8a3d a327 9c3d 8aa8 453e
00000280: d54d 30bc c65e 11be 2fd5 083d bb0c d9bd
00000290: 8b80 febd fb11 593e e667 193d 75ef 193e
000002a0: 8dc4 3cbe bc5d 373e 96ae bd3d e8d2 0a3e
000002b0: 5b8f 3c3e 189f 4d3e 3fe6 423e 91a7 4b3d
000002c0: 3bda 43bd 7490 243d 7621 46be ed54 4d3c
000002d0: a58f 27bd 00a0 263e 2547 b73c 9359 10be
000002e0: 65da 393e 7205 153d 3e13 533e c090 2bbd
000002f0: 2b4b 963d 3e49 063e c840 173d ea85 1a3e
00000300: 5683 e93d 9af2 6abd 2431 27bc b8ee 2f3e
00000310: 493a 57be b2c8 383e 6382 0c3e 494f 10be
00000320: eb5f be3d d306 433d b216 2ebe 358c 2ebe
00000330: 6719 4dbe 9464 8fbd 1337 83bd 4755 2fbe
00000340: fb99 213e 46de 503e 7864 56bd 0bbd 8d3d
00000350: 6471 4c3e c8c3 a2bd e3d8 5b3e 7fbd 3abd
00000360: 89c8 3abe 46c2 c2bb bc7c 85bd 34c4 223e
00000370: 9f6e 283d bd64 bfbc 0b80 4a3e 62d8 d73d
00000380: 321d 9d3d 2857 16be 91d8 6a3d 1e32 2abc
00000390: 0b1f 1ebe cd4a 1bbe 4d28 ddbb ea52 d3bd
000003a0: ba61 0f3d 4c81 8f3d 6154 02be 9267 55be
000003b0: 9abd 4cbe 4ed3 03bd 4d6b 47be bc05 b53d
000003c0: 992c 44bd bcc6 083d 570a 643c 266b ddbc
000003d0: 5f3e 80bc da82 5c3e 06b4 8ebd 2740 693d
000003e0: fc1e 1dbe 0d33 243e e12f 4f3e 1e22 45be
000003f0: 783f 853d 503f e3bd 1209 053e f365 a2bd
0.12514763 0.12721524 0.11407261 -0.041079126 -0.08634697 -0.06306506 0.21641774 -0.16087502
-0.06354118 0.15390901 0.024540512 0.11363697 -0.05420599 0.12186119 -0.14609379 0.08277962
-0.093832985 -0.18799216 0.20470211 0.2030733 -0.0864067 -0.019943144 -0.18214956 -0.09294964
-0.11373035 -0.10147336 -0.13389517 0.12901658 -0.13839492 -0.16822098 0.03797106 0.012210868
-0.1398821 0.12990884 0.103167914 -0.1970214 0.050086975 0.03940303 0.15197389 0.16167043
0.090789385 -0.010529439 0.09854199 -0.09124187 0.16695802 -0.10003239 0.086761884 -0.04502679
0.015933175 -0.20989828 -0.15626132 0.19010507 0.10278949 0.10514526 -0.19347703 -0.104104675
-0.100175604 0.054768495 -0.18427873 0.12159125 0.07569391 0.060643297 -0.063047186 0.06997335
-0.10932368 0.12175702 -0.05293705 0.07622636 0.21629453 0.02811831 -0.0061741 0.022982905
0.17279932 0.11926978 0.20249516 0.0904374 -0.025341421 0.025696265 0.06594321 0.15054213
0.17194024 0.020750066 0.06537796 0.16182171 0.14782032 -0.005122954 0.17435813 -0.14854163
-0.06353628 -0.027639892 -0.15028076 -0.1767352 -0.05682965 0.115578495 0.15491182 0.142273
0.088928364 0.06423478 0.07143376 0.13003552 0.052612986 0.10088555 -0.1547544 0.08325986
0.19500734 0.18429323 0.016354078 -0.12680744 0.13535753 -0.19159003 0.1378953 0.010721966
0.103811085 -0.076281376 0.031905454 0.08188945 -0.14266586 -0.06785121 -0.17999211 0.024760976
0.15819964 0.064314865 0.12002998 0.16170318 -0.21351005 0.1515446 -0.064965405 0.07158743
0.19776236 -0.19518355 0.1955677 -0.01140628 -0.037156705 0.21565303 -0.19058372 0.062089097
0.042462703 -0.045338765 -0.049413607 -0.0521138 -0.08886899 -0.0044859867 -0.18517554 0.15942529
-0.018355558 -0.0936805 0.010234474 0.03447438 0.0072506303 -0.12621504 0.16306694 0.07611657
-0.11863304 0.19045296 -0.07115254 -0.06376921 0.15638702 0.06786869 0.076247476 0.19302574
-0.010760744 -0.1419631 0.033406433 -0.10598131 -0.124268614 0.21198265 0.0374526 0.15032752
-0.18434353 0.1790685 0.09261815 0.13557017 0.18414061 0.2008022 0.19033144 0.04972035
-0.047815543 0.040176824 -0.19348702 0.012532455 -0.040908474 0.16271973 0.022372792 -0.1409667
0.18149717 0.036382146 0.20612809 -0.04188609 0.07338556 0.13113877 0.036927015 0.15090147
0.114020035 -0.05736027 -0.010204587 0.17180908 -0.21018328 0.18045309 0.13721614 -0.14092745
0.09295639 0.04761393 -0.17000845 -0.17045672 -0.20029221 -0.07001606 -0.06406989 -0.17122374
0.15781395 0.2039729 -0.05234191 0.06920823 0.1996513 -0.079474986 0.21469454 -0.045590874
-0.1824056 -0.0059435694 -0.06517932 0.15895158 0.04112112 -0.023363465 0.19775407 0.105393186
0.07671584 -0.14681685 0.05733544 -0.010387925 -0.1544153 -0.15165253 -0.006749189 -0.10318549
0.03500531 0.07007083 -0.127275 -0.2084029 -0.19994202 -0.032183938 -0.19474526 0.08838984
-0.047894094 0.033392653 0.013918481 -0.027028631 -0.01565474 0.21534291 -0.069679305 0.056945946
-0.15343851 0.160351 0.20233108 -0.19251296 0.06506246 -0.1109606 0.12991741 -0.079296015
