AGCRN-master/model/model_para/PEMSD8/epoch_333.pth (torch, 851905 bytes, 64 tensors)

node_embeddings f4 [170, 2]
000000 f8 a0 3e be 23 6f 3c be 01 6c a0 bd a0 e3 f6 3d
       -0.18616092 -0.1840177 -0.078331 0.12055135
000010 29 e5 94 bd b4 6b a6 bd 84 71 07 be e7 c0 fd bc
       -0.07270271 -0.081260115 -0.13226897 -0.030975772
000020 aa 97 ad bd bf c4 03 3e 08 cb e8 bd f4 38 ea 3c
       -0.08476193 0.12868021 -0.1136685 0.02859161
000030 a9 ed ad 3b 41 63 bc bd 98 55 15 bd b6 7b a4 3d
       0.0053078723 -0.09198619 -0.03645858 0.080314085
000040 5e 78 7f bd 60 5b e0 3c 11 7d cc bc 38 b3 20 be
       -0.06237065 0.027387321 -0.02496198 -0.15693367
000050 8a d7 c3 bb 33 20 a9 3d c1 da 12 3e 85 c3 20 3e
       -0.005976622 0.08258095 0.1434126 0.15699585
000060 fd a0 8b 3d 5c 2a 38 3e 40 cf 39 3e f2 c8 da bd
       0.068178155 0.17984909 0.18145466 -0.106828585
000070 ad 6a bf bc c0 c2 01 3d 4e 61 11 be 9a 93 1d 3e
       -0.023366297 0.03167987 -0.14197275 0.15388337
000080 0b dd 2f 3e af 40 db bd de 72 e6 bd 47 be cb bb
       0.17174165 -0.10705697 -0.11252378 -0.006217751
000090 77 01 3e 3e d3 24 20 be 99 70 e4 3d e8 c7 2c be
       0.18555246 -0.15639047 0.11154289 -0.16873133
0000a0 52 11 e8 3c d9 11 bc 3d 60 52 4e bc 56 c4 57 bd
       0.028328571 0.09183092 -0.012592882 -0.052677475
0000b0 56 7b a4 bb 7a fa 15 3e 9b fa 1b 3e e9 df 0c be
       -0.0050195856 0.1464633 0.15232317 -0.1375729
0000c0 12 ae 23 3e 29 63 d2 3c 28 89 fc 3c 25 ba 87 3d
       0.15984371 0.025682049 0.03082712 0.06627301
0000d0 34 0b dc 3d 46 c7 b6 3d 5a 41 1c 3e a8 4b df bd
       0.10744324 0.08924727 0.15259305 -0.10903102
0000e0 71 5e f7 bc c5 c0 22 be f8 9b 3d be ec 24 ec bd
       -0.0301964 -0.15893848 -0.18516529 -0.1153048
0000f0 f7 74 88 3c f6 ec 37 3e 10 30 0b 3e ec d8 f6 bd
       0.016657336 0.17961487 0.13592553 -0.12053093
000100 6d 1d ac 3d 93 7c 22 3e d6 4a 92 bc a2 e8 ae bd
       0.0840405 0.15867834 -0.01785795 -0.08540465
000110 9b 8e 23 3e 96 f8 a9 3d b5 18 1c be 8f d1 2a be
       0.15972368 0.08299367 -0.152438 -0.16681503
000120 50 d6 ad bd 0f 6c 1d 3e 3f af 08 be 22 d6 f9 bd
       -0.084881425 0.15373252 -0.13348101 -0.12199046
000130 45 fe 08 3e 5a 0b ab bc cb 47 07 bc 02 c2 1f 3e
       0.13378246 -0.020879436 -0.008256863 0.15601352
000140 53 7b 3b be c0 a5 6d 3c 83 25 08 be a7 fa 3b 3d
       -0.18308763 0.01450485 -0.1329556 0.045893338
000150 b2 29 09 3e ee ae 01 3e 08 e3 df bd d2 7f 0d 3e
       0.13394812 0.12664387 -0.10931975 0.13818291
000160 f1 de 27 3d 73 ad ca 3d 13 d3 02 3e 19 6c ff 3d
       0.040984098 0.09896364 0.12775831 0.1247179
000170 6c 98 a5 3d 76 4d d4 3d 7e 22 5a 3d c5 0c 83 bd
       0.08085713 0.10366337 0.05325555 -0.0639892
000180 eb 2e 0e be d6 b9 a3 bd c6 53 ca bd 52 7e cb bd
       -0.13885085 -0.0799443 -0.0987926 -0.09936203
000190 73 c2 2a 3e b2 7b 07 3e 89 ae de bd 68 f8 9c bc
       0.16675739 0.1323078 -0.10873134 -0.019161418
0001a0 50 34 51 bc 28 3d 86 3d c7 1a 48 3d f2 01 e5 bd
       -0.01276882 0.065546334 0.048853662 -0.11182012
0001b0 58 f7 16 bc 76 4b 38 3e 7f 99 ba bd cc b8 5a 3d
       -0.009214245 0.17997536 -0.09111308 0.053398892
0001c0 9e b1 50 3d 21 f3 a3 bd e0 0b c9 3d bc 4b 1d 3e
       0.05095064 -0.080053575 0.09816718 0.15360922
0001d0 f2 a2 7a bd e2 04 c1 3d 63 a1 d5 3d 93 f1 31 3e
       -0.061190553 0.094247594 0.10431173 0.1737731
0001e0 d9 dd 74 bd 8a a7 a7 bc aa 1a 2a 3e e7 59 23 be
       -0.059781883 -0.020465631 0.16611734 -0.15952264
0001f0 52 e7 25 be 75 22 22 be a2 c9 29 be 42 70 6e bc
       -0.16201523 -0.15833457 -0.16580823 -0.014553132
000200 f8 65 dd 3d 51 f5 a7 3d d9 8f ea 3c 91 14 b6 3d
       0.108104646 0.08201087 0.028633045 0.088906415
000210 58 7b 1d 3e 8f 48 a3 bd 90 68 41 3c 3c db 26 be
       0.15379083 -0.07972824 0.011804715 -0.16294569
000220 c5 50 25 bc 2e 61 bc 3d 19 a5 d3 3d 3c bc 2d be
       -0.010090058 0.09198223 0.10334224 -0.16966337
000230 4d 82 a6 bd b3 b4 98 bd 66 49 34 3d 43 2a 8f bd
       -0.08130322 -0.07456341 0.04401531 -0.06990483
000240 21 9f 00 3b 11 4c bb 3b ef 63 f4 3d 9c 90 09 be
       0.0019626098 0.005715855 0.11933123 -0.1343407
000250 0b 4c af 3b ec e7 0f 3e 4a a3 a3 3c c1 3c 07 bd
       0.005349641 0.14053315 0.019975323 -0.033016924
000260 57 ab a9 bd 00 6b fe bd 51 67 a6 bc 39 72 1a be
       -0.082846336 -0.124227524 -0.020312937 -0.15082635
000270 54 10 bc 3d 17 4f b9 bc a0 20 a8 3d 67 32 82 3d
       0.09182802 -0.02262072 0.08209348 0.0635727
000280 83 8a 26 be a6 00 14 be 57 ef ed 3d a2 86 69 3d
       -0.16263776 -0.14453372 0.11617916 0.05701316
000290 75 82 23 be 75 13 3f be 93 37 17 3e 78 3c e3 bd
       -0.15967734 -0.18659766 0.14767294 -0.11095518
0002a0 09 bd bd bd 95 66 80 3c ee 35 40 3d 84 76 9a bc
       -0.09264571 0.015673915 0.04692643 -0.01885534
0002b0 1c 8a b3 3d 2a 4a 90 bd e4 7c ea 3d 43 dc 6a bd
       0.08766577 -0.07045396 0.11449602 -0.057338964
0002c0 88 8c e6 bc 6b 09 97 bd af 67 27 be 85 fc 5b 3d
       -0.028143182 -0.07374843 -0.16348146 0.05370762
0002d0 21 fe 1f bb 1d 43 84 bd cb cc e0 3c 17 3a 57 3d
       -0.0024412947 -0.06458113 0.027441403 0.052545633
0002e0 e3 b2 29 3e c2 bc ff 39 9c 3e bd 3d 53 15 bc bd
       0.16572146 0.00048778026 0.092404574 -0.09183755
0002f0 dc fb 86 3d 4f c4 0d 3e 7a 85 07 3d ca 0e 32 be
       0.06591007 0.13844417 0.033086278 -0.17388454
000300 74 dd 34 be 05 f4 1c be 62 57 08 3e af e8 29 be
       -0.17662603 -0.15327461 0.13314584 -0.16592668
000310 d4 d8 af bd d9 91 11 be 73 56 07 3e ba c9 1c be
       -0.085862786 -0.14215793 0.13216572 -0.15311328
000320 32 eb df bc 9a d4 c5 bd 53 75 27 be 15 9c 26 3e
       -0.02733383 -0.09659691 -0.1635335 0.16270478
000330 6b 33 22 3e 5c 3d 99 bd dc ff 3c 3e 7d 7f 0a be
       0.15839927 -0.074824065 0.18456978 -0.13525195
000340 50 cd 28 be 2b ac 9e 3c 6e 91 3a 3e 9c 2e 22 3d
       -0.1648457 0.019369205 0.1821954 0.03959523
000350 52 9c 8d bb a3 84 af 3d 2b ba 7b 3d df cf 9e bd
       -0.0043216133 0.0857022 0.06145684 -0.07754492
000360 c3 86 04 3e de 22 e2 3b 15 86 99 bd 09 c1 fd bd
       0.12942033 0.006901129 -0.07496277 -0.12390334
000370 6c 9e 10 be be 64 0d be 58 3b 3c 3d 72 7c 2e 3d
       -0.14122933 -0.13807961 0.045955032 0.04259915
000380 15 83 31 bb 50 61 8b 3d 14 34 d3 3d bf e5 e0 bd
       -0.0027086188 0.0680567 0.103126675 -0.109813206
000390 5b 0f 30 3e 8f aa 37 be 76 ea b5 bd 6c 67 04 3e
       0.17193358 -0.17936157 -0.088826105 0.12930077
0003a0 c2 9a 1a 3e e3 c1 1d 3e 76 ef 4c 39 5b 60 07 3e
       0.15098098 0.15405993 0.00019544162 0.1322035
0003b0 44 10 bc bd 0f 8d 94 3d df 50 0b 3e fa f0 30 3e
       -0.0918279 0.07253467 0.13605069 0.17279425
0003c0 fb 2a a4 3c 95 bd 1e 3d 61 62 b2 3d 48 a7 5f ba
       0.020040026 0.03875502 0.087101705 -0.0008531702
0003d0 58 ca 94 bd df 7a b4 b9 bd 2e 10 be cc eb a6 bd
       -0.072651565 -0.00034423821 -0.14080329 -0.081504434
0003e0 41 c8 9b bd cc 80 9d 3d 45 cc 44 bd c3 89 21 3d
       -0.07606555 0.07690582 -0.04804637 0.03943802
0003f0 c7 fb cc 3d c0 f4 f7 bd bb 73 ed bd 8e c9 b3 bc
       0.1000896 -0.12107229 -0.115943395 -0.021946695

encoder.trans_layer.trans_layers.0.qff.weight f4 [64, 64]
000000 46 bf 36 be c8 65 8c 3e 9a 78 e6 be cc 30 83 3f
       -0.17846403 0.27421403 -0.45013887 1.0249267
000010 41 1b f9 be 70 aa 5a 3d 30 9f 64 3e 17 f6 7c 3e
       -0.48653606 0.053385198 0.2232635 0.24703251
000020 68 84 24 be 0b d8 99 3e 8e f4 dc be cc 73 9a be
       -0.16066134 0.3004764 -0.4315533 -0.3016647
000030 0b 10 db 3e 50 ed 79 3e c8 b8 2e 3f 66 8b 5c bd
       0.42785677 0.24406934 0.68250704 -0.05384388
000040 c1 ba 1b bf 55 61 dd be 31 76 04 bf 78 df 60 bf
       -0.6083184 -0.4323832 -0.51742846 -0.87840986
000050 aa a9 ca bd e7 e1 70 3e 79 a9 87 bf 73 0a e1 3d
       -0.09895642 0.23523675 -1.0598594 0.10988321
000060 ba 57 41 3f 7b f8 71 3d ed e6 35 3e 10 7d a6 3e
       0.75524485 0.05907486 0.17763872 0.3251729
000070 ab a1 c3 bd 7f 65 d7 3e 19 bc c2 be cf 1f 12 be
       -0.0955232 0.42069623 -0.38034132 -0.14269947
000080 d9 ff 27 be 53 e6 18 3e e5 56 c8 bd d4 7f e7 be
       -0.16406192 0.14931612 -0.09782199 -0.45214713
000090 37 21 82 be b5 ce fe be b1 db fa 3d 85 6c b7 3e
       -0.25415966 -0.4976708 0.12248934 0.3582498
0000a0 3d b7 df be f7 88 7c 3e 84 93 3f be 97 6c 1e 3d
       -0.43694487 0.24661623 -0.18708616 0.038677778
0000b0 e9 d4 84 be 41 67 44 3e 1f df 7f 3e d0 39 00 3f
       -0.25943688 0.19180013 0.24987458 0.50088215
0000c0 a0 f2 ab 3f 90 b3 e5 3e ce 61 0e 3f e6 af 2a bf
       1.3433418 0.44863558 0.5561799 -0.6667465
0000d0 b0 a3 c7 3e dd 86 e1 3d 4b 3d 2e 3f df d8 27 be
       0.3899207 0.11012051 0.68062276 -0.16391324
0000e0 50 ba 51 bf cb 49 d5 bf 2e b3 65 3e 98 08 d7 be
       -0.81924915 -1.6663145 0.22431633 -0.41998744
0000f0 3a 38 22 3f 96 04 9d be f9 32 dd be ac ad b2 3c
       0.63367045 -0.3066756 -0.43202952 0.021811329
000100 57 c5 0b bc f8 96 1a 3f 4e 58 69 3e 25 10 a4 be
       -0.008530936 0.6038661 0.22787592 -0.32043567
000110 2a bf 3e be 5b 5a fe 3e 66 de 9a be dd ae 36 3f
       -0.18627611 0.4967831 -0.30247802 0.7136057
000120 1b 83 98 3f b9 74 57 be f7 f9 32 3f fc 5e 99 3e
       1.191501 -0.2104062 0.69912666 0.2995528
000130 25 e6 d3 3a a0 de 14 bf 09 74 18 3e d9 6e 9d 3d
       0.0016166611 -0.581522 0.14888014 0.07687158
000140 b5 c5 19 3e 58 8b 05 bf 7d 7c 86 3f 5f 46 ad 3e
       0.15016825 -0.52165747 1.0506741 0.3384275
000150 90 fe 69 bf 58 be 58 be 5e 16 11 bf c6 e0 3d 3e
       -0.91404057 -0.2116636 -0.56674755 0.18542776
000160 4c ad 7d 3f ab ae 8c bc bf 4c 1d be 95 57 00 bf
       0.99092555 -0.017173132 -0.15361308 -0.5013364
000170 3d 67 0c 3d 48 f7 f9 3e a4 8a 38 bf 72 12 d4 3e
       0.034278143 0.48821473 -0.7208655 0.41420323
000180 fa bf d1 3d 05 a3 78 be 7b 42 24 3e 00 ea cd be
       0.10241695 -0.24280937 0.16040985 -0.4021759
000190 a7 83 ba ba 13 bb 68 3f bf 0c d0 bd b8 92 48 bd
       -0.0014229909 0.9091045 -0.10158681 -0.048968047
0001a0 30 11 47 bf 7e 99 d6 3d c3 53 3c be ca 4f 1e be
       -0.777606 0.10478495 -0.18391328 -0.15460125
0001b0 4a 8b b5 3e 8e e3 eb bd 99 90 20 bd 62 de 2f bf
       0.35457832 -0.11518012 -0.0392004 -0.68698704
0001c0 c9 d4 15 3f 01 8d dc 3e 9e 95 0e bf 26 61 01 bf
       0.5852781 0.43076327 -0.5569705 -0.5053886
0001d0 dd fe 13 3e 6d d8 e4 3e 4a 9b b8 be 13 17 8b 3e
       0.14452691 0.4469637 -0.36055976 0.27166042
0001e0 cc af b0 3e 9f be b1 3f 6c 7c 30 3d 07 dd 07 3f
       0.34509122 1.3886298 0.043087408 0.53071636
0001f0 40 bf ce be ab ad a1 bf 17 07 32 bf 54 fe 25 bd
       -0.40380287 -1.2631124 -0.6954207 -0.04052575
000200 43 aa c1 bd 54 8f 0a 3f ae e1 a1 3d 0d b1 51 3e
       -0.09456303 0.5412495 0.07904373 0.20477696
000210 d0 f6 c9 be 8c a4 0b 3f 04 3b 84 3e 1b df 82 be
       -0.39446115 0.54547954 0.25826275 -0.2556084
000220 f1 55 cd bc 5d 68 c5 bd 73 00 0f 3f ea 15 26 3f
       -0.025065394 -0.09639046 0.5586006 0.6487719
000230 df 19 8e be 24 ec 03 bd 71 af 31 3f 92 99 d0 3e
       -0.27754113 -0.032207623 0.6940833 0.40742165
000240 89 47 47 bd 02 5f 6a 3e f2 05 d1 3d df f1 a4 be
       -0.048652206 0.22887805 0.10206212 -0.32215783
000250 c6 3d 3f 3f 4e be d2 bd 9c ab 10 3e 43 63 82 3e
       0.74703634 -0.10290204 0.14127964 0.25466356
000260 e8 ab 74 3e 6d 8c 29 bf 08 bf eb bd 4a 6f de be
       0.23893702 -0.662299 -0.11511046 -0.43444282
000270 a9 a0 67 3f ad 27 66 3e 57 45 9e 3e d9 bf dd 3d
       0.9047952 0.22476073 0.30912277 0.10827608
000280 83 d0 48 bf 5d 6f 31 3e ad 7b b6 3d 15 e9 07 be
       -0.78443164 0.17327638 0.08910308 -0.13272507
000290 ab 49 94 3f 06 6e 08 3d 60 7b ae be ed 79 9e bd
       1.1584982 0.03330805 -0.34078503 -0.07738099
0002a0 0d 9f c0 be dc 80 34 bf 68 c7 2a be cd a2 9a be
       -0.37621346 -0.70509124 -0.1667763 -0.30202332
0002b0 47 15 fc be 5e 36 7a bd d4 4c cd 3d e9 fe 84 3e
       -0.49234983 -0.061087005 0.100244194 0.2597573
0002c0 9a a4 0f be 04 90 b7 bf db dd 2e 3e c9 92 0e 3d
       -0.14027634 -1.4340825 0.17076819 0.034807954
0002d0 76 43 8d 3e e9 d1 13 be e8 4f 85 3f 09 99 94 bd
       0.2759053 -0.14435543 1.041501 -0.07255752
0002e0 f0 10 aa be 04 02 12 3e 66 6c b4 3e 34 c4 94 bd
       -0.33216047 0.14258581 0.3523895 -0.07263985
0002f0 86 2b 8d bf 57 4f 0b bb 63 9f 40 bf c3 dd c0 3e
       -1.1028907 -0.0021257007 -0.75243205 0.3766919
000300 89 c4 3f bf 75 37 4d 3e ad 94 21 be 6e 51 c2 3e
       -0.74909264 0.20040686 -0.15779372 0.3795275
000310 11 15 09 3d aa ec 0c bd 75 05 01 bf 24 3f a5 3e
       0.033467356 -0.034405388 -0.5039895 0.32274735
000320 2a e5 70 3c ee 8f 6e 3e b1 d2 47 3f 39 7f 73 3d
       0.0147030745 0.23297092 0.78055865 0.0594475
000330 3b fd 46 be 16 1e 68 be 11 c9 ae 3e ec 6f 47 3e
       -0.19432537 -0.22667727 0.34137776 0.19476289
000340 c0 03 57 be 04 fe 9f be 5d 43 49 bd cd f2 34 be
       -0.20997524 -0.31248486 -0.04913651 -0.17670746
000350 a2 22 08 3f b3 06 c2 3d 1b c2 e3 be da 22 a2 3e
       0.53177845 0.09473934 -0.44484028 0.31667215
000360 52 d0 b9 3e 8b de 6f be ff bb d5 3e 8d 1c d2 3e
       0.36291748 -0.23424737 0.41744992 0.41037408
000370 22 f9 70 bd 18 3f 56 be 97 35 8a be c8 5b 60 3d
       -0.05883134 -0.20922506 -0.2699401 0.05477503
000380 16 c8 0b 3f cb 6a 85 3e 6b 1b e1 bd 89 0d 18 3c
       0.5460218 0.2605804 -0.10991558 0.009280571
000390 1d 8c 14 3e b9 79 27 be 3a 08 7c bd 8e 8e 88 3e
       0.14506574 -0.16355027 -0.061531283 0.2667126
0003a0 a2 8b b7 bd ef 79 20 bd 1c 80 08 3e 0f 49 5f be
       -0.0896218 -0.039178785 0.1333012 -0.21805213
0003b0 a8 0e af be e7 6e 17 3d da c3 de be 9c d5 0e 3e
       -0.3419087 0.036971 -0.43508798 0.13948673
0003c0 bc 15 8c be 62 10 39 be e8 1b 19 bf 95 8a 3c be
       -0.27360332 -0.18072656 -0.59808207 -0.1841224
0003d0 f3 8e 0c 3e a5 4b 31 3e aa 50 33 be ed e1 86 3e
       0.13726406 0.17314012 -0.1751124 0.26344243
0003e0 64 ae a9 be f3 e4 d8 be 2a 55 21 3e a2 22 b5 3d
       -0.33140862 -0.42362174 0.15755144 0.08844496
0003f0 0f 97 be be e9 52 32 be c0 ca 98 3e 3a e4 0c bf
       -0.37224624 -0.1741444 0.29842186 -0.55035746

encoder.trans_layer.trans_layers.0.qff.bias f4 [64]
000000 4a c7 7d 3f 41 b2 a8 3d db cc 62 3f 98 28 51 3f
       0.99132216 0.08237124 0.88593835 0.81702566
000010 cc 9d 2d 3f d2 9c 00 3f ef cc 58 3f ee d8 ef 3e
       0.67818904 0.5023929 0.84687704 0.46845192
000020 3e 26 1d 3f 4c 83 8e 3e da e3 41 3f 62 46 d2 3e
       0.6138648 0.27834547 0.757383 0.41069323
000030 79 96 bd 3e ed 70 00 3f 43 fc 98 3f cf db ad 3e
       0.37028864 0.5017231 1.1951984 0.33956763
000040 9e 00 f0 3e 61 c4 b7 3e 7e 53 7b 3f 73 0b 1d 3e
       0.4687547 0.35892013 0.98174274 0.15336399
000050 9f c4 2c 3f 13 3f 9a 3e 55 d6 e3 3e 09 8c 3d 3e
       0.6748752 0.30126247 0.4449946 0.1851045
000060 dd 82 37 3f 88 da 70 3e a8 e9 e1 3e a1 95 4e 3f
       0.71684057 0.23520863 0.44123578 0.80697066
000070 fc 59 32 3f ff e7 0d be 09 a4 3d 3f d5 17 b5 3f
       0.69668555 -0.1385803 0.7407842 1.4147898
000080 36 ad e2 bd d6 b9 c0 3e 68 81 52 3f 08 d9 c6 3e
       -0.110681936 0.37641782 0.8222871 0.38837457
000090 74 70 06 3f 41 89 b5 bd 73 7e b2 3e c0 4c 7c 3e
       0.5251534 -0.0886407 0.34862098 0.24638653
0000a0 a7 cc 7f 3f 5c 52 47 3f 5c 02 b1 bd ba 5a 86 3f
       0.9992165 0.77860045 -0.08643028 1.0496438
0000b0 f2 ca 67 3f 7d 40 12 3f fa 47 bf 3d 7b 46 76 3f
       0.90544045 0.5712965 0.093399 0.96201295
0000c0 59 a7 ad 3f 9a 7c 88 3f 1b 9e 91 3f c0 cc 6e 3f
       1.3566695 1.0663025 1.1376375 0.93281174
0000d0 09 aa 08 3f 4e 4e 09 3f bd 6a d1 3e d1 35 5a 3e
       0.53384453 0.5363511 0.40901747 0.21309592
0000e0 56 c9 48 3f 7a 77 b3 3f 8d 32 8e 3f 8a 17 4f 3f
       0.78432214 1.4020836 1.1109177 0.8089529
0000f0 88 55 a1 3f 75 09 d0 3e 70 a6 2e 3f 5b 27 de 3e
       1.2604227 0.40632215 0.68222713 0.433894

encoder.trans_layer.trans_layers.0.kff.weight f4 [64, 64]
000000 53 03 a7 3d b2 4f 8b be ad 4f 11 bf 33 a5 9b be
       0.08154931 -0.2720924 -0.567622 -0.30399475
000010 7f 83 f4 3c d2 c6 ca 3e ca fb 07 be 66 b3 eb bd
       0.029847858 0.39604813 -0.13279644 -0.11508827
000020 0f 21 7e be 78 1b 8b 3d a9 06 37 3f 4f 26 a0 bd
       -0.24817298 0.067923486 0.7149454 -0.07819807
000030 d9 96 05 bf 0e a4 a1 3e 20 a5 67 bd 38 25 78 3d
       -0.521833 0.31570476 -0.05655396 0.06058237
000040 a0 3e ef 3e 0d 6a 9b 3d 8b 74 b5 3e 13 4f 4e bf
       0.46727467 0.07588587 0.35440478 -0.8058941
000050 a6 46 ef 3e 12 9c bc 3e ac 17 17 bf e5 16 9b 3e
       0.46733588 0.36837822 -0.59020495 0.30290905
000060 1e 17 bb bd 66 1a 17 bf d0 39 9a 3e 26 ce f7 be
       -0.09135269 -0.59024656 0.30122232 -0.48399466
000070 ac eb 30 3e 93 c0 de be ef 11 ca 3e ff 0f be 3d
       0.17277402 -0.43506297 0.39466807 0.09280395
000080 04 ad 2d bc 5b 79 e4 3d 72 70 9e bf fd fc da 3d
       -0.010600332 0.11155959 -1.2378066 0.10692785
000090 2b c6 c4 bf 74 54 1d be ad 3c ea 3e f2 5d d7 3f
       -1.5372976 -0.15364248 0.45749417 1.6825545
0000a0 85 b6 66 3e d1 c9 7b bf ad 80 2a 3e 65 d9 0d 3f
       0.22530563 -0.9835482 0.16650648 0.5540984
0000b0 28 5d 04 bf 84 35 f1 be 5c d7 10 bf 6c 4e 1e bf
       -0.51704645 -0.47111142 -0.5657861 -0.6183841
0000c0 33 c5 ae 3e 4f b8 43 3f e2 24 15 40 94 39 f0 3d
       0.34134826 0.7645311 2.3303761 0.11729732
0000d0 53 cd 90 bd be 8b bf 3e 86 b0 37 be c8 71 82 bd
       -0.070704125 0.37411302 -0.17938432 -0.06369358
0000e0 dc e6 7d 3e 46 43 05 bf bd a5 38 3e 11 42 e6 be
       0.24795097 -0.52055776 0.18031974 -0.4497228
0000f0 7a 5c c7 3e a1 bf 8f 3d 80 43 79 3f 74 e5 0e 3e
       0.38937742 0.07018972 0.9736862 0.13954717
000100 91 42 c5 3d 08 6c 81 3d c7 3e 26 3f b7 93 01 be
       0.09631837 0.063194335 0.6493954 -0.12654005
000110 5f f5 ce be 53 6e 9a be 25 ed c5 3d 16 a2 85 3e
       -0.40421578 -0.30162296 0.09664372 0.26100224
000120 82 b0 b6 be 3b 6f 74 be dd 6a 9d 3e 28 57 a6 3d
       -0.3568154 -0.23870556 0.30745593 0.081220925
000130 99 b4 9b 3d a5 4e 14 3e 35 f0 a6 3d c9 54 02 bf
       0.07602806 0.14483126 0.081512846 -0.5091062
000140 dc b5 f3 be 4f 66 20 bc 9b f6 f9 3d 95 c7 c9 3f
       -0.47599685 -0.009790017 0.122052394 1.5764033
000150 c2 7c c6 bf d3 8f 2b be ad c6 8c 3f 9e 71 1e 3f
       -1.5506823 -0.16754083 1.0998131 0.61892116
000160 d8 41 82 3e 74 6f 47 be 65 3e 0f bc 24 31 0d bf
       0.2544086 -0.1947611 -0.008742903 -0.5515311
000170 a9 27 c6 bf fc 39 c8 be a6 b7 10 bf 8e e1 b5 3d
       -1.5480853 -0.3910674 -0.56530225 0.08880912
000180 62 73 85 bf 47 6e 1b 3e 99 12 4b 3f e6 98 0b 3f
       -1.0425837 0.15178786 0.7932525 0.5453018
000190 19 ea 9e 3e 70 46 8a bf c4 07 59 be ba 15 58 3f
       0.31037977 -1.0802746 -0.21194369 0.8440815
0001a0 23 f9 6b be 45 a3 86 bd 28 97 b9 3c 23 22 99 3e
       -0.23044257 -0.0657411 0.022655085 0.29908857
0001b0 6d d7 8f 3f 5e d2 42 be bf ac a9 3e a9 cc 5d 3f
       1.1237618 -0.19025561 0.33139607 0.8664041
0001c0 19 02 62 be 10 93 df 3f eb df 0d 3e 22 ff eb 3e
       -0.22071113 1.7466755 0.13854949 0.46093088
0001d0 eb a7 b6 be 64 cc 90 3d de 43 83 3f af e7 90 3e
       -0.35674986 0.070702344 1.0255086 0.2830176
0001e0 59 d8 4d bf e6 4a 27 3e eb ec bc 3e d6 e8 6d bf
       -0.80408245 0.16337165 0.36899504 -0.92933404
0001f0 dc a2 70 bd 24 90 45 be e3 a4 a5 3e 56 44 bb 3e
       -0.058749065 -0.19293267 0.3235236 0.36575574
000200 04 a2 03 3e d1 b1 a3 be 75 24 c2 be 27 17 63 3e
       0.12854773 -0.319716 -0.3791844 0.221768
000210 63 7b e9 3e af 9f 45 be 6e 25 a7 3e b6 62 a9 3e
       0.4560195 -0.19299196 0.32645744 0.33083123
000220 e8 81 bb be 91 9d 50 be da 56 46 3e 8b 95 b4 bd
       -0.36622548 -0.20372607 0.19369069 -0.088175856
000230 8b 3d 88 3e 4a 13 c7 be 29 da 46 bf ed 11 35 bf
       0.26609454 -0.38881904 -0.77676636 -0.7073048
000240 79 de 07 3f 00 ca 3b 3f eb dc f7 3e bf f1 12 bf
       0.5307384 0.733551 0.48410735 -0.57400125
000250 fa 13 58 3e 90 66 99 be 67 23 69 bf df 8f 03 bd
       0.2110137 -0.2996106 -0.91069645 -0.032119628
000260 32 df 31 3d 22 f7 e7 3e 50 7d 46 3f 14 ae fc 3e
       0.043425746 0.45305735 0.7753496 0.4935156
000270 15 2c 85 3d a5 e6 cc 3e ff 8d 9e 3e 7d d0 12 bf
       0.065025486 0.40019718 0.3096771 -0.5734938
000280 be 29 fa 3d cf 96 8d 3e 58 bc 97 be 35 3d 35 3f
       0.12214993 0.2765412 -0.29635882 0.7079652
000290 7f 03 64 3e a3 4c 82 3c f3 d6 8d bf 84 52 d1 be
       0.22266959 0.015905684 -1.1081222 -0.40883267
0002a0 11 43 6a 3e 86 3c 2a 3f 10 95 b3 3e ab bd 1d 3f
       0.22877146 0.664986 0.35074663 0.61617535
0002b0 42 14 f6 3e 97 d5 d9 3d ca c9 0a 3f e6 ce 2b c0
       0.4806233 0.10636442 0.54214156 -2.684503
0002c0 e7 82 16 bf 0c 45 e5 bc 8a b7 7f 3c f9 de 86 3e
       -0.5879349 -0.027987026 0.015607724 0.2634199
0002d0 e5 bc db bd 10 6a b5 be 3f 16 92 bf 45 1e a6 3d
       -0.10729388 -0.35432482 -1.1413039 0.08111242
0002e0 ce ca 09 3f 1d 03 a9 be 40 94 d8 bd d4 35 8d 3d
       0.5382508 -0.33010188 -0.105751514 0.068950325
0002f0 23 3b a9 3e 46 01 80 be 49 8c 19 3e bf e4 d8 be
       0.3305293 -0.25000972 0.14994921 -0.4236202
000300 16 81 65 be dd c4 5f 3d 2a 6a 0c 3e 57 d2 89 3a
       -0.22412524 0.054631103 0.13712373 0.0010514957
000310 49 cb a2 be be 15 9b 3d ae 25 22 bb b2 e5 dc 3c
       -0.3179572 0.07572506 -0.0024741697 0.026964996
000320 53 f4 89 be 44 af 32 bb 57 7b f6 3e 92 f8 68 3d
       -0.26944217 -0.002726511 0.48140976 0.05687768
000330 34 82 3c 3e ef 2f 1a be 1e 17 08 bf 6c df c5 3d
       0.18409044 -0.15057348 -0.53160274 0.09661755
000340 48 ab 06 bf 32 b6 fd 3d 7c 50 a0 be be 4c df 3d
       -0.52605104 0.123882666 -0.31311405 0.10903309
000350 b3 7c ac bd 11 87 83 be b6 b8 d4 3d 1c 16 a3 3d
       -0.08422222 -0.25688985 0.10386793 0.079632014
000360 96 e6 78 bd 39 27 49 3f 74 95 1d 3d ba 21 0f be
       -0.06076678 0.78575474 0.038472608 -0.1397771
000370 dd 17 92 bf c3 4d 9f 3d 6b 77 cf be c3 48 b7 be
       -1.1413532 0.07778504 -0.40520796 -0.357977
000380 84 91 41 be 1a 1c 4f be a3 c3 90 be 77 a6 f6 bf
       -0.18903166 -0.20225564 -0.2827426 -1.9269551
000390 99 a1 4d bf 05 e6 68 be c6 5e 68 bf c3 88 d3 bc
       -0.80324703 -0.22743995 -0.9076961 -0.025822049
0003a0 cf 20 81 be 2a 8d 85 bd 5e 86 59 bf 14 aa 7b bd
       -0.25220343 -0.065210655 -0.84970653 -0.061441496
0003b0 0e 0c 39 3f a5 91 83 be ef 34 d9 3d 6a a6 76 c0
       0.7228402 -0.25697055 0.106057994 -3.853907
0003c0 97 81 33 be a7 e3 82 bf 58 84 32 3f bd a3 2a 3e
       -0.17529903 -1.0225724 0.6973319 0.16664024
0003d0 f5 48 e1 3c f0 47 dc bd 85 59 8b 3e 46 bc 51 3e
       0.027500609 -0.107559085 0.27216735 0.20481977
0003e0 f1 0f 8d be ab c0 ea 3e 61 8d ad 3c 57 62 31 3e
       -0.27551225 0.4585012 0.021185579 0.1732267
0003f0 4a 97 16 3f cd 54 0b 3d 65 41 d2 3e 02 90 56 be
       0.588246 0.03401642 0.41065517 -0.20953372

encoder.trans_layer.trans_layers.0.kff.bias f4 [64]
000000 21 61 03 3e 77 63 88 3e 90 5a f6 3d 8d 04 7b 3e
       0.1283002 0.26638386 0.12028992 0.24513455
000010 31 2b 4a 3f a8 8d 07 3f 01 02 4b 3f f0 25 00 3f
       0.78972155 0.52950525 0.7929993 0.5005789
000020 66 9f 6c 3f 5c d2 b6 3e 8a bc 3e 3f 93 d3 16 3f
       0.9243072 0.35707366 0.7450644 0.58916587
000030 54 30 97 3e d8 b4 86 3e b0 f1 e1 3e 77 1e 95 3f
       0.2952906 0.26309848 0.44129705 1.1649922
000040 67 4e 33 3f 59 f4 c8 3e 17 56 a1 3e aa 66 25 3f
       0.7004151 0.39248922 0.31510994 0.6460978
000050 c1 ce 95 3e 15 f2 1a 3f 03 c8 1d 3f bc 34 f8 3e
       0.29259303 0.6052564 0.6163332 0.48477733
000060 11 14 39 bd b1 05 25 3f 72 b0 1f 3f 1d 9d 63 3f
       -0.045185152 0.6446181 0.6237861 0.8891161
000070 15 79 86 3e da 90 b5 3d d2 05 89 3f 46 17 83 3e
       0.26264253 0.08865519 1.0704901 0.25603694
000080 79 b0 02 be c0 49 cd 3e 7c a4 94 3d 5c 61 63 3f
       -0.12762631 0.4009533 0.072579354 0.88820434
000090 f0 85 49 3f 3c 15 37 3e 8e f8 c2 3e cf 72 03 3f
       0.7872 0.17879194 0.38080257 0.5134706
0000a0 41 6b f8 3d 5b fd e6 3d e5 77 5e 3e 24 4c c8 3e
       0.12129832 0.112787925 0.21725424 0.3912059
0000b0 90 5e 83 3f b9 4e 27 3f b5 e4 10 3f 42 ec 76 3f
       1.0263233 0.65354496 0.5659898 0.9645425
0000c0 ea 2c cd 3f e8 d3 5f 3f c5 d4 8e 3f ac 2a 39 3f
       1.6029332 0.8743272 1.1158682 0.7233074
0000d0 77 dc 4b bd 85 ee 81 3f 3d 36 c9 3e 37 03 37 3f
       -0.0497708 1.0150915 0.39299193 0.7148928
0000e0 53 b3 70 3f a4 3b 47 3f 1c 37 6d 3f f1 b7 6d 3f
       0.9402363 0.7782538 0.92662215 0.928588
0000f0 b2 ec 76 3f d5 eb 30 3e b1 60 46 be f8 34 37 3f
       0.9645492 0.17277463 -0.19372822 0.715652

encoder.trans_layer.trans_layers.0.vff.weight f4 [64, 64]
000000 59 1e 3a be 63 4e 64 bf 06 c2 7b 3e c5 17 b4 3e
       -0.18175639 -0.8918211 0.24585733 0.35174385
000010 1a 2b 1c be f9 3c 2c be 11 24 75 be 1b 22 e3 3b
       -0.15250817 -0.16820134 -0.2393954 0.006931556
000020 75 5e 64 3e 00 38 c6 3e d6 6e 20 3e c8 4e 8c bd
       0.22301657 0.387146 0.1566728 -0.06850964
000030 5a 10 01 bd 43 83 72 be bb a4 2b 3f c1 19 dd bd
       -0.031509735 -0.23682885 0.67048234 -0.10795928
000040 03 9e b0 bd 61 f4 db 3d 10 45 37 3e b5 a8 5f 3d
       -0.08623888 0.10739971 0.17897439 0.05460425
000050 3c c2 1d be 39 55 88 3e f8 6c 25 3f 64 7f be 3e
       -0.15406126 0.2662752 0.646194 0.37206566
000060 53 07 a0 bd 0e 03 44 bf ce b2 e7 be c3 f6 93 3d
       -0.07813897 -0.7656716 -0.45253605 0.072248004
000070 73 55 9c 3f 8f f8 82 be 9d 8f 6d bd 3d aa c4 3e
       1.2213577 -0.2558026 -0.05799829 0.38411132
000080 fc 31 e9 be 9b f8 d7 3d 05 56 55 3d 1e 56 ba be
       -0.45545948 0.105454646 0.052083988 -0.36393827
000090 ee 25 d3 bd 7a ca 66 bd af 7b ea be 18 07 99 3e
       -0.10309969 -0.05634544 -0.45797488 0.29888225
0000a0 d9 95 a7 be bb e3 8e 3d 67 ca 20 3e 6d 77 c9 3e
       -0.32731512 0.0697703 0.1570221 0.39348927
0000b0 25 71 08 bd a5 e4 5b bc b6 ad 34 3d 6c 40 8b be
       -0.033311028 -0.013421212 0.044110976 -0.27197587
0000c0 2d 71 23 bf d3 2d 38 3d cc 1e 85 3e 3f ab 5b bf
       -0.6384457 0.044965576 0.2600006 -0.85808176
0000d0 af 85 b0 3e 34 4a 8c 3e 34 ca 3d 3f 39 64 52 3e
       0.34476992 0.27400362 0.7413666 0.20546044
0000e0 c9 b6 ca 3e 53 16 84 3d dd 88 9c 3e 28 ce 26 3f
       0.3959258 0.064495705 0.30573168 0.6515832
0000f0 ea 3b ea bd f4 67 04 be 05 30 b8 3e c7 00 56 3c
       -0.11437209 -0.1293028 0.35974136 0.013061709
000100 16 6f ca bc 14 84 c2 3e 5e 15 a0 bd 43 1f bd bc
       -0.024711173 0.37991393 -0.078165755 -0.023086196
000110 99 67 64 3e 61 97 d2 bd 94 41 09 bd 41 40 a7 3d
       0.22305144 -0.102827795 -0.033509806 0.08166552
000120 e3 e8 6e 3e bc 7a ff bd 31 a7 60 bd b6 3f 0e bd
       0.23331027 -0.124745816 -0.054846946 -0.03472873
000130 6c 4f 29 3e e3 93 cb 3d cb 5e ca bd 29 0a b6 bc
       0.16534203 0.099403165 -0.098813616 -0.022221642
000140 f0 19 21 3c b4 09 aa 3d c0 55 2c be 50 7a 77 bd
       0.009832844 0.08302632 -0.16829586 -0.06041938
000150 f6 3d a2 3e 86 d1 b3 3e 3b 22 31 be 33 b3 c9 bd
       0.31687897 0.3512079 -0.17298214 -0.09848633
000160 2e d4 25 bd be 28 a2 3e cb 91 8e 3e b3 f6 53 3e
       -0.040485553 0.3167171 0.27845606 0.20699577
000170 44 93 66 be 30 13 33 be 0e 7c e3 bd 41 8f 09 3e
       -0.22517115 -0.17487788 -0.11107646 0.13433553
000180 d2 4e e8 3d d5 5b a6 be d5 35 ad bd 8e ad 3a be
       0.11343159 -0.32491937 -0.08457533 -0.18230268
000190 b3 24 35 3e 4f 75 18 bc 62 fc 02 3e e0 d1 10 3d
       0.17689781 -0.009305312 0.12791589 0.035356402
0001a0 9e 59 5b 3e f9 23 dd 3c 30 1a 57 be f8 03 1f be
       0.21420905 0.026994692 -0.21006083 -0.15528858
0001b0 72 af 58 be d9 cd 74 3e 39 73 64 3c f0 7f 3f be
       -0.21160677 0.2390665 0.013943487 -0.18701148
0001c0 4b be cb bd 2f a7 07 3e ed a6 0a b9 c0 0a 82 bd
       -0.09948405 0.13247369 -0.0001322289 -0.06349707
0001d0 5c 23 3d 3e c1 a8 0d bf 5f 1f 87 3e 6d 42 d2 be
       0.1847052 -0.55335623 0.26391122 -0.41066304
0001e0 c8 70 aa bd f2 f5 bd 3e d4 e1 4a 3e 53 c5 ae 3e
       -0.083222926 0.37101704 0.19812709 0.3413492
0001f0 f8 86 92 bd 0a aa 15 bd 24 d7 f8 be 2b 95 01 be
       -0.071546495 -0.036539115 -0.4860164 -0.1265456
000200 bd 92 73 be f1 67 fd bd 46 40 87 3d c0 52 cc bd
       -0.23786445 -0.12373341 0.06604056 -0.09976721
000210 0f 6e d5 3d 37 e8 ef bd 6b 2b e2 be e0 37 8a 3e
       0.10421383 -0.11714213 -0.4417375 0.26995754
000220 9f 30 d9 3d 52 bc 84 be d8 8b 58 bd db 90 23 3e
       0.10604977 -0.25924927 -0.05286774 0.15973227
000230 0f ed 3c 3e 9c d5 ca bc 73 e8 93 bd ac 20 87 3c
       0.18449806 -0.02476006 -0.072220705 0.016495071
000240 65 38 ab 3d a1 29 4b be d7 cc 8b 3b 7b 7f c1 3d
       0.08360366 -0.19840099 0.004266362 0.09448143
000250 06 40 ae 3d cd e8 64 3e 3a 2c 5b be 5a 6f f7 3c
       0.08508305 0.22354431 -0.2140359 0.030204464
000260 44 7d d9 be 23 93 b5 bd 15 6b 17 3e 2b 69 f3 bd
       -0.42478383 -0.08865955 0.14786942 -0.118852936
000270 47 db c1 bd dc 08 06 3e 01 53 2b 3d 3b 2a 65 3e
       -0.09465652 0.13089317 0.041827206 0.22379391
000280 f3 3d 43 3e 0a 4f 0b be 7e 5c 80 be d5 d6 2b bd
       0.190666 -0.1360437 -0.25070566 -0.041952927
000290 31 a2 4c bd 46 00 8f be cf c1 7a be c0 c1 b2 3d
       -0.049959365 -0.27929896 -0.24487995 0.08728361
0002a0 10 30 85 bd a7 dd 06 3d e6 75 ad be 48 59 9f bd
       -0.06503308 0.032926228 -0.33879012 -0.07780701
0002b0 f0 f5 96 bd 51 e6 05 3e 26 26 73 3d 35 77 a4 bc
       -0.073711276 0.1307614 0.059362553 -0.020076374
0002c0 87 15 77 be 0e b0 b9 3d 86 bb 0e be aa f6 b1 be
       -0.24129306 0.09066783 -0.13938722 -0.34758502
0002d0 04 9f f3 bd a7 e5 61 be c3 00 5e 3e 68 6b 7e 3c
       -0.11895564 -0.22060262 0.21679978 0.015528537
0002e0 30 25 49 be 36 6e e4 3d 45 a2 cf 3d 5d b7 04 3e
       -0.19643092 0.111538336 0.10138372 0.12960573
0002f0 ce 2b b3 bd 60 da ea be f8 5f ad 3e ea d9 13 bd
       -0.087485895 -0.45869732 0.3386228 -0.03609649
000300 39 3a 53 3d 0e 6a be 3d 1f 38 8a be 28 b4 0e bf
       0.051569197 0.09297572 -0.26995942 -0.55743647
000310 5c d8 fe bc 3c 22 fe 3d 32 b3 23 bf 1d ba d1 bd
       -0.031109028 0.124088734 -0.63945305 -0.102405764
000320 9d 1d d8 bd 1b 26 94 3d 12 32 d1 be 6d bf d1 3e
       -0.10552523 0.072338305 -0.40858513 0.4096636
000330 4c 62 62 3d 52 f7 d6 3e 2e f7 40 3f 7f cb 71 be
       0.055269524 0.41985565 0.75377166 -0.23612784
000340 05 f7 f8 bd 5b 99 93 be ec cc bb be d4 f3 e7 3e
       -0.1215649 -0.28827938 -0.3667978 0.45303214
000350 c1 8d 23 3e 0c 73 6a bc d2 87 09 3f d6 66 ed 3d
       0.15972044 -0.014309656 0.5372287 0.1159188
000360 d3 80 90 3e ff 7f a2 3e 61 c0 67 bd 19 d9 96 bd
       0.28223285 0.31738278 -0.05657995 -0.07365627
000370 c9 cf 97 3e be 56 d6 3e 7c 4f 9d 3e e0 cc 36 bd
       0.29650715 0.41863054 0.30724704 -0.044628978
000380 aa a5 b1 bb b9 48 7f bd 83 d3 ac bd b9 9b 74 3e
       -0.00542136 -0.062325213 -0.0843878 0.23887528
000390 42 e7 32 3e 1a 68 19 be 03 8e 8b be da dc 5e be
       0.1747103 -0.14981118 -0.27256784 -0.21763936
0003a0 96 92 79 be 7a 3c 02 be ef 4b 1c 3f 46 ff 3c be
       -0.24372324 -0.12718382 0.61053365 -0.18456754
0003b0 b8 7c 58 be e6 75 8e 3e 68 0e fa 3e e0 e7 9d bb
       -0.21141326 0.27824324 0.48839116 -0.0048189014
0003c0 ef 6a c6 be 67 64 d4 be 57 10 93 3e 3a 80 dc be
       -0.3875346 -0.4148285 0.28723404 -0.4306658
0003d0 99 d1 ac be 0d 96 d6 be e7 b3 50 3e 5a 7b 28 3e
       -0.3375366 -0.41911355 0.20381127 0.16453305
0003e0 cd 5c 7a be ce 49 82 3e 94 1c 9f 3c 62 d4 c1 3e
       -0.24449463 0.25446934 0.019422807 0.37857348
0003f0 79 1a b4 be fa 0f 29 bf af b3 bf bd db 45 4a bd
       -0.35176447 -0.66040003 -0.09360444 -0.049383026

encoder.trans_layer.trans_layers.0.vff.bias f4 [64]
000000 5e 2a 65 3f e1 9b 11 3f 6f 17 59 3f ce b9 6c 3f
       0.8951777 0.5687848 0.8480138 0.92471015
000010 c4 09 83 3f 96 3b 65 3f 9e 5b c5 3e 55 a1 13 3f
       1.0237355 0.89544046 0.3854646 0.5766805
000020 c0 90 98 3e 26 3b c9 3d 76 d4 e2 3e 6b 38 12 3f
       0.29797935 0.09825735 0.4430272 0.57117337
000030 29 d0 36 3e 52 56 03 3f 73 ca 1d 3f 1d 2e 84 bb
       0.17852844 0.5130359 0.6163704 -0.0040338174
000040 c0 52 50 3f eb b2 23 3f db f0 22 3f 04 56 96 3d
       0.81376266 0.6394488 0.63648766 0.07340625
000050 80 b1 89 3e 02 19 cc 3e 64 97 16 3f 75 f2 51 3f
       0.26893234 0.3986283 0.58824754 0.82010585
000060 2d 33 e3 3e 62 b1 9c 3f ad 32 a6 3d dc c9 4b 3f
       0.44374982 1.2241633 0.081151344 0.7960489
000070 b3 d6 8b 3c 22 25 57 3f c3 d7 94 bd bb 34 16 bd
       0.01707015 0.84041035 -0.07267716 -0.03667138
000080 ae 12 e0 3d 4b 88 d7 3e 7e 19 e6 3d df 33 52 3f
       0.10941063 0.4209617 0.11235331 0.821104
000090 59 7a 2b 3f f7 2b ee 3c 26 75 76 3f 38 91 32 3e
       0.6698356 0.029073698 0.96272504 0.17438209
0000a0 a0 56 41 3f 22 2c 80 3d 93 f5 bd 3e ce 98 6f 3e
       0.75522804 0.06258418 0.3710142 0.23398134
0000b0 c7 03 41 3f f9 04 a4 3e 31 40 f1 3e 73 74 2b 3f
       0.7539639 0.32035044 0.47119287 0.6697456
0000c0 e1 ac f7 3e 80 5e 41 3e 08 d4 2f 3f a2 e8 bc 3e
       0.48374084 0.18883705 0.6868291 0.36896235
0000d0 51 36 c5 3e 42 f6 a5 3e c9 b9 65 3f f0 a0 46 3e
       0.38518003 0.32414442 0.8973661 0.1939733
0000e0 0d ab 62 3f 22 01 77 3e 4c 29 21 3f d0 8b 00 3f
       0.8854225 0.24121526 0.6295364 0.50213337
0000f0 f5 2d a5 3e f6 35 bd bc 10 af 2e 3f dd 5a 67 3e
       0.32261625 -0.02309702 0.68235874 0.22593255

encoder.trans_layer.trans_layers.0.ln.weight f4 [64]
000000 dd e7 10 bf 39 dc 7e 3f 5f 66 8e 3f a6 f6 75 3f
       -0.56603795 0.99554783 1.1124991 0.9607948
000010 d0 9c 48 3f a3 7e 8a 3f 73 69 c0 3f 15 22 58 3f
       0.78364277 1.0819896 1.503218 0.84427005
000020 a4 f3 0e 3f 8a 0c e5 3e 57 09 25 3f ca 28 4a 3f
       0.55840516 0.4473613 0.64467376 0.7896849
000030 07 f2 fb bc 37 66 85 3f b2 13 84 3f b5 5e 62 3f
       -0.030755056 1.0421818 1.031851 0.8842576
000040 3f 43 8d 3f 27 b4 6c 3f 33 30 28 3f 7e c9 13 3f
       1.1036147 0.9246239 0.65698546 0.5772933
000050 73 57 5d 3f ab 61 75 3f a9 8d b1 3f 07 e3 ea 3e
       0.8646156 0.95852154 1.3871356 0.45876333
000060 41 e2 68 3f 51 96 5b 3f 31 7d 64 3f 7b b2 61 3f
       0.90970236 0.8577624 0.89253527 0.88162965
000070 86 b4 1d 3f 2c be a1 3f 38 23 aa 3f 99 a3 37 3f
       0.6160358 1.2636161 1.3291998 0.71734005
000080 c9 37 95 3f 18 1e 50 3b 71 21 9c 3e 4c a9 14 3f
       1.1657649 0.0031756219 0.30494264 0.58070827
000090 40 3b 36 3f 33 ef 61 3f 52 6f 83 3f 39 56 7d 3f
       0.7118416 0.88255614 1.0268347 0.9895969
0000a0 91 14 5f 3f 87 b0 5c 3f be ed 8f 3f 1c 04 da be
       0.87140757 0.8620686 1.1244428 -0.4258126
0000b0 45 e8 41 bf f7 f7 34 3f 4d 63 90 3f ec ad 94 3f
       -0.7574504 0.70690864 1.1280304 1.1615577
0000c0 de 04 75 3f 07 73 67 3f 6e 45 75 3f ec 42 98 3e
       0.9571055 0.9040989 0.95809066 0.29738557
0000d0 67 8c 76 3f 7b b1 d8 3e 2f 75 59 3f 82 87 3c 3f
       0.96307987 0.42322907 0.8494443 0.7364427
0000e0 77 dc 5b 3f 6d c2 8d be 85 c9 8e 3f a0 e9 7f 3f
       0.8588328 -0.27687398 1.1155249 0.9996586
0000f0 79 31 9c 3f 07 e9 75 3f 5c ad 33 3f 7a 14 7c 3f
       1.2202598 0.96058697 0.701864 0.98468745

encoder.trans_layer.trans_layers.0.ln.bias f4 [64]
000000 e5 01 c3 3e d2 36 09 3f 2f 24 f9 3e 72 4e 92 3e
       0.38087383 0.53599274 0.48660418 0.28575474
000010 01 64 25 3f 52 2e bb 3d e3 3a e1 bd f8 86 1a 3f
       0.6460572 0.09139694 -0.1099756 0.60362196
000020 c2 82 d7 3a c4 70 07 be 20 f1 7d 3d d4 3f e5 3e
       0.0016442167 -0.1322661 0.061997533 0.4477526
000030 ef 2c af 3c 85 e1 df 3e 3d 3e f4 3e c5 36 ab 3e
       0.02138373 0.43726745 0.47703734 0.33440223
000040 74 4d b0 3b aa 94 a1 3d b4 ba d1 bd 7c 7f 17 3d
       0.005380327 0.078896835 -0.10240689 0.036986813
000050 93 d6 12 3f 13 fc d6 3e 56 de 2f 3f d4 67 84 3e
       0.57358664 0.41989192 0.6869863 0.25860465
000060 50 9d ac 3d f1 4e 8d bd 18 4f c8 3e d0 dc 52 3d
       0.084284425 -0.068998225 0.39122844 0.051480114
000070 5a fe 0b 3f 9b f7 9a bc 2f 77 a6 3e e0 26 7d bc
       0.54684985 -0.018916896 0.32512805 -0.015451163
000080 0f 22 a9 3e c8 a0 9d ba fb 27 06 bd 61 dd 90 3e
       0.33033797 -0.0012026066 -0.032752972 0.282939
000090 58 8e a7 3e 5d 32 82 3b fb a1 f6 3d 11 2e 2f 3f
       0.32725787 0.003973289 0.12042614 0.68429667
0000a0 b4 52 05 3f c6 0b 00 bd 4e 27 2b 3f 66 8b ac 3e
       0.5207932 -0.031261228 0.6685685 0.33700103
0000b0 bc 68 1e 3f ba 5b 18 3e 16 89 54 3f 4c ab 42 3f
       0.6187856 0.14878741 0.83021677 0.7604263
0000c0 07 05 b3 3d 2d 1d 54 3f 86 8d 5e 3f be 3f d2 3b
       0.08741193 0.8285702 0.869347 0.00641629
0000d0 5f 1c 15 3f df c6 21 3e 35 ff 8b 3e 6a 25 d3 3e
       0.58246416 0.1579852 0.27343145 0.41239482
0000e0 fa 84 bf bc 76 c4 28 3e 30 fc fe 3d 68 07 35 3f
       -0.023378838 0.16481194 0.12450445 0.70714426
0000f0 79 39 65 3e 62 06 9f bc 0e 3d 3a 3f 97 0b d1 3e
       0.22385205 -0.019412223 0.7274941 0.40829155

encoder.trans_layer.trans_layers.0.lnff.weight f4 [64]
000000 ee 4d 51 3f c0 dd 66 3f 42 49 43 3f 36 88 43 3f
       0.81759536 0.90182114 0.7628366 0.76379716
000010 8f fc c7 3e fa ef f2 3e c9 d8 ca be 81 7b 1c 3f
       0.39059874 0.47448713 -0.3961852 0.6112595
000020 fb 52 d0 bb 32 4c ed 3e 38 a5 fa be ab d3 6f 3f
       -0.0063575483 0.46347195 -0.48954177 0.93682355
000030 6c d5 34 3f 3f f9 90 be c1 47 c5 3e 51 4a 6e be
       0.70638156 -0.2831516 0.38531306 -0.23270537
000040 80 82 3d 3f f4 a5 3f 3f 85 32 3d 3f 8a b4 04 3f
       0.7402725 0.748626 0.7390521 0.5183798
000050 6b 63 d5 be ad 02 58 3f 1f 19 a6 3f 1c 5f 67 3f
       -0.41677412 0.8437908 1.2976416 0.903795
000060 27 9d 65 3f 04 f2 3c 3f 0d 30 5d 3f 7c 32 4b 3f
       0.8969292 0.73806787 0.86401445 0.7937391
000070 7b 42 d1 3e 78 e4 82 3f f9 2d a3 3f 1f a6 1d be
       0.40871033 1.0225973 1.2748405 -0.15395401
000080 0c 8f 46 3f 39 ee 6e 3f ef 24 c4 3a 07 de 3b 3f
       0.7756202 0.9333225 0.001496462 0.7338566
000090 20 e9 25 3c ae fa 10 3f a5 1b a2 3f ed db 66 3f
       0.010126382 0.56632507 1.2664686 0.9017933
0000a0 fd a5 04 bf 73 43 05 3f f8 08 9e 3f a9 f9 94 3f
       -0.5181578 0.52056044 1.2346487 1.163869
0000b0 d2 b3 20 bb ec ff 28 3f 86 73 94 3f b5 03 32 3f
       -0.0024521244 0.66015506 1.1597755 0.69536906
0000c0 a2 1b 83 3f 06 16 84 3f 14 58 50 3f ef 3c df be
       1.0242808 1.0319221 0.81384397 -0.43601176
0000d0 22 fb 49 3f 4c 11 4b 3f 9e 51 f9 3d 30 23 3b 3f
       0.78898823 0.7932327 0.1217377 0.73100567
0000e0 86 04 a0 3e a2 83 fc 3e d4 38 1e 3f eb ff 08 3f
       0.3125345 0.49319178 0.6180546 0.535155
0000f0 ae 47 83 3f 1f 34 1e 3f 59 8b 85 3f 48 ad 22 3f
       1.025625 0.6179828 1.043315 0.63545656

encoder.trans_layer.trans_layers.0.lnff.bias f4 [64]
000000 4e 0e c3 3e ae 1d a7 be 1c fb 8b 3b 7f fb f6 3e
       0.3809685 -0.3263983 0.004271878 0.4823875
000010 34 2c aa bc 5d 00 db 3d 43 f3 23 3e 2d ef db 3d
       -0.02077303 0.10693429 0.16010766 0.107389785
000020 fc c1 c2 37 37 a7 fd 3c 41 66 3a 3f 81 d1 de 3e
       2.3216933e-05 0.030963523 0.7281228 0.43519214
000030 dd 44 94 3e 2d 8a 96 3e 28 ba 9a be 42 af 19 3e
       0.2895879 0.29402295 -0.3022015 0.15008262
000040 98 1c 0f 3f d0 fb 60 3f 8d 1f 16 3e 27 5a f9 3c
       0.55903006 0.87884235 0.14660473 0.030438496
000050 20 53 18 3f ae 3e 3a 3f 64 3d 04 3f 40 77 a2 3e
       0.5950184 0.7275189 0.51656175 0.31731606
000060 db 0c 7d 3d 6d e0 f4 3e 8e a5 14 3f 01 2e 15 3e
       0.061779838 0.47827473 0.58065116 0.1456833
000070 87 7c 24 be d2 4e 62 3f 36 5b 02 3f b7 6f da 3d
       -0.16063128 0.8840152 0.50920427 0.10665839
000080 09 64 50 3e 56 af 18 3f fc 25 b3 38 d0 69 71 3e
       0.2035066 0.5964254 8.54246e-05 0.2357552
000090 25 82 da 3e 5d 71 01 3f 52 78 1c 3f 30 b8 ff 3e
       0.42677417 0.50563604 0.61121094 0.4994521
0000a0 64 ef 2e 3f 3e e9 a2 be b7 1d 0a 3f 2d 70 2f be
       0.6833403 -0.31818575 0.5395159 -0.17132635
0000b0 36 0a 82 bb ff bd 02 3f bd 07 ee 3e d0 9e 25 3e
       -0.0039685024 0.5107116 0.4649028 0.16173863
0000c0 ea 77 89 3e ea 08 79 3e 3f 95 07 3f 6b d9 f0 3e
       0.268493 0.24319807 0.52962106 0.47040877
0000d0 39 96 1d 3f 80 f3 ec 3e 45 35 d5 bc 00 11 5d be
       0.61557347 0.46279526 -0.026026377 -0.21588516
0000e0 57 6e 9e be c6 9f a9 3e 65 7d 3c 3e 6b d2 15 3e
       -0.30943558 0.3312971 0.18407209 0.1463105
0000f0 f4 2d c3 3d 9e b4 b6 3d 0b 60 e9 3e 56 20 fe bd
       0.09530249 0.08921169 0.45581087 -0.12408511

encoder.trans_layer.trans_layers.0.ff.0.weight f4 [64, 64]
000000 db ad 16 bf cf 06 0d be 8f 54 a0 3e c2 21 b4 3e
       -0.5885903 -0.13772129 0.31314513 0.35182005
000010 da 35 b8 bd d2 e2 4b 3c 65 8d 1f bd f4 db 46 be
       -0.08994646 0.012444215 -0.038953204 -0.19419843
000020 6a 5c 3e 3f 4e 0c 0c bf e9 32 e3 be 95 f8 33 bd
       0.7435976 -0.54706275 -0.4437478 -0.04393824
000030 5f 01 81 bd ab 30 9c be 19 cf 03 bd 14 5f 5f bf
       -0.0629909 -0.3050588 -0.032179926 -0.8725445
000040 e8 60 d7 3d d5 d7 78 3f ed db 65 bf 52 b2 2c be
       0.1051653 0.97204334 -0.89788705 -0.16864899
000050 cc 47 3b bf 7d 18 c4 be 7b 83 c4 bd 59 a9 58 3e
       -0.7315643 -0.38299933 -0.095953904 0.21158351
000060 5d a9 7e bf 1f 8b 3b be 17 6b a3 3d fb 02 66 bf
       -0.9947718 -0.18314789 0.0797941 -0.898483
000070 88 8b cb be f1 94 a6 be b6 65 a9 3d c8 ee 11 bf
       -0.3975489 -0.32535508 0.08271353 -0.57004976
000080 3a df 80 be df 49 e5 3c 6e 3e 11 bf 6c ae b7 bd
       -0.25170308 0.027989326 -0.56735885 -0.08968815
000090 1e a7 33 be b8 7a 0c 3b 14 53 60 be 0f 93 03 3e
       -0.17544219 0.002143545 -0.21906692 0.12849067
0000a0 be ee a3 be f2 a8 4f be 05 f2 88 be a9 24 21 3f
       -0.32018083 -0.20279291 -0.26747146 0.62946564
0000b0 df 0a 6e 3e cd 11 31 bf 89 87 10 bf a0 88 61 bf
       0.23246334 -0.69167787 -0.5645681 -0.880991
0000c0 5c 5e 64 be 1d 07 a5 3e 8e 35 5d bd e5 60 f8 3e
       -0.2230162 0.3223199 -0.05400615 0.48511425
0000d0 5e af da be 5b d2 0b be b1 a6 c3 3e 46 0f 2e bf
       -0.4271192 -0.13654463 0.38213113 -0.67992055
0000e0 97 d3 c9 3c ba 55 bc 3c 8c 58 89 3f 13 0b 11 bf
       0.024637027 0.022990096 1.0730147 -0.5665752
0000f0 97 09 2f bf 78 45 99 3e 2c e4 04 3d de 10 4b bf
       -0.6837401 0.29935813 0.032444164 -0.7932261
000100 e4 f2 c0 be fb a0 eb bd 4e c0 98 3d 82 ca a2 be
       -0.3768531 -0.11505314 0.07458554 -0.31795126
000110 0c c7 a7 3d 0e 05 71 be 56 18 28 be 44 ca 59 be
       0.08192262 -0.23537084 -0.16415533 -0.21268564
000120 29 cd 0a bc 94 a9 0c bf 4d e7 6d bd 79 e4 de be
       -0.008471766 -0.54946256 -0.058081914 -0.43533686
000130 10 d6 c4 be 3b 73 73 be 48 41 af be 1f 45 43 be
       -0.38444567 -0.23774426 -0.34229493 -0.19069336
000140 0e e6 12 bf e9 61 61 3e 9d d4 de be 7f 10 ba bc
       -0.57382286 0.22010006 -0.43521586 -0.022712944
000150 31 2e 85 be 6c ec 83 be b0 7c 35 bd d5 59 c0 be
       -0.26011804 -0.25766313 -0.044308364 -0.37568536
000160 7c fe 0b bd 32 d4 63 be 5f 62 15 bf 49 00 ab be
       -0.034178242 -0.22248915 -0.5835323 -0.33398655
000170 dd 5f 0e bf d2 59 d9 bb fb b5 18 be 23 1f b3 be
       -0.55615026 -0.006633022 -0.1491317 -0.34984693
000180 1e 90 c2 be 08 fb bc be 2c b1 d7 be c6 b9 89 3c
       -0.38000578 -0.36910272 -0.4212736 0.016812216
000190 8d 76 fd bd f8 79 9b bd 66 5e 50 be 1d 0c 06 be
       -0.123761274 -0.07591623 -0.2034851 -0.13090558
0001a0 3c e7 d8 be a5 9c 98 be 20 a0 5d be 04 4e c8 be
       -0.42363918 -0.2980701 -0.21643114 -0.3912202
0001b0 5d 45 17 3a 18 28 32 be 9b aa 20 bf 08 96 d0 be
       0.0005770529 -0.17398107 -0.62760323 -0.40739465
0001c0 f7 5b 9d bd d0 4e 91 3e 4d a2 c9 bd 25 96 e0 be
       -0.076835565 0.28380442 -0.098454095 -0.4386455
0001d0 d8 d5 3f bc b5 14 ce be fe 09 a1 be a2 65 9f be
       -0.011708699 -0.40250173 -0.31452936 -0.31132227
0001e0 ff 0b dd be b1 95 bc be ec 2a 99 be 97 35 d5 be
       -0.43173215 -0.36832955 -0.2991556 -0.41642448
0001f0 39 65 41 be c8 83 be be 68 8f 14 be 2b 8d 45 ba
       -0.1888627 -0.37209916 -0.1450783 -0.0007535989
000200 55 7b 04 3e 22 26 1b be e7 02 8d 3d ea 29 1a be
       0.12937672 -0.15151265 0.06885319 -0.15055051
000210 46 14 03 3f af a5 cd 3e b9 f8 29 bf d8 85 c2 3d
       0.5120281 0.4016547 -0.66395146 0.09498185
000220 ef 25 38 bf f0 d8 64 be 8e 15 8b be 08 68 25 be
       -0.7193288 -0.2234838 -0.27164882 -0.16152966
000230 19 fc cc bd 4a 10 3d 3b bd 5c c8 3d e4 67 3a bd
       -0.10009021 0.002884882 0.097833134 -0.045509234
000240 7a e1 20 3d 68 29 42 3e 86 68 51 3e 14 6c c8 3d
       0.03927753 0.18961108 0.20450029 0.09786239
000250 38 da ca 3e 48 cb da bd 8b ec c9 3e 6b 54 47 be
       0.39619613 -0.10683304 0.3943828 -0.19465797
000260 50 a4 16 bf 3f 1e 77 bd e2 ce 39 3e 96 4b 64 3d
       -0.5884447 -0.06033158 0.18145326 0.055736147
000270 0d 22 51 be ec 27 05 be 9e df 69 bf ce 8b 97 3d
       -0.20423146 -0.1300351 -0.9135684 0.073997125
000280 60 93 07 3c 48 a7 b6 bd 9f 52 a3 bd e9 56 32 3e
       0.008274883 -0.08918625 -0.07974743 0.17415966
000290 f5 01 3e be cf cd bc bd 62 3c 63 3e 06 be 82 3d
       -0.18555434 -0.092189424 0.22191003 0.063839
0002a0 87 72 fb be 42 5b 4a be b0 ae ba bf 2a 3d 39 bf
       -0.49110815 -0.19761375 -1.458456 -0.72358954
0002b0 27 c4 8a be c3 3b ef bb 7d b0 bd be 7c 08 10 bd
       -0.27102777 -0.0073008253 -0.37048712 -0.03516434
0002c0 25 be 67 3e bb 0c 86 3e fe c7 5a be 05 7a e3 3d
       0.22631128 0.26181588 -0.21365353 0.11107258
0002d0 c4 0f 5a bc 1a e5 31 bd 47 ec 94 3e 4e bc 5a 3e
       -0.013309423 -0.04343138 0.29086515 0.21360895
0002e0 07 b9 7d 3c b5 f6 02 3e a4 04 4e be be a5 d1 3d
       0.0154860085 0.12789424 -0.20118958 0.10236691
0002f0 fe ca 41 3f 90 8a f6 ba 2c 17 0b bc 25 e2 e8 3b
       0.75700366 -0.0018809605 -0.008489411 0.0071070367
000300 c2 d5 69 be 16 67 ea 3c fc 2f ce 3d 5b 65 db 3e
       -0.22835448 0.028613608 0.10067746 0.42850766
000310 6e e3 bd be 74 7e 0b 3e d7 98 82 bd 30 89 5d 3f
       -0.37087578 0.13622457 -0.06376808 0.86537457
000320 93 72 ce be 87 ab 93 3d 45 ac 5d be ba 78 02 be
       -0.40321788 0.072104506 -0.21647747 -0.12741366
000330 3e 9c cb bd 75 91 1c be 20 89 27 3d dc 7d 16 be
       -0.0994191 -0.15289862 0.040902257 -0.14696449
000340 32 4a 74 be ca 39 95 3d d8 d2 fd bc f8 59 f2 3c
       -0.23856428 0.07286413 -0.030984327 0.029583916
000350 1e 02 62 be 90 fd 88 3e a4 ca da 3d 53 e6 83 be
       -0.2207112 0.26755953 0.10683182 -0.2576166
000360 e1 93 a1 3e 8b 97 33 bf 60 01 29 bd 89 1e fa be
       0.31558135 -0.7015311 -0.041261077 -0.4885142
000370 e8 73 c4 3d 2e b8 1c bf 86 4a 8a bd b9 95 d1 3e
       0.0959242 -0.61218536 -0.067524955 0.40934542
000380 1c 1a 01 3e e5 71 3e 3e 63 4a f7 3e 31 35 0f be
       0.12607616 0.18598135 0.4829894 -0.13985135
000390 fb 0e 3b 3f f7 6b 31 3c 85 e6 96 bd d5 8d 0e 3f
       0.73069733 0.0108289635 -0.07368187 0.5568517
0003a0 4d b6 d3 3e fa 8d a6 be 34 12 8b 3c e4 de 2e bf
       0.41350022 -0.32530195 0.016976453 -0.68308854
0003b0 69 dc 7c be 02 1b f1 bd 49 d4 18 bd 6c f9 3a bd
       -0.24693455 -0.117727295 -0.037311826 -0.045648023
0003c0 f8 be 04 be 44 e2 cf 3e 84 f3 9b 3e e2 01 95 3e
       -0.12963474 0.40602314 0.30459225 0.29103
0003d0 0c 98 28 3e 4a 62 12 bd 7a 7f c2 bd db 76 af bd
       0.16464251 -0.035738267 -0.094969705 -0.08567592
0003e0 8b 02 aa 3e 93 98 85 3e ce 58 b5 3e 64 76 44 3f
       0.33205065 0.26092967 0.35419315 0.7674315
0003f0 2d 2e de bd 76 05 42 3f fc 09 b5 3d 5c ef cb be
       -0.10848651 0.7578958 0.08839795 -0.39831054

encoder.trans_layer.trans_layers.0.ff.0.bias f4 [64]
000000 cc 6b cc 3e 90 4c 95 3e e8 6d 5f 3f 78 72 27 3f
       0.39925992 0.29159975 0.8727708 0.6540904
000010 a6 9a f9 bd ce 31 4b be ef d2 49 3d ba 01 61 3f
       -0.121877 -0.19843218 0.049273428 0.8789326
000020 2d f7 8c 3e 49 ab 22 3e 0d 20 2e bd 3a 08 33 3f
       0.2753233 0.15885653 -0.042511035 0.6993443
000030 2d 45 23 3e 51 ed 96 bd 8e 27 70 3e 90 65 4f bd
       0.15944357 -0.07369483 0.23452589 -0.050633967
000040 ea d6 19 bf 0b c7 f5 3e 9f 8b 6c be c5 d7 90 be
       -0.6009356 0.4800342 -0.23100136 -0.2828962
000050 af aa 9f 3e 87 f2 5d 3f 2e 8e bf 3e 59 fa 4f be
       0.3118491 0.8669819 0.37413162 -0.20310344
000060 ac 71 d1 3e f0 80 88 3e f6 d2 95 3d cb c0 b6 3e
       0.40907037 0.26660872 0.07315628 0.35693964
000070 01 9e 7e 3c 82 56 58 3d 55 7f 78 be 2d e9 ea 3d
       0.015540601 0.052816875 -0.24267323 0.11470256
000080 b0 ce 9f 3e 0a 85 40 3f 0c 2d 68 3f e9 28 b0 be
       0.31212378 0.75203 0.90693736 -0.34406212
000090 3b 57 77 3e cd 2f 34 3f 77 e8 01 be a6 af 52 3e
       0.2415437 0.7038544 -0.12686335 0.20574817
0000a0 06 fd a5 3e 9a a7 1f be 0a 55 43 3e 13 c0 1a 3f
       0.32419604 -0.15591279 0.19075409 0.6044933
0000b0 39 5e 47 3f 32 39 3d 3e 70 83 a2 3b e2 2d fd bd
       0.7787815 0.1847885 0.004959516 -0.12362267
0000c0 24 3a 2a 3f fb 8d ee 3e df 30 df 3e 82 c5 80 3e
       0.66494966 0.46592698 0.43591973 0.25150687
0000d0 15 b2 08 3e db 20 50 3f 3d 60 09 3f d6 14 d5 3e
       0.13349183 0.81300133 0.5366247 0.4161746
0000e0 4d ab 6c 3e 41 14 78 be ea ad 89 3d 56 5d ad bc
       0.23112221 -0.24226476 0.067226246 -0.02116267
0000f0 43 25 6f bd b1 f5 1a 3f e0 4d 01 be 77 80 1d 3f
       -0.058385145 0.60531145 -0.12627363 0.61524147
