AGCRN/pre-trained/PEMS03.pth (torch, 803629 bytes, 40 tensors)

node_embeddings f4 [358, 2]
0.40403563 0.9653936 0.39764693 0.982989 0.3821338 0.39987618 0.3890566 0.38599217
0.44075817 0.7932232 0.36632046 0.40378582 0.22413707 0.562197 0.5796653 0.83575886
0.58699644 0.81882155 0.94904655 0.38053846 0.6947509 0.1896553 -0.08517265 0.61292183
-0.2814824 0.51610315 0.5641083 -0.44834208 -0.16547889 0.41448188 0.63605577 0.21233271
0.85046613 0.051783077 0.38364637 0.7683959 0.76041704 -0.51835096 0.8944663 -0.6271624
0.3718287 0.5937448 0.041561604 0.5479221 -0.10508782 1.1784751 0.78118956 -0.56640303
1.2877597 -0.20019937 -0.20028695 0.9212943 -0.20091507 0.92123425 1.2621803 -0.6489025
-0.37848654 -0.81248176 -0.5981024 -0.0033485673 -0.20089477 0.92124367 0.9679106 -0.42288882
-0.40343902 1.2492882 -0.200916 0.9212333 -0.20402503 0.92228895 0.85060614 0.7642369
-0.1370709 0.49339953 -0.13295922 1.1708237 1.3974904 0.4564603 -0.11341626 1.1822665
-0.15955456 1.154252 -0.1584079 1.1618745 1.3336446 0.37252438 -0.09558189 1.1679664
1.2837654 0.3613177 -0.09232766 1.1408917 -0.20087609 0.92125684 1.0874665 -0.23172097
-0.08730302 1.1552924 -0.53731287 0.26240274 -0.077437095 1.1253084 -0.07476402 1.1147656
1.2967827 0.36821467 0.15081786 0.16044606 -0.0634666 1.1020759 -0.019416042 1.0036758
0.939114 -0.46372542 -0.20090082 0.92123926 -0.2013824 0.9208092 1.452123 0.90299374
-0.08058324 0.9444153 0.26536903 0.47251523 -0.2009076 0.92122924 -0.6265034 -0.1397801
0.7771001 1.0796931 1.2894032 0.21450865 1.0519574 -0.22941044 1.2835703 0.57289684
-0.5037924 1.09017 1.3035225 -0.13716228 -0.013970584 -0.52975464 1.3745196 -0.2753429
-0.31984523 1.3218936 1.3957154 0.20100263 -0.29322815 1.2452158 -0.2946762 1.2561656
0.03909379 0.38017485 1.2249563 -0.5074399 1.5886129 -0.5930138 0.6650599 1.293375
-0.5787808 -0.23068224 0.4750217 0.5410362 -0.75380147 0.21659014 0.81976587 0.18197638
0.29897565 1.291278 0.25464982 0.27543187 1.6650041 0.19134502 1.7702625 0.21814601
0.26673883 1.4020028 -0.3855513 1.6119449 -0.20093413 0.9212269 -0.41249177 1.6551632
1.5209426 -0.20285247 1.5238987 -0.20145807 0.032624125 0.5454961 1.4622695 -0.2161369
-0.7669942 0.2248386 1.5370792 -0.2227432 0.16738893 0.14496572 0.19929537 0.65217566
0.287413 0.29435438 1.1628493 0.07043959 0.13895455 0.4935315 0.19109342 0.66285425
0.019162172 0.9521709 1.2084486 0.33608776 0.1873502 0.13268471 0.61637205 0.4854137
1.2119809 0.37723818 0.20216452 0.11833323 0.78507066 0.2962748 0.84989375 0.11896786
0.22100914 0.0030212926 0.612605 0.4473629 0.82186383 -0.30610943 0.20369795 0.2703204
0.33683175 0.5665488 0.7662339 0.25210306 0.7487969 0.22134623 0.60471547 0.41823137
0.23221864 0.97337437 0.2712947 0.668696 0.19868603 0.28515086 0.33672702 0.56024915
0.5673213 0.47134522 0.81501484 0.44133347 0.2787557 0.66150475 0.14589958 0.37062067
00000000: c2dd ce3e 0924 773f 6198 cb3e 2ba5 7b3f
00000010: 0ba7 c33e 92bc cc3e 6d32 c73e c4a0 c53e
00000020: 0eab e13e ad10 4b3f 5b8e bb3e 04bd ce3e
00000030: 3084 653e 25ec 0f3f f264 143f 4bf4 553f
00000040: 6645 163f 4a9e 513f b7f4 723f f0d5 c23e
00000050: 32db 313f 0035 423e 006f aebd 72e8 1c3f
00000060: 761e 90be 561f 043f 6769 103f 188d e5be
00000070: 4c73 29be f836 d43e 8dd4 223f bf6d 593e
00000080: 26b8 593f 7e1a 543d 4c6d c43e 98b5 443f
00000090: b1aa 423f a6b2 04bf befb 643f b78d 20bf
000000a0: 5560 be3e a9ff 173f 803c 2a3d 9f44 0c3f
000000b0: 4838 d7bd 46d8 963f 0afc 473f caff 10bf
000000c0: 4fd5 a43f 1001 4dbe 0618 4dbe f1d9 6b3f
000000d0: aebc 4dbe 02d6 6b3f 208f a13f 791e 26bf
000000e0: fdc8 c1be cefe 4fbf 3d1d 19bf a373 5bbb
000000f0: 5cb7 4dbe a0d6 6b3f fdc8 773f e284 d8be
00000100: 8f8f cebe ade8 9f3f edbc 4dbe f2d5 6b3f
00000110: f0eb 50be 211b 6c3f 53c1 593f 08a5 433f
00000120: 505c 0cbe dd9e fc3e 7626 08be 8ddd 953f
00000130: f7e0 b23f 2ab5 e93e c946 e8bd 8254 973f
00000140: 4562 23be 88be 933f ae35 22be 4eb8 943f
00000150: deb4 aa3f 84bb be3e 70c0 c3bd ec7f 953f
00000160: 6d52 a43f a2fe b83e 4916 bdbd bd08 923f
00000170: 76b2 4dbe 7dd7 6b3f 1a32 8b3f 4348 6dbe
00000180: edcb b2bd 9fe0 933f 568d 09bf a759 863e
00000190: 5797 9ebd 1b0a 903f e11d 99bd a4b0 8e3f
000001a0: fafc a53f a286 bc3e ff6f 1a3e f94b 243e
000001b0: c7fa 81bd d310 8d3f 640e 9fbc 7378 803f
000001c0: c669 703f 6b6d edbe f2b8 4dbe 56d6 6b3f
000001d0: 3037 4ebe 27ba 6b3f 2bdf b93f 992a 673f
000001e0: d308 a5bd 33c5 713f 73de 873e 84ed f13e
000001f0: b9ba 4dbe aed5 6b3f 8762 20bf 8422 0fbe
00000200: 08f0 463f 6233 8a3f 2a0b a53f 28a8 5b3e
00000210: 8aa6 863f 92ea 6abe 084c a43f 5ea9 123f
00000220: 8af8 00bf b18a 8b3f d3d9 a63f 4574 0cbe
00000230: e0e4 64bc 009e 07bf 42f0 af3f bff9 8cbe
00000240: c1c2 a3be cf33 a93f cda6 b23f a2d3 4d3e
00000250: 0022 96be 3b63 9f3f cddf 96be 09ca a03f
00000260: cf20 203d 47a6 c23e 5ecb 9c3f 95e7 01bf
00000270: ab57 cb3f c1cf 17bf 5e41 2a3f 508d a53f
00000280: fa2a 14bf f737 6cbe 0b36 f33e 5981 0a3f
00000290: 22f9 40bf cec9 5d3e 2ddc 513f 0458 3a3e
000002a0: 5613 993e 9948 a53f 7661 823e 6805 8d3e
000002b0: db1e d53f f3ef 433e f697 e23f ab61 5f3e
000002c0: fe91 883e d474 b33f fb66 c5be 3654 ce3f
000002d0: adc1 4dbe 87d5 6b3f 1f32 d3be 63dc d33f
000002e0: 3fae c23f 8fb8 4fbe 1d0f c33f 064b 4ebe
000002f0: e0a0 053d a2a5 0b3f a62b bb3f fe52 5dbe
00000300: bb59 44bf 173c 663e 03bf c43f cb16 64be
00000310: 0168 2b3e e571 143e 1614 4c3e fcf4 263f
00000320: cc27 933e 9eb5 963e 3fd8 943f a242 903d
00000330: 1a4a 0e3e 29b0 fc3e fead 433e d1b0 293f
00000340: fdf9 9c3c 79c1 733f 72ae 9a3f b213 ac3e
00000350: bbd8 3f3e 80de 073e 8fca 1d3f 2588 f83e
00000360: 3122 9b3f 5d25 c13e 3704 4f3e b158 f23d
00000370: 64fa 483f 55b1 973e a392 593f 6ca5 f33d
00000380: 3850 623e e100 463b aed3 1c3f c00c e53e
00000390: ab65 523f 60ba 9cbe 3296 503e 6f67 8a3e
000003a0: 3675 ac3e 5809 113f e827 443f a713 813e
000003b0: 27b1 3f3f 96a8 623e a2ce 1a3f 6c22 d63e
000003c0: b9ca 6d3e 102f 793f 24e7 8a3e a92f 2b3f
000003d0: 5a74 4b3e 4bff 913e 7c67 ac3e 7d6c 0f3f
000003e0: f83b 113f 2954 f13e d0a4 503f 76f6 e13e
000003f0: 11b9 8e3e 6058 293f b366 153e fec1 bd3e

encoder.trans_layer_T.trans_layers.0.qff.weight f4 [64, 64]
0.13784347 0.19086811 -0.07875298 0.21493529 -0.09492422 -0.15659845 0.15186198 0.14909431
0.12274267 -0.20994917 -0.03941454 0.15434344 0.06547978 0.0668825 0.014605351 0.11360079
-0.118182346 -0.050717067 -0.17780831 -0.16863173 0.036970116 0.14803746 -0.010059382 -0.2157009
0.15331103 -0.025756104 -0.12047426 0.07126638 -0.10035311 0.024129778 0.14734747 0.1413523
0.14120972 0.19502665 -0.19626637 -0.1721828 0.18332146 -0.09391597 0.038153484 0.13438164
0.13135323 0.18124154 -0.19326255 0.07199504 -0.016405452 0.18729043 0.19649005 0.15964681
-0.11034982 0.21600755 0.06645362 -0.18202192 0.13242352 -0.17101689 -0.048180167 -0.17214297
-0.18682557 -0.12345123 -0.16321985 0.1786059 0.18578328 0.12981258 -0.15025723 -0.10885921
-0.07532941 0.04864662 0.030121004 -0.046740238 0.012636106 0.113665156 0.21473883 0.1133384
0.13158828 -0.18634665 0.1779986 0.17060511 0.048099976 -0.17440413 0.11787426 -0.061503466
0.06785279 -0.035753634 0.15523107 0.19481036 -0.11109838 -0.09211372 0.15923512 -0.027731916
0.17695257 0.12670748 -0.13614264 -0.09184806 0.059717584 -0.10266341 0.021933435 0.08748419
-0.10478624 -0.12659204 0.1021935 0.15690939 0.10204796 -0.035815407 -0.06634951 -0.15619351
-0.12196927 0.09592859 -0.014371296 0.14021637 0.207643 0.11224744 0.03533389 -0.10600522
0.05492565 -0.106625855 0.043644626 -0.12979345 0.16133492 -0.17667508 -0.0319616 0.15345259
-0.04294276 0.012230458 -0.071848944 0.11123905 -0.1538479 -0.20397693 0.19271556 -0.03161622
0.107413225 0.0112612825 0.009596823 -0.07457443 -0.19412003 0.16744813 0.009601417 -0.00013295798
-0.12973669 -0.039272986 0.18686019 0.12799455 -0.14638579 0.16344805 0.17293577 0.098971896
-0.10040051 0.20255171 0.19701073 -0.076455414 -0.19357729 0.0684447 -0.08621121 -0.06629949
0.076901235 -0.2097629 -0.10729779 -0.082011744 0.088354744 -0.19064741 0.14301105 -0.12519346
-0.20961046 0.11649404 0.12839393 0.032965787 0.036248866 -0.12597674 0.10697351 -0.14453289
-0.018226858 -0.1607031 -0.16105878 0.097746745 0.14423682 0.14656018 0.064470105 0.0349197
-0.052573975 0.11399281 0.030732589 0.071186274 -0.21115936 -0.0036726885 0.1552908 0.09571835
0.19938461 -0.1412971 -0.09529139 0.13987501 0.04134316 0.001166644 -0.09732961 0.0018635798
-0.20107247 0.21266381 -0.09310836 0.17477578 -0.11466955 -0.20505945 -0.09773832 0.1295242
0.042790018 -0.16665691 0.08439716 -0.20012327 0.14754076 0.08319709 0.11106322 0.012130987
0.01243234 0.04818058 0.21218657 -0.05759872 0.14953792 -0.014603337 -0.16633415 -0.042366665
0.14242448 -0.18845932 -0.03534495 0.13824807 -0.17713413 0.077667624 -0.20836921 0.19719844
0.03756299 0.1437655 -0.09333894 0.0069164224 0.062163893 -0.14732687 -0.05765126 0.06521781
-0.19672853 -0.15335345 -0.024943953 -0.18867758 -0.07692144 0.21425565 0.06588955 0.19210689
0.20337406 -0.17926434 -0.10621602 0.13752814 0.20180783 0.18103907 0.08529897 -0.13064283
-0.17213857 -0.13894883 -0.1682699 0.15325567 -0.21410562 -0.13213211 0.002191284 -0.15974738
00000000: d726 0d3e ee72 433e 3e49 a1bd ff17 5c3e
00000010: a167 c2bd 585b 20be b581 1b3e 2eac 183e
00000020: 8260 fb3d eafc 56be 2471 21bd 350c 1e3e
00000030: 431a 863d b1f9 883d 484b 6f3c 88a7 e83d
00000040: 9609 f2bd b3bc 4fbd 6213 36be ccad 2cbe
00000050: fa6d 173d 2297 173e 1bd0 24bc b2e0 5cbe
00000060: 91fd 1c3e 77fe d2bc 35bb f6bd 1cf4 913d
00000070: ee85 cdbd d0ab c53c 41e2 163e a8be 103e
00000080: 4899 103e 11b5 473e 0dfa 48be b050 30be
00000090: 9fb8 3b3e 0457 c0bd d446 1c3d 579b 093e
000000a0: 7681 063e 6297 393e 9ee6 45be 2372 933d
000000b0: ba64 86bc 10c9 3f3e b034 493e 747a 233e
000000c0: 16ff e1bd 1531 5d3e d618 883d f463 3abe
000000d0: 089a 073e 0d1f 2fbe 9158 45bd 3f46 30be
000000e0: 344f 3fbe 00d4 fcbd 1b23 27be 77e4 363e
000000f0: f93d 3e3e 97ed 043e 08dd 19be 94f1 debd
00000100: 4e46 9abd ae41 473d 53c0 f63c b172 3fbd
00000110: ac07 4f3c 47c9 e83d 7fe4 5b3e f71d e83d
00000120: 14bf 063e a8d1 3ebe 4445 363e 1bb3 2e3e
00000130: 7b04 453d ff96 32be 0f68 f13d 0feb 7bbd
00000140: 67f6 8a3d 6772 12bd e5f4 1e3e 5e7c 473e
00000150: 8c87 e3bd 1ea6 bcbd 880e 233e 0b2e e3bc
00000160: 0e33 353e 9bbf 013e fa68 0bbe d61a bcbd
00000170: 6d9a 743d 3241 d2bd bfad b33c e92a b33d
00000180: 2b9a d6bd 58a1 01be d34a d13d dbac 203e
00000190: 85fe d03d 2db3 12bd 40e2 87bd 31f1 1fbe
000001a0: 06cb f9bd 3576 c43d 9675 6bbc e194 0f3e
000001b0: 5ea0 543e fce1 e53d 45ba 103d 4419 d9bd
000001c0: b8f9 603d a85e dabd b5c4 323d 93e8 04be
000001d0: fb34 253e 50ea 34be 2bea 02bd ad22 1d3e
000001e0: bfe4 2fbd 4262 483c 8a25 93bd 4dd1 e33d
000001f0: 4e8a 1dbe 54df 50be 3a57 453e 0280 01bd
00000200: 77fb db3d 3e81 383c fe3b 1d3c 7bba 98bd
00000210: 67c7 46be 8677 2b3e 434f 1d3c a36a 0bb9
00000220: b2d9 04be b6dc 20bd 4758 3f3e 0111 033e
00000230: 28e6 15be ed5e 273e 1316 313e c7b1 ca3d
00000240: c89e cdbd b769 4f3e 2ebd 493e a894 9cbd
00000250: 2039 46be bc2c 8c3d 818f b0bd 07c8 87bd
00000260: 657e 9d3d 16cc 56be f2be dbbd c6f5 a7bd
00000270: 55f3 b43d 1339 43be 7d71 123e b732 00be
00000280: 20a4 56be 6d94 ee3d b379 033e 2207 073d
00000290: b179 143d 0c00 01be ed14 db3d 6e00 14be
000002a0: 7e50 95bc 5a8f 24be 98ec 24be 722f c83d
000002b0: d1b2 133e df13 163e e708 843d f607 0f3d
000002c0: cf57 57bd 1075 e93d e9c2 fb3c 1cca 913d
000002d0: 293a 58be 7db1 70bb 8d04 1f3e fb07 c43d
000002e0: 7b2b 4c3e 30b0 10be 2228 c3bd 653b 0f3e
000002f0: 7257 293d 14ea 983a bf54 c7bd 5d43 f43a
00000300: f1e5 4dbe 8bc4 593e 99af bebd 6cf8 323e
00000310: ded7 eabd 1bfb 51be 072b c8bd fea1 043e
00000320: 9644 2f3d 1ca8 2abe 6bd8 ac3d 1ded 4cbe
00000330: ed14 173e 3c63 aa3d 1d75 e33d 0cc1 463c
00000340: 03b1 4b3c 0059 453d 7047 593e a3ec 6bbd
00000350: 7820 193e d642 6fbc 8053 2abe ab88 2dbd
00000360: b9d7 113e 7bfb 40be dec5 10bd e790 0d3e
00000370: a662 35be 3410 9f3d bd5e 55be 63ee 493e
00000380: a6db 193d 4337 133e 7c28 bfbd 28a3 e23b
00000390: 919f 7e3d dbdc 16be ba23 6cbd ea90 853d
000003a0: 3473 49be b008 1dbe 4357 ccbc b234 41be
000003b0: fd88 9dbd d565 5b3e 1af1 863d abb7 443e
000003c0: 4a41 503e 1291 37be c987 d9bd 2dd4 0c3e
000003d0: b6a6 4e3e 4e62 393e 3ab1 ae3d 3cc7 05be
000003e0: 1845 30be 9a48 0ebe f24e 2cbe 0eef 1c3e
000003f0: 813e 5bbe a44d 07be a59b 0f3b d194 23be

encoder.trans_layer_T.trans_layers.0.qff.bias f4 [64]
0.68514574 0.22175957 0.942284 0.6373326 0.9843996 0.552928 0.6532282 0.32978025
0.65094614 0.19834578 0.6495479 0.6699778 0.13066755 0.3370794 0.97027475 0.23761483
0.4390708 0.49243087 0.69715106 0.023712711 0.7796576 0.12655655 0.44133908 0.22261478
0.79542416 0.22997037 0.25401637 0.8996623 0.79688656 0.17490692 0.6857221 0.99414694
0.098980054 0.5643006 0.77922314 0.4053012 0.2424155 0.06912444 0.17411704 0.031703282
0.75640726 0.93290067 0.031394087 0.8292691 0.648083 0.6648245 0.088058464 0.7023579
0.93009675 0.9243667 0.8434448 0.69119936 0.58496565 0.45673835 0.41064072 0.011518824
0.39240944 0.92569065 0.74253553 0.67285204 0.98467654 0.40013587 0.60527265 0.40460655
00000000: b665 2f3f f114 633e 8639 713f 3b28 233f
00000010: 9d01 7c3f b08c 0d3f f739 273f f5d8 a83e
00000020: 68a4 263f 281b 4b3e c548 263f aa83 2b3f
00000030: b7cd 053e ac95 ac3e ed63 783f 4d51 733e
00000040: e3cd e03e e61f fc3e 7e78 323f 2941 c23c
00000050: a497 473f 0a98 013e 32f7 e13e 21f5 633e
00000060: eba0 4b3f 5a7d 6b3e 6f0e 823e 4550 663f
00000070: c200 4c3f cd1a 333e 7c8b 2f3f 6a80 7e3f
00000080: 0eb6 ca3d 0176 103f 2b7b 473f a483 cf3e
00000090: c53b 783e 1d91 8d3d bd4b 323e 4ddb 013d
000000a0: e8a3 413f 94d2 6e3f 1697 003d fb4a 543f
000000b0: c4e8 253f f031 2a3f ff57 b43d bacd 333f
000000c0: d21a 6e3f 4ca3 6c3f 00ec 573f 71f2 303f
000000d0: 4fc0 153f 9cd9 e93e 803f d23e 73b9 3c3c
000000e0: e4e9 c83e 10fa 6c3f cf16 3e3f 0840 2c3f
000000f0: c313 7c3f 9cde cc3e 26f3 1a3f 9728 cf3e

encoder.trans_layer_T.trans_layers.0.kff.weight f4 [64, 64]
0.1441533 -0.050037798 -0.08394355 -0.12635344 0.013872566 -0.0019849236 0.042312205 0.19455236
-0.10136585 0.13169092 0.1816889 -0.034200426 -0.07831654 0.20243363 -0.1407887 -0.12696272
-0.10203983 -0.21645409 -0.1315991 -0.17189588 0.21030772 -0.11162523 0.09448596 0.042237487
0.024117002 -0.08657616 -0.08792236 -0.016075747 0.027909305 -0.08715264 0.18068546 0.08813753
-0.1991362 -0.16363335 0.20069179 -0.13059133 -0.07969923 0.090507574 0.061824214 0.003229835
0.12724945 0.031087082 -0.07908233 -0.13239196 0.14338742 -0.1351004 -0.08024454 -0.08454799
-0.20301542 -0.13210419 -0.014956038 0.19399416 -0.18954244 0.06852665 -0.071778476 0.15464602
0.16769707 -0.20934407 -0.18586834 0.010434524 0.11464176 0.07314122 0.032537658 0.053856954
-0.12295857 0.09195415 0.038369767 0.016564658 -0.14428122 -0.009414259 -0.022337433 -0.1270096
0.03731163 -0.21103719 -0.0040689427 0.14677803 0.12066701 0.088246554 0.06277814 -0.09906238
-0.051281907 -0.12224993 -0.02766889 0.1821472 -0.19878486 -0.10525463 0.12644234 0.15850773
-0.17823875 -0.03362727 0.07590354 -0.15030898 0.088848665 -0.030312434 -0.10015036 -0.049967993
-0.11263295 0.06390725 0.12556359 0.046680268 -0.06671404 -0.14594926 -0.070735544 0.17217761
-0.007329995 -0.09880113 -0.106547326 -0.03311183 0.16647853 -0.00204315 0.15391433 -0.08286838
-0.086559236 0.19871357 -0.0007315335 0.020946246 -0.033246893 0.009791479 0.1909308 0.044776425
-0.00891887 0.0543908 0.17523111 -0.20433328 -0.114213645 -0.04119642 -0.03946146 0.079160735
0.065678746 -0.20994651 0.06237091 -0.12005441 -0.06511193 -0.12749964 0.1941079 -0.11998982
-0.07545092 0.1605176 0.18872802 -0.15358618 0.13950293 0.081964165 -0.15615572 -0.024251444
0.20772888 0.1035071 -0.121653885 0.11722605 -0.08867818 0.035125248 0.07898148 0.20382793
-0.07351476 -0.1933275 0.16538082 -0.07204858 -0.042696923 0.015561982 -0.1633778 -0.10068721
-0.18869929 0.13974807 -0.01282671 -0.14234829 -0.14360496 0.19795592 0.06403465 0.07745792
0.093521744 0.20150466 0.1161093 -0.0141144525 -0.21597074 -0.09443702 0.13300733 0.116615295
0.15544046 -0.082200386 0.18612789 0.025647638 0.17897846 -0.050177414 -0.16918911 -0.16435276
-0.07236835 -0.12230109 0.14669198 -0.027300239 -0.05594681 -0.049517684 -0.14684631 -0.14154266
-0.1990752 -0.004651594 0.16463162 -0.20511927 -0.20552024 0.040167406 -0.043492116 -0.09448146
-0.2038479 0.012216107 0.1254832 -0.008276174 0.096831255 -0.13042119 -0.1946545 0.14443736
0.053744633 -0.18901232 0.2028919 -0.10246575 -0.12138895 0.019948756 0.13086183 0.07320561
0.12840751 0.17395887 0.14235415 -0.08251917 -0.049243998 0.07181107 -0.12672493 -0.19151832
-0.14440806 0.050449524 0.19756256 0.12331316 -0.21377932 -0.044843763 0.0019983833 0.052242048
-0.10613382 0.16565035 -0.13048318 -0.036760904 -0.025225833 0.002404471 0.14698862 -0.14536195
0.14241087 -0.1451033 0.1666036 -0.15499811 -0.05669274 -0.1252183 -0.15672244 0.17884311
-0.20135988 0.18186012 -0.14984801 0.16125996 0.15196018 -0.083706185 0.031072758 -0.20839489
00000000: ec9c 133e 6ff4 4cbd 99ea abbd cc62 01be
00000010: c249 633c 7e15 02bb 904f 2d3d bc38 473e
00000020: e698 cfbd fcd9 063e a80c 3a3e bf15 0cbd
00000030: 6c64 a0bd c34a 4f3e ea2a 10be 8402 02be
00000040: 42fa d0bd 24a6 5dbe eac1 06be 7905 30be
00000050: e85a 573e c59b e4bd db81 c13d 3701 2d3d
00000060: 0591 c53c d74e b1bd a310 b4bd 49b1 83bc
00000070: 0ea2 e43c 157d b2bd 9c05 393e 7381 b43d
00000080: 5cea 4bbe 808f 27be 2682 4d3e bcb9 05be
00000090: 5a39 a3bd 095c b93d 633b 7d3d a4ab 533b
000000a0: ae4d 023e 56aa fe3c ebf5 a1bd c291 07be
000000b0: 27d4 123e c257 0abe 4057 a4bd 7f27 adbd
000000c0: 46e3 4fbe 5246 07be 2c0a 75bc 68a6 463e
000000d0: 6a17 42be b357 8c3d 9800 93bd 875b 1e3e
000000e0: c8b8 2b3e 4b5e 56be 4554 3ebe 91f5 2a3c
000000f0: 4dc9 ea3d 10cb 953d 3546 053d 1c99 5c3d
00000100: b4d1 fbbd 7552 bc3d 9e29 1d3d 9bb2 873c
00000110: 75be 13be 443e 1abc fefc b6bc ce0e 02be
00000120: 14d4 183d 221a 58be c454 85bb fb4c 163e
00000130: 4420 f73d 9cba b43d d391 803d 38e1 cabd
00000140: fa0c 52bd 2c5e fabd dea9 e2bc cc84 3a3e
00000150: 428e 4bbe bd8f d7bd 1a7a 013e da4f 223e
00000160: 3884 36be c0bc 09bd 5173 9b3d 99ea 19be
00000170: 4af6 b53d c851 f8bc a21b cdbd 3dab 4cbd
00000180: 1bac e6bd cee1 823d be93 003e cf33 3f3d
00000190: 5fa1 88bd b973 15be ccdd 90bd 544f 303e
000001a0: 7430 f0bb 3f58 cabd 7c35 dabd 45a0 07bd
000001b0: 5979 2a3e 5ee6 05bb b89b 1d3e e6b6 a9bd
000001c0: f845 b1bd 927b 4b3e 62c4 3fba 7697 ab3c
000001d0: e52d 08bd 716c 203c 5d83 433e 7c67 373d
000001e0: 7420 12bc e3c8 5e3d c96f 333e be3c 51be
000001f0: d8e8 e9bd 94bd 28bd 57a2 21bd 061f a23d
00000200: 9482 863d 38fc 56be a478 7f3d 16df f5bd
00000210: 6759 85bd 448f 02be 39c4 463e 39bd f5bd
00000220: 0386 9abd ba5e 243e eb41 413e b245 1dbe
00000230: dbd9 0e3e d4dc a73d 49e7 1fbe f7aa c6bc
00000240: e1b6 543e 88fb d33d ac25 f9bd 3614 f03d
00000250: e89c b5bd 7edf 0f3d 0bc1 a13d 45b8 503e
00000260: e88e 96bd a5f7 45be 9759 293e 358e 93bd
00000270: f8e2 2ebd aff7 7e3c 834c 27be 1935 cebd
00000280: 633a 41be 1e1a 0f3e 1f27 52bc c0c3 11be
00000290: 2e0d 13be f5b4 4a3e 9924 833d 42a2 9e3d
000002a0: 5488 bf3d 3d57 4e3e b6ca ed3d 4e40 67bc
000002b0: 6f27 5dbe 3268 c1bd 1333 083e 00d4 ee3d
000002c0: c92b 1f3e ad58 a8bd 4f98 3e3e ff1a d23c
000002d0: 2146 373e d586 4dbd e93f 2dbe 174c 28be
000002e0: dc35 94bd fe78 fabd 6c36 163e c0a4 dfbc
000002f0: 7b28 65bd 0ed3 4abd e15e 16be 8ff0 10be
00000300: 5fda 4bbe 666c 98bb 3195 283e c90a 52be
00000310: e673 52be 9486 243d ca24 32bd 7f7f c1bd
00000320: 81bd 50be 1126 483c ab7e 003e ca98 07bc
00000330: 774f c63d 228d 05be 8253 47be 63e7 133e
00000340: 5523 5c3d 728c 41be e5c2 4f3e 90d9 d1bd
00000350: c59a f8bd 936b a33c a500 063e d3ec 953d
00000360: 427d 033e 4622 323e 49c5 113e d0ff a8bd
00000370: 13b4 49bd af11 933d 2ec4 01be 611d 44be
00000380: b5df 13be 29a4 4e3d d74d 4a3e 9c8b fc3d
00000390: f7e8 5abe 18ae 37bd 4ff7 023b c2fb 553d
000003a0: b05c d9bd 3fa0 293e 629d 05be 9a92 16bd
000003b0: 68a6 cebc 5494 1d3b 2f84 163e c3d9 14be
000003c0: 28d4 113e f695 14be 229a 2a3e d3b7 1ebe
000003d0: a636 68bd 3a39 00be d97b 20be a622 373e
000003e0: 4931 4ebe 8a39 3a3e c271 19be 5521 253e
000003f0: 739b 1b3e 266e abbd 4c8c fe3c 7865 55be

encoder.trans_layer_T.trans_layers.0.kff.bias f4 [64]
0.21108754 0.2766975 0.2850026 0.003125979 0.75402963 0.5461011 0.5533236 0.37873116
0.87896913 0.28933597 0.65231544 0.60799176 0.13674548 0.3136039 0.5899695 0.94375277
0.8864951 0.37226185 0.2165149 0.70272017 0.35847685 0.48325002 0.7730441 0.40527448
0.031748515 0.49256366 0.73118925 0.849781 0.2599757 0.39890352 0.8840543 0.061683875
0.040791895 0.46788764 0.21402954 0.94640654 0.6513827 0.22503066 0.307198 0.43509787
0.052887656 0.15725835 0.16263667 0.28264156 0.8564823 0.6104453 0.42810124 0.89206386
0.8424832 0.7261574 0.43231115 0.5654306 0.12192302 0.9038988 0.4079575 0.3384318
0.7602195 0.70725244 0.34070623 0.6972504 0.8878752 0.19294262 0.16431624 0.79941875
00000000: 5527 583e 4bab 8d3e dceb 913e 3add 4c3b
00000010: 1608 413f 48cd 0b3f 9ea6 0d3f 0de9 c13e
00000020: 1f04 613f d823 943e 25fe 263f 59a5 1b3f
00000030: 0207 0c3e b190 a03e 3e08 173f c899 713f
00000040: 58f1 623f 1b99 be3e 15b6 5d3e 78e5 333f
00000050: 478a b73e 8c6c f73e 38e6 453f 2380 cf3e
00000060: bb0a 023d 4e31 fc3e 382f 3b3f 3f8b 593f
00000070: 891b 853e 153d cc3e 6251 623f 3ba8 7c3d
00000080: 6715 273d f88e ef3e 8f2a 5b3e b347 723f
00000090: 04c1 263f 706e 663e 0e49 9d3e 26c5 de3e
000000a0: baa0 583d 5508 213e 3a8a 263e 65b6 903e
000000b0: 6d42 5b3f 2546 1c3f 1630 db3e 4c5e 643f
000000c0: fbac 573f 74e5 393f e357 dd3e 0fc0 103f
000000d0: c7b2 f93d e965 673f cedf d03e ef46 ad3e
000000e0: bf9d 423f 7f0e 353f 0c71 ae3e 017f 323f
000000f0: ca4b 633f c092 453e 8442 283e b5a6 4c3f

encoder.trans_layer_T.trans_layers.0.vff.weight f4 [64, 64]
0.09795804 -0.1759982 0.04868513 -0.07672027 -0.20066896 -0.03704024 -0.19907749 0.04553845
0.04398828 0.1546207 -0.21486121 -0.0822343 0.19662802 -0.11216541 0.118199326 0.040151402
-0.12117694 0.07242242 0.018786708 -0.047415428 -0.19720538 0.056979217 -0.21008576 0.08208153
0.062366396 -0.09597784 -0.19328597 0.015756613 0.07266493 -0.053303093 0.13065647 -0.105785765
-0.1511245 -0.061768595 0.13692136 -0.14792508 -0.2008406 0.0018302338 0.15045719 0.17705867
-0.07572929 0.10335664 -0.080602586 0.17840889 -0.1120512 -0.15556727 0.014009769 -0.02411224
-0.052867156 -0.0053214813 -0.033002205 -0.21217649 -0.16158782 -0.045334455 0.16811733 0.109015614
0.20772965 -0.15287535 0.20911185 -0.022479527 -0.15970607 -0.08477208 0.19180062 -0.13124347
-0.1532378 0.117137834 -0.18173449 0.19898064 0.04777498 -0.029240794 0.17980579 0.0423757
0.15618236 -0.042274613 -0.13679232 -0.056721624 -0.1295587 0.033054262 -0.004728287 -0.11736529
0.17107888 -0.11554725 0.11964542 0.080192596 0.05384813 0.17944887 -0.09294671 0.14818618
-0.21042077 0.048163287 0.12519132 -0.054555595 -0.05271993 -0.103914246 0.016748035 0.20196997
-0.12464843 -0.11532098 -0.016919166 -0.21221119 -0.06982692 -0.13037832 -0.21604347 0.06169137
-0.070006765 -0.0926242 -0.091754176 -0.15237296 -0.14406893 0.2143561 -0.02768871 -0.16048558
-0.10464248 0.19311234 -0.013415413 -0.117624536 0.025122568 -0.18045703 0.15117069 -0.20043951
0.13668166 -0.053276625 0.027532976 0.043180026 -0.19178839 -0.123574644 -0.095071115 -0.10972074
0.034986675 -0.20997857 0.048928127 0.06267753 0.12964538 -0.15041018 0.058030076 0.10854175
0.21198283 -0.21049713 0.19828796 0.05366844 0.17849365 -0.024527542 -0.008475372 0.19808644
0.05991761 -0.106702045 -0.04353181 0.077394456 -0.028182952 0.21021433 -0.05758831 0.14551313
-0.19857308 -0.05321853 0.21005698 -0.050639816 0.1302599 0.16841719 -0.0577913 0.04301505
-0.08295813 -0.11431978 -0.100222886 0.036481746 0.032297216 -0.04020523 0.043761283 0.07951662
0.17208277 0.11369432 -0.11397913 0.060522817 0.10186688 0.05109329 0.107628636 0.011953727
0.078392565 0.061860424 0.13990699 -0.062669024 -0.18513991 0.046211284 0.20831576 0.19018848
-0.10036047 0.047568325 -0.07046399 0.18678802 -0.007857129 -0.10462933 0.07726778 -0.037827857
0.116156556 -0.09042534 0.05918312 -0.12229582 -0.13145715 0.06911906 -0.16301326 0.01461903
-0.17706515 -0.056179933 0.025717195 0.09972099 -0.1885736 0.05594905 -0.17260396 0.15959804
-0.08179294 0.016029341 0.1836106 -0.06047338 -0.05213609 -0.16529733 -0.11008641 -0.21277998
-0.15929133 0.11201046 -0.15474631 0.09026122 0.18040846 0.18537833 -0.047409955 -0.0068485816
-0.18149684 -0.03047048 -0.20168924 0.07725751 0.09865524 -0.16098644 -0.021131648 0.032521475
-0.09708505 -0.17537072 -0.07795454 -0.1629009 -0.1925522 0.11822878 0.19141963 0.04248549
-0.13947128 0.10442324 0.118507445 -0.18890122 -0.14848499 -0.129971 -0.11592257 -0.20834167
-0.04853177 0.09544146 0.03064135 0.06552087 -0.16949672 -0.12491241 -0.143227 0.15071845
00000000: 3a9e c83d df38 34be 0f6a 473d 841f 9dbd
00000010: 2a7c 4dbe 82b7 17bd f8da 4bbe 8786 3a3d
00000020: 0e2d 343d e454 1e3e 9404 5cbe 756a a8bd
00000030: db58 493e fab6 e5bd 7d12 f23d cc75 243d
00000040: 9e2b f8bd 3552 943d 95e6 993c ae36 42bd
00000050: 35f0 49be 0a63 693d b920 57be 5c1a a83d
00000060: e873 7f3d 0890 c4bd c2ec 45be 0314 813c
00000070: 5ad1 943d 5854 5abd cfca 053e 35a6 d8bd
00000080: 62c0 1abe 1101 7dbd 1d35 0c3e ac79 17be
00000090: 29a9 4dbe 75e4 ef3a 7311 1a3e de4e 353e
000000a0: f517 9bbd a5ac d33d f812 a5bd d2b0 363e
000000b0: 197b e5bd 074d 1fbe 3b89 653c 0887 c5bc
000000c0: 3b8b 58bd d25f aebb 522d 07bd cb44 59be
000000d0: 4777 25be 9fb0 39bd f326 2c3e 9443 df3d
000000e0: 15b7 543e 5b8b 1cbe 6b21 563e fc26 b8bc
000000f0: fd89 23be fc9c adbd 6267 443e b064 06be
00000100: 5fea 1cbe f6e5 ef3d 9b18 3abe 95c1 4b3e
00000110: b3af 433d 648a efbc 021f 383e 2492 2d3d
00000120: 45ee 1f3e 2528 2dbd 4913 0cbe ef54 68bd
00000130: 09ab 04be e863 073d bfef 9abb 375d f0bd
00000140: 4d2f 2f3e 09a4 ecbd a808 f53d 043c a43d
00000150: db8f 5c3d 72c1 373e d85a bebd 1ebe 173e
00000160: 8b78 57be de46 453d 2732 003e b075 5fbd
00000170: daf0 57bd fed0 d4bd 2d33 893c 37d1 4e3e
00000180: ad47 ffbd 682d ecbd 109a 8abc e44d 59be
00000190: 6b01 8fbd e581 05be 803a 5dbe 17b0 7c3d
000001a0: b55f 8fbd c2b1 bdbd 9de9 bbbd a807 1cbe
000001b0: ce86 13be 2a80 5b3e 6fd3 e2bc 5556 24be
000001c0: cc4e d6bd 3ebf 453e 52cc 5bbc 22e5 f0bd
000001d0: d8cd cd3c bac9 38be 7dcc 1a3e 0440 4dbe
000001e0: 47f6 0b3e 9738 5abd d68c e13c 8add 303d
000001f0: 2d64 44be b414 fdbd a5b4 c2bd 44b5 e0bd
00000200: 304e 0f3d 9f04 57be dc68 483d 145d 803d
00000210: c2c1 043e 2005 1abe f2b0 6d3d 234b de3d
00000220: 0712 593e 8f8c 57be 000c 4b3e 70d3 5b3d
00000230: 0ac7 363e fced c8bc 49dc 0abc 2cd7 4a3e
00000240: 2b6c 753d 9a86 dabd 694e 32bd fc80 9e3d
00000250: efdf e6bc 6d42 573e b8e1 6bbd 6501 153e
00000260: be56 4bbe acfb 59bd 2d19 573e b26b 4fbd
00000270: da62 053e 8e75 2c3e 92b6 6cbd 8d30 303d
00000280: f4e5 a9bd 7d20 eabd a841 cdbd e26d 153d
00000290: 164a 043d 3dae 24bd 083f 333d 9cd9 a23d
000002a0: 7736 303e 91d8 e83d e46d e9bd c6e6 773d
000002b0: 959f d03d 3347 513d 676c dc3d 91d9 433c
000002c0: 488c a03d 5b61 7d3d c743 0f3e 9e58 80bd
000002d0: 5195 3dbe 0b48 3d3d ba50 553e c5c0 423e
000002e0: ca89 cdbd 01d7 423d 6d4f 90bd 5c45 3f3e
000002f0: 30bb 00bc e747 d6bd 923e 9e3d 62f1 1abd
00000300: 7de3 ed3d ec30 b9bd 006a 723d 3b76 fabd
00000310: b49c 06be 4b8e 8d3d f3ec 26be a884 6f3c
00000320: 9150 35be ee1c 66bd deac d23c 853a cc3d
00000330: 7019 41be d52a 653d 18bf 30be ab6d 233e
00000340: 0f83 a7bd f74f 833c 6b04 3c3e efb2 77bd
00000350: a78c 55bd b443 29be fc74 e1bd ffe2 59be
00000360: 441d 23be bd65 e53d d175 1ebe e0da b83d
00000370: ffbc 383e d1d3 3d3e f130 42bd 116a e0bb
00000380: 4fda 39be 3a9d f9bc a087 4ebe 2f39 9e3d
00000390: c20b ca3d a1d9 24be 471c adbc 3d35 053d
000003a0: 87d4 c6bd 6294 33be a1a6 9fbd 7ecf 26be
000003b0: 672c 45be ee21 f23d 8203 443e 4405 2e3d
000003c0: 8fd1 0ebe dadb d53d 08b4 f23d 526f 41be
000003d0: 730c 18be 1e17 05be d068 edbd 8557 55be
000003e0: 40c9 46bd d076 c33d 9203 fb3c ce2f 863d
000003f0: 8c90 2dbe 14d2 ffbd 19aa 12be f055 1a3e

encoder.trans_layer_T.trans_layers.0.vff.bias f4 [64]
0.90527344 0.48129258 0.8379854 0.9720627 0.9940619 0.80657655 0.4506398 0.6495549
0.33988672 0.08129542 0.37237674 0.61813 0.1410267 0.553856 0.67541695 0.167564
0.7402885 0.6502611 0.6671822 0.050151147 0.32878536 0.4207299 0.44310477 0.9013153
0.5307195 0.99991685 0.06437329 0.82582057 0.021828922 0.92999184 0.015204917 0.009003002
0.12475008 0.19266585 0.07818457 0.7522415 0.92778444 0.030424291 0.8956639 0.19305503
0.8990128 0.1523656 0.43038765 0.24571417 0.838629 0.21089266 0.44071165 0.60256284
0.54180473 0.07236284 0.6978653 0.4875151 0.31594038 0.40464684 0.8685029 0.26033354
0.9385508 0.31638104 0.6628767 0.69447494 0.24417229 0.087909594 0.64167 0.35368398
00000000: 00c0 673f fb6b f63e 3686 563f 1ad9 783f
00000010: d77a 7e3f cd7b 4e3f 43ba e63e 3b49 263f
00000020: a205 ae3e 377e a63d 2aa8 be3e c53d 1e3f
00000030: 4e69 103e 82c9 0d3f 20e8 2c3f e695 2b3e
00000040: 8c83 3d3f 8377 263f 74cc 2a3f 4a6b 4d3d
00000050: 8e56 a83e e969 d73e a1de e23e 99bc 663f
00000060: 3cdd 073f 8dfa 7f3f 25d6 833d fa68 533f
00000070: 91d2 b23c f213 6e3f 0b1e 793c 5481 133c
00000080: f87c ff3d 324a 453e 3b1f a03d e692 403f
00000090: 4883 6d3f 5d3c f93c 3b4a 653f 38b0 453e
000000a0: b425 663f ba05 1c3e c55b dc3e 7f9c 7b3e
000000b0: 64b0 563f 3ff4 573e f5a4 e13e 8f41 1a3f
000000c0: b7b3 0a3f f832 943d 4da7 323f 949b f93e
000000d0: f0c2 a13e df2d cf3e 3556 5e3f 704a 853e
000000e0: dd44 703f b2fc a13e 4ab2 293f 1cc9 313f
000000f0: 4d08 7a3e f209 b43d 7c44 243f 1116 b53e

encoder.trans_layer_T.trans_layers.0.ln.weight f4 [64]
0.52725124 0.952558 1.3523307 0.71002233 0.74955314 0.64679897 0.89177203 0.7923427
0.6483071 0.38174573 0.6038523 0.7068519 -0.3851806 1.1272566 0.8857976 0.99169165
0.94249386 0.73412246 0.37097266 0.77962804 0.88074464 0.712952 1.3383489 -0.46429852
0.984537 0.5565727 0.8391578 0.47659183 0.86054254 0.71484095 1.0173252 0.579119
1.1802069 -0.4011598 0.5881234 0.58408237 0.82895803 0.8651797 0.8537839 0.5751048
1.0112065 0.45019656 1.0514643 -0.35936615 0.15672936 0.52860594 1.0975025 0.67801
1.0370305 0.79724574 0.83719856 -0.41086787 1.2765541 0.3128554 0.8999535 0.7712297
0.48897627 -0.59357285 1.0659591 -0.15208346 0.49773103 0.010313357 0.9650635 0.7800577
00000000: f0f9 063f d7da 733f 2c19 ad3f 06c4 353f
00000010: b7e2 3f3f 9e94 253f 2c4b 643f f9d6 4a3f
00000020: 74f7 253f 2d74 c33e 1096 1a3f 3ff4 343f
00000030: 6436 c5be f249 903f a2c3 623f 81df 7d3f
00000040: 4747 713f 73ef 3b3f 21f0 bd3e b495 473f
00000050: 7b78 613f 0684 363f 044f ab3f 89b8 edbe
00000060: 9e0a 7c3f 8c7b 0e3f 0cd3 563f d803 f43e
00000070: 844c 5c3f d1ff 363f b637 823f 2541 143f
00000080: 0511 973f d164 cdbe 418f 163f 6c86 153f
00000090: 9836 543f 6b7c 5d3f 9591 5a3f 113a 133f
000000a0: 376f 813f 2a80 e63e 6296 863f d7fe b7be
000000b0: a97d 203e b852 073f f67a 8c3f 1092 2d3f
000000c0: 6abd 843f 4c18 4c3f a552 563f 465d d2be
000000d0: 2066 a33f 952e a03e 5a63 663f 4f6f 453f
000000e0: 195b fa3e 64f4 17bf 5971 883f c4bb 1bbe
000000f0: 9ad6 fe3e 5bf9 283c 670e 773f ddb1 473f

encoder.trans_layer_T.trans_layers.0.ln.bias f4 [64]
0.505998 0.41676414 0.52865887 0.36977512 0.7748375 0.06500979 0.14920752 0.6734191
0.029925367 0.32428113 0.08532221 0.61976045 0.25074404 0.4775272 0.12888777 0.24987686
0.002459351 -0.15681447 -0.07554352 -0.088063605 0.24043629 0.18703523 0.596685 0.39514092
0.4139809 -0.13603401 0.27116352 -0.34448785 0.7596466 -0.2095651 0.55409473 -0.14486483
0.32435083 0.29503652 0.31847924 0.031953037 0.44072455 0.0038324893 0.4473802 0.20052011
0.75338954 -0.32518202 0.7968587 0.12019022 0.30324313 -0.20049712 0.8307701 0.18987565
0.42757785 0.35577273 0.8031899 0.25827694 0.5510635 0.56314224 0.62812734 0.19383422
0.2823383 0.28378144 0.31761163 0.11102041 0.38719842 -0.008115939 0.6837169 0.12285382
00000000: 1689 013f 1c62 d53e 3056 073f 2a53 bd3e
00000010: c05b 463f da23 853d dbc9 183e 3265 2c3f
00000020: 0b26 f53c 2d08 a63e 69bd ae3d 9fa8 1e3f
00000030: 8661 803e 727e f43e 28fb 033e b8df 7f3e
00000040: 102d 213b f993 20be 90b6 9abd b15a b4bd
00000050: ee34 763e 2a86 3f3e 59c0 183f e94f ca3e
00000060: 4ef5 d33e 804c 0bbe f2d5 8a3e b660 b0be
00000070: 3378 423f 3c98 56be 27d9 0d3f 7257 14be
00000080: 5011 a63e 070f 973e b60f a33e 30e1 023d
00000090: a6a6 e13e 802a 7b3b 040f e53e 2555 4d3e
000000a0: 23de 403f 427e a6be effe 4b3f 4a26 f63d
000000b0: af42 9b3e 1e4f 4dbe 59ad 543f c36e 423e
000000c0: 7ceb da3e d827 b63e da9d 4d3f e03c 843e
000000d0: 7f12 0d3f 172a 103f f4cc 203f 7a7c 463e
000000e0: a58e 903e cd4b 913e fe9d a23e ab5e e33d
000000f0: df3e c63e b7f8 04bc 1208 2f3f c99a fb3d

encoder.trans_layer_T.trans_layers.0.lnff.weight f4 [64]
1.3074489 1.3379984 0.35207176 0.8101187 0.4826847 0.04157018 0.16813993 0.6998931
0.12222814 0.65036637 0.116461135 0.8631421 -0.019915411 0.4943763 0.44791734 0.3701332
0.8067376 0.9049391 0.15394698 0.04843493 0.2855288 1.1595416 1.2305782 1.49848
1.3529055 0.5108242 1.4541732 1.5836644 0.71409947 0.4935401 0.87713104 0.23013577
0.9009834 0.9267229 0.384169 0.7704622 0.55561155 -0.10764116 0.90923893 0.5618222
0.2676645 -0.014607065 1.2287626 0.83885396 0.24069253 0.2290058 0.97532463 0.72303826
1.1774945 1.1500068 0.8871348 0.47534072 0.99547684 0.47431654 -0.15916634 0.65517473
-0.034987435 0.9697073 0.81208444 0.65393126 0.91211116 0.96752864 0.77746063 0.20329665
00000000: 7c5a a73f 8843 ab3f c042 b43e f063 4f3f
00000010: 7322 f73e 7e45 2a3d e02c 2c3e 322c 333f
00000020: bf52 fa3d 697e 263f 2d83 ee3d e1f6 5c3f
00000030: a525 a3bc e41e fd3e 6c55 e53e 1982 bd3e
00000040: 5b86 4e3f 17aa 673f 47a4 1d3e b563 463d
00000050: d530 923e dc6b 943f 9683 9d3f 31ce bf3f
00000060: 022c ad3f 60c5 023f 5922 ba3f 84b5 ca3f
00000070: 39cf 363f 4ab1 fc3e a98b 603f b6a8 6b3e
00000080: d9a6 663f b63d 6d3f cdb1 c43e 033d 453f
00000090: 8f3c 0e3f f872 dcbd e2c3 683f 94d3 0f3f
000000a0: 520b 893e 7952 6fbc 1848 9d3f 22bf 563f
000000b0: 1a78 763e 7f80 6a3e e0ae 793f 0919 393f
000000c0: 24b8 963f 6c33 933f 441b 633f dc5f f33e
000000d0: 92d7 7e3f 9ed9 f23e 80fc 22be 88b9 273f
000000e0: fc4e 0fbd bd3e 783f c4e4 4f3f 0a68 273f
000000f0: 1e80 693f f5af 773f a907 473f ff2c 503e

encoder.trans_layer_T.trans_layers.0.lnff.bias f4 [64]
0.8392767 0.4241043 0.19993699 0.6577422 0.09644499 0.7620611 0.1021928 0.070896015
0.35595435 0.353482 0.90276253 0.8141456 0.8637846 0.8000902 0.20233053 -0.043917187
0.86217946 0.79021156 0.1173238 0.71604455 0.80815995 0.90078694 0.5715469 0.92365277
0.7397511 0.8417001 1.0256093 0.4783457 0.016329968 0.60334593 0.902548 0.66108537
0.4465598 0.7550108 0.57915044 0.32284522 0.5430019 0.6117417 0.85280585 0.61813074
1.0064254 0.44178852 0.73822296 0.080759585 0.6428176 0.34866336 0.47809625 0.18886478
0.43421572 0.23293772 0.5764143 0.75939834 0.48971486 0.568904 0.85653347 0.28366503
0.5867556 0.649978 0.33794323 0.35154688 0.558912 0.18614158 0.5045085 0.1596483
00000000: d6da 563f 3324 d93e 48bc 4c3e cb61 283f
00000010: f384 c53d 7016 433f 754a d13d ee31 913d
00000020: a63f b63e 98fb b43e 721b 673f d96b 503f
00000030: fd20 5d3f b6d2 4c3f bc2f 4f3e 82e2 33bd
00000040: cbb7 5c3f 4e4b 4a3f 7647 f03d b24e 373f
00000050: 92e3 4e3f f999 663f e650 123f 8274 6c3f
00000060: 5460 3d3f a879 573f 2a47 833f bae9 f43e
00000070: 6dc6 853c e174 1a3f 630d 673f e43c 293f
00000080: 7ca3 e43e 6348 413f 3443 143f f84b a53e
00000090: 2c02 0b3f 1b9b 1c3f 7c51 5a3f d13d 1e3f
000000a0: 8cd2 803f 1b32 e23e 2efc 3c3f 4865 a53d
000000b0: b28f 243f 0184 b23e 08c9 f43e c565 413e
000000c0: 8651 de3e 3a87 6e3e e38f 133f ee67 423f
000000d0: e8bb fa3e b1a3 113f c745 5b3f 8b3c 913e
000000e0: 9d35 163f f564 263f e506 ad3e f4fd b33e
000000f0: db14 0f3f e69b 3e3e 7827 013f d87a 233e

encoder.trans_layer_T.trans_layers.0.ff.0.weight f4 [64, 64]
-0.1245743 -0.2636494 0.3596095 0.08026619 -0.08292057 0.17071691 -0.25279936 0.033508915
-0.21103461 -0.24467446 -0.08338923 -0.64100116 -0.09274541 -0.66568357 0.13314313 0.01997624
0.04399779 -0.30535993 -0.056302365 -0.18980788 -0.14071187 -0.014139897 0.5844103 -0.23340437
0.22910704 -0.28529158 0.12961389 -0.24931853 -0.10278491 -0.4367439 0.9685923 -0.22914574
-0.30312946 -0.2226951 0.3246816 -0.29089078 0.43661323 -0.5784017 0.18271068 -0.49603117
0.41237116 -0.3466672 0.07463306 0.4322619 -0.3269829 0.016761221 0.017150966 -0.32983533
0.07708755 -0.05066076 -0.09490151 0.13841747 -0.6545215 -0.013772243 0.13628909 -0.2504525
-0.021593498 -0.2727541 0.7621521 -0.15837047 -0.33213323 0.008092311 -0.35737208 -0.23054622
-0.28093666 0.17590049 0.01553682 -0.014722821 -0.18150072 0.04705148 -0.039705303 -0.111572884
-0.010278947 -0.38908166 -0.08888682 -0.2165355 0.019212218 -0.05599623 -0.5154973 -0.041434277
0.19071783 -0.28682122 -0.22291255 -0.3361808 -0.2051519 -0.51460874 -0.26723754 -0.4167615
-0.13709402 -0.081178926 -0.2593752 -0.17487825 -0.08176165 -0.45027742 -0.1802599 -0.45718682
0.011191131 -0.25873432 -0.2598037 -0.19051331 0.079403386 -0.15584907 0.020420026 -0.30115664
-0.15483034 -0.29513228 -0.16410992 -0.37147138 -0.3592012 -0.4675468 -0.065479316 -0.6837179
-0.10569748 -0.18123816 -0.11983344 -0.19613099 -0.1536793 -0.5263913 -0.37894872 -0.40375265
-0.37391147 -0.16237997 0.0154206855 -0.54527897 -0.041802004 -0.4653432 -0.12120398 -0.18001735
0.32678005 -0.47400197 0.4968237 -0.21993357 0.26221266 -0.13614587 -0.09840356 0.32598472
0.0048568957 0.29033744 0.04547971 -0.16989966 0.1278666 0.34790426 -0.044797834 0.017001439
-0.38334435 0.14815275 -0.2993882 0.386837 -0.0041373027 0.021626942 0.6903417 -0.09660105
0.045143176 0.29270887 0.3690727 0.06121086 -0.3451098 0.19640891 0.1813961 -0.021005513
-0.09266281 0.1290209 0.08329752 0.20012893 -0.2326843 0.17936471 0.05912406 -0.15137617
0.22052501 0.42620286 0.44970223 0.17253777 0.0555375 -0.11647144 -0.34027222 -0.06178764
0.66422933 -0.1736936 0.30901784 0.18353017 -0.22834283 -0.103800535 0.18979219 0.3983009
0.027145714 0.31117606 -0.06801658 0.3581999 0.24069683 -0.07307782 -0.54531205 -0.02105566
-0.23581718 0.45182633 -0.117118835 0.09413842 -0.6058869 -0.30893147 0.08460525 -0.082660496
0.15765774 -0.06771156 -0.07360804 -0.2287619 -0.05572439 -0.22379154 -0.03115215 0.12826203
-0.3115417 0.09577668 0.13263707 0.18721947 0.02240683 0.30859745 -0.5279039 0.2538983
-0.2920817 -0.41417623 0.07255661 -0.07357839 -0.075797506 0.04779048 -0.37114343 0.2941127
-0.06877716 -0.32776868 0.28941554 -0.17465422 -0.06367093 0.37553668 0.07093807 0.13935947
-0.1993191 -0.055123813 -0.36788297 0.016145337 -0.044813696 -0.21064438 0.28248438 0.03928214
0.00683792 0.25430816 -0.10415592 0.13611178 0.24866435 -0.02434957 -0.3696605 0.21908474
0.2209351 -0.16608836 -0.16213793 0.07502715 -0.13268363 0.06797536 -0.37125865 0.020970851
00000000: d020 ffbd 0efd 86be bd1e b83e 9a62 a43d
00000010: 43d2 a9bd 6ad0 2e3e eb6e 81be a540 093d
00000020: 7519 58be f18b 7abe f9c7 aabd a718 24bf
00000030: 4ef1 bdbd 3d6a 2abf ac56 083e 36a5 a33c
00000040: 0737 343d 2358 9cbe 4f9d 66bd ff5c 42be
00000050: c616 10be 07ab 67bc ea9b 153f 8e01 6fbe
00000060: 099b 6a3e bd11 92be 81b9 043e 5b4d 7fbe
00000070: e580 d2bd e59c dfbe aaf5 773f 2ea5 6abe
00000080: c933 9bbe 2f0a 64be ab3c a63e a3ef 94be
00000090: c58b df3e 2212 14bf 8218 3b3e ccf7 fdbe
000000a0: 5022 d33e 5d7e b1be 38d9 983d 6f51 dd3e
000000b0: 4d6a a7be d44e 893c 2f80 8c3c 2de0 a8be
000000c0: 14e0 9d3d a881 4fbd b95b c2bd 4fbd 0d3e
000000d0: b98e 27bf f9a4 61bc 5e8f 0b3e 4f3b 80be
000000e0: d9e4 b0bc 6da6 8bbe 661c 433f de2b 22be
000000f0: 5e0d aabe 9d95 043c 79f9 b6be 4f14 6cbe
00000100: eed6 8fbe 421f 343e 258e 7e3c fd37 71bc
00000110: 53db 39be 0db9 403d 07a2 22bd 5380 e4bd
00000120: 0769 28bc b635 c7be 4b0a b6bd 7bbb 5dbe
00000130: f162 9d3c 4e5c 65bd a2f7 03bf fdb6 29bd
00000140: 894b 433e 3bda 92be 3043 64be e41f acbe
00000150: 5713 52be 66bd 03bf 5cd3 88be c361 d5be
00000160: 6062 0cbe 2341 a6bd d4cc 84be 4913 33be
00000170: a772 a7bd c38a e6be 0d96 38be 6414 eabe
00000180: 015b 373c d378 84be fe04 85be ec15 43be
00000190: 3e9e a23d e696 1fbe e647 a73c 3431 9abe
000001a0: d88b 1ebe 941b 97be 6e0c 28be 7f31 bebe
000001b0: 38e9 b7be 4b62 efbe 051a 86bd 2308 2fbf
000001c0: ec77 d8bd 7f96 39be 3c6b f5bd 90d6 48be
000001d0: 1b5e 1dbe 95c1 06bf 9105 c2be abb8 cebe
000001e0: 5371 bfbe ef46 26be 0ba7 7c3c 6797 0bbf
000001f0: 9438 2bbd 7741 eebe cb39 f8bd 7856 38be
00000200: b74f a73e 63b0 f2be ad5f fe3e 4436 61be
00000210: bd40 863e d369 0bbe ce87 c9bd 78e7 a63e
00000220: 9826 9f3b 1ca7 943e ef48 3a3d 2dfa 2dbe
00000230: 76ef 023e 8220 b23e ef7d 37bd 9a46 8b3c
00000240: b645 c4be 5bb5 173e 6949 99be 800f c63e
00000250: 3692 87bb fc2a b13c 3cba 303f c5d6 c5bd
00000260: 0de8 383d f0dd 953e 19f7 bc3e 3db8 7a3d
00000270: 3bb2 b0be 6b1f 493e e6bf 393e c113 acbc
00000280: 00c6 bdbd 0e1e 043e e497 aa3d 99ee 4c3e
00000290: cb44 6ebe 62ab 373e 122c 723d 5b02 1bbe
000002a0: 4fd1 613e 4337 da3e 5f3f e63e bead 303e
000002b0: 4a7b 633d 9488 eebd 2938 aebe 0915 7dbd
000002c0: ef0a 2a3f bcdc 31be 9637 9e3e 55ef 3b3e
000002d0: b4d2 69be 6095 d4bd e258 423e 18ee cb3e
000002e0: b060 de3c 7852 9f3e 474c 8bbd fa65 b73e
000002f0: 3b79 763e d3a9 95bd 9299 0bbf eb7c acbc
00000300: 0f7a 71be c855 e73e 00dc efbd a5cb c03d
00000310: 671b 1bbf 442c 9ebe 8445 ad3d e849 a9bd
00000320: 0871 213e 5cac 8abd d0bf 96bd 8f40 6abe
00000330: 423f 64bd 9c29 65be cb32 ffbc 1f57 033e
00000340: 6582 9fbe 9026 c43d 03d2 073e 76b6 3f3e
00000350: 878e b73c 7c00 9e3e b624 07bf f5fe 813e
00000360: bc8b 95be e80e d4be 8f98 943d 44b0 96bd
00000370: b93b 9bbd f3bf 433d 8306 bebe f195 963e
00000380: 0adb 8cbd 4cd1 a7be 462e 943e 8ed8 32be
00000390: e865 82bd 5846 c03e fb47 913d 40b4 0e3e
000003a0: 4e1a 4cbe 82c9 61bd 285b bcbe 3a43 843c
000003b0: 918e 37bd 29b3 57be cba1 903e 4fe6 203d
000003c0: a110 e03b ae34 823e b34f d5bd e360 0b3e
000003d0: dea1 7e3e c078 c7bc 2444 bdbe c057 603e
000003e0: d03c 623e 1113 2abe 7c07 26be d6a7 993d
000003f0: 38de 07be aa36 8b3d 9d15 bebe 10cb ab3c

encoder.trans_layer_T.trans_layers.0.ff.0.bias f4 [64]
0.5193446 0.3033758 1.0104895 0.5499115 0.501441 0.5456938 0.18384944 0.9222261
0.0418586 0.42161968 0.15589613 0.8754876 0.51316285 0.44971764 0.35835734 0.15111548
-0.013526153 0.40969658 -0.25979775 -0.21001086 0.17346607 0.6613368 0.3730372 -0.111886434
0.2798782 0.31534213 -0.19096978 0.33698976 -0.17832194 0.05820231 0.28749156 0.21974698
0.30754438 0.6960497 0.68076545 0.2387079 0.41492328 0.4354165 0.15460467 0.5473127
0.5201303 -0.17114154 0.13542289 0.45591685 0.6308632 -0.26347405 0.015849892 0.3853777
0.17836507 0.6873588 0.63038236 0.2145247 0.3765643 0.9443637 1.0599138 0.5048989
0.41077265 -0.25772116 0.45612025 0.06362796 -0.025568893 0.6859685 0.15672672 0.47474417
00000000: c5f3 043f 1354 9b3e b857 813f 00c7 0c3f
00000010: 705e 003f 97b2 0b3f 0743 3c3e 0217 6c3f
00000020: ec73 2b3d 89de d73e 3ca3 1f3e f51f 603f
00000030: a45e 033f 6441 e63e 9d7a b73e 04be 1a3e
00000040: cc9c 5dbc c0c3 d13e 3604 85be 160d 57be
00000050: 17a1 313e 5e4d 293f bbfe be3e b724 e5bd
00000060: 324c 8f3e 8674 a13e 958d 43be ec89 ac3e
00000070: 079a 36be 8c65 6e3d 1832 933e 5a05 613e
00000080: 7576 9d3e 5030 323f a546 2e3f d86f 743e
00000090: d370 d43e e9ee de3e b050 1e3e af1c 0c3f
000000a0: 4227 053f ba3f 2fbe 4cac 0a3e ef6d e93e
000000b0: 4080 213f 12e6 86be a2d7 813c 3a50 c53e
000000c0: 55a5 363e bff6 2f3f bd60 213f 5dac 5b3e
000000d0: 09cd c03e d2c1 713f 41ab 873f 0e41 013f
000000e0: cb50 d23e 07f4 83be 9888 e93e 604f 823d
000000f0: db75 d1bc a29b 2f3f f87c 203e ab11 f33e

encoder.trans_layer_T.trans_layers.0.ff.2.weight f4 [64, 64]
0.027309367 -0.24766487 0.32484558 -0.22098714 -0.5925157 -0.26442656 0.4259394 0.5374952
0.020894378 0.1608242 -0.94197905 0.46943843 -0.013702689 -0.18272308 -0.43390542 0.06879537
-0.3501219 0.27730557 0.13982478 0.27570722 0.41703323 -0.15047625 -0.54145247 -0.15400429
-0.6838806 0.6455824 -0.9981065 0.28242788 1.7102469 0.058162067 -0.07556543 0.665788
-0.23885809 0.23117363 0.09777612 -0.19690964 0.20837136 -0.064725466 0.6756385 0.17980528
-0.4819964 0.26141793 -0.21712075 -0.4065239 1.0162132 1.6101925 -0.65763986 -0.17880416
0.8061427 -0.44384527 1.3386952 0.7891792 -0.68477225 -0.07970548 -0.3985309 0.074027956
-0.3227544 -0.40365693 -0.5967379 0.36661056 0.34430397 -0.023387928 -0.43336105 0.13920279
-0.21373747 0.3533916 -0.2538317 -0.034299325 -0.06335626 0.0070698564 0.15951215 -0.21819584
0.08771775 0.23489843 1.0287851 0.21961892 -0.14176501 0.017603047 1.2709169 -0.09929822
0.4514432 -0.6828484 -0.111827895 0.09787885 0.44103387 0.27611083 0.7441858 0.2487754
-0.36054492 -0.54683375 -0.16140425 -0.70612216 -2.355596 0.18757777 -0.9009518 -0.128546
0.31728005 0.8210576 0.9559709 0.1980462 0.021170733 0.18026987 -0.4629611 0.61055285
0.038750306 0.20347111 0.48673838 -0.28338423 0.08185064 -2.312686 -0.68775284 -0.70131147
0.24028921 -0.12736745 -0.3224525 -0.42365146 0.45298412 0.28693384 -0.4388614 -0.0036468464
0.6565288 -0.2469719 -0.37937662 0.28814948 -0.77504647 -0.12692392 -0.32632193 0.15811045
-0.9263229 0.10351481 0.51349866 0.09421186 -0.12780091 0.49458817 -0.9962262 -0.55360633
-0.06622512 -0.15932505 -0.113716915 -0.19480804 -0.17755683 0.21156734 0.054044228 0.07638557
0.21365418 -0.35241273 -0.02314021 -0.0035013158 0.4487057 0.86943436 0.8138056 0.24116464
-1.4996578 -0.5180693 -0.8722433 0.016440375 -1.5003154 -0.42541578 -0.7279363 -0.15347385
0.08295011 0.41537037 0.10546127 -0.7519447 -0.2397273 0.10117955 0.21144398 0.0021156685
-0.14421888 -0.021620018 -0.013906882 0.55187154 -0.5134883 -1.2009159 0.040798273 0.79361135
-0.45561197 0.25339538 -0.7008886 0.2015644 0.7587259 -0.27450874 -0.10378915 0.022348234
0.23280673 0.019209893 -0.21054386 -0.23602793 0.057603084 0.46237683 -0.15648685 0.11993242
0.0056439578 0.03227695 -0.6037858 0.3076582 0.04593207 0.266057 0.074903846 0.7553276
0.09056989 -0.40450087 0.39040244 -0.75530535 -0.22172396 -0.22831362 0.6406999 -0.43029904
-0.7643865 -0.44013628 0.044559922 0.14411995 0.29084915 -0.24684295 0.54175514 0.47017312
-0.93595964 -0.14348194 -0.39388528 1.0620458 0.80884606 0.6096617 0.46467406 0.09502571
-0.5019548 0.056487374 0.41802654 -0.447821 -0.23124996 -0.22949272 0.06749926 0.0070046294
0.68468726 -0.20963442 0.38673326 -0.20881404 -0.63348025 -1.9750762 0.021513056 -0.10560772
0.2386976 -0.11034035 0.09014217 0.14918858 -0.5742274 0.089254506 -0.37901217 -0.2429673
-1.2043072 0.18445095 0.41112667 -0.47461674 0.15331347 0.8187693 0.015533767 -0.12052105
00000000: e5b7 df3c dc9b 7dbe 2952 a63e 744a 62be
00000010: 1caf 17bf eb62 87be bb14 da3e 4999 093f
00000020: b02a ab3c 19af 243e 8a25 71bf 3c5a f03e
00000030: 3e81 60bc c21b 3bbe da28 debe 96e4 8c3d
00000040: 2d43 b3be fffa 8d3e 3a2e 0f3e 7f29 8d3e
00000050: 6185 d53e 7216 1abe a19c 0abf 4db3 1dbe
00000060: cd12 2fbf e344 253f e883 7fbf 639a 903e
00000070: 5fe9 da3f 593b 6e3d 0cc2 9abd 1571 2a3f
00000080: 3797 74be c8b8 6c3e d93e c83d aea2 49be
00000090: 4d5f 553e c98e 84bd a5f6 2c3f e01e 383e
000000a0: 3bc8 f6be 92d8 853e e754 5ebe e723 d0be
000000b0: 4613 823f ca1a ce3f 165b 28bf 7018 37be
000000c0: 5e5f 4e3f b03f e3be 5d5a ab3f a607 4a3f
000000d0: 3c4d 2fbf a03c a3bd 3e0c ccbe f89b 973d
000000e0: 1140 a5be 1fac cebe d1c3 18bf 61b4 bb3e
000000f0: 9c48 b03e 0a98 bfbc 80e1 ddbe 2d8b 0e3e
00000100: ffdd 5abe beef b43e 3bf6 81be 737d 0cbd
00000110: edc0 81bd 41aa e73b 2757 233e bb6e 5fbe
00000120: 5da5 b33d 3789 703e 3baf 833f c8e3 603e
00000130: d92a 11be 4434 903c 68ad a23f dd5c cbbd
00000140: 9023 e73e 27cf 2ebf 0606 e5bd b574 c83d
00000150: 31cf e13e 665e 8d3e f682 3e3f fabe 7e3e
00000160: 5899 b8be 4cfd 0bbf 2847 25be 6cc4 34bf
00000170: 16c2 16c0 6314 403e c7a4 66bf 90a1 03be
00000180: 8872 a23e d530 523f 82ba 743f a0cc 4a3e
00000190: 3f6e ad3c aa98 383e 3d09 edbe 314d 1c3f
000001a0: a4b8 1e3d bb5a 503e c635 f93e bd17 91be
000001b0: 4fa1 a73d 0c03 14c0 9210 30bf 2689 33bf
000001c0: 600e 763e 9d6c 02be 7e18 a5be d8e8 d8be
000001d0: 89ed e73e fee8 923e 71b2 e0be eeff 6ebb
000001e0: 4512 283f 34e6 7cbe a73d c2be 5488 933e
000001f0: 7269 46bf 58f8 01be ab13 a7be b5e7 213e
00000200: 7f23 6dbf 93ff d33d a674 033f 26f2 c03d
00000210: 3ede 02be a93a fd3e ae08 7fbf 25b9 0dbf
00000220: 09a1 87bd 1b26 23be 6ae4 e8bd c27b 47be
00000230: 75d1 35be 1ca5 583e 7b5d 5d3d 0a70 9c3d
00000240: 29c8 5a3e 716f b4be 8a90 bdbc 5576 65bb
00000250: c1bc e53e 4093 5e3f 9055 503f ddf3 763e
00000260: c9f4 bfbf 31a0 04bf 564b 5fbf f7ad 863c
00000270: 560a c0bf 19d0 d9be 095a 3abf 4028 1dbe
00000280: bfe1 a93d 6dab d43e 14fc d73d 737f 40bf
00000290: 137b 75be 3937 cf3d c584 583e 07a7 0a3b
000002a0: 1dae 13be 771c b1bc b1d9 63bc 7447 0d3f
000002b0: f873 03bf 9db7 99bf 171c 273d 1d2a 4b3f
000002c0: f945 e9be 0abd 813e 6f6d 33bf e666 4e3e
000002d0: dc3b 423f 698c 8cbe 688f d4bd a513 b73c
000002e0: e364 6e3e 115e 9d3c cf98 57be 4eb1 71be
000002f0: 36f1 6b3d a8bc ec3e 173e 20be 219f f53d
00000300: f3f0 b83b d634 043d b591 1abf 6085 9d3e
00000310: 4423 3c3d a038 883e 3067 993d 265d 413f
00000320: b57c b93d bd1a cfbe d4e2 c73e b15b 41bf
00000330: 9b0b 63be 0ccb 69be e904 243f 2850 dcbe
00000340: d5ae 43bf 8b59 e1be 7784 363d 2e94 133e
00000350: 2eea 943e 66c4 7cbe 77b0 0a3f 88ba f03e
00000360: 0d9b 6fbf eeec 12be 55ab c9be 1ef1 873f
00000370: 8910 4f3f ca12 1c3f c2e9 ed3e d79c c23d
00000380: 1c80 00bf 4e5f 673d 9307 d63e cb48 e5be
00000390: cacc 6cbe 2400 6bbe 0d3d 8a3d 1787 e53b
000003a0: aa47 2f3f 68aa 56be e701 c63e 59d3 55be
000003b0: c32b 22bf 4ccf fcbf 263c b03c dc48 d8bd
000003c0: 256d 743e 1ffa e1bd 759c b83d e4c4 183e
000003d0: 9100 13bf 11cb b63d e20d c2be 6bcc 78be
000003e0: bd26 9abf b6e0 3c3e 327f d23e f700 f3be
000003f0: 35fe 1c3e dd9a 513f 5781 7e3c bed3 f6bd
